models/Experiment_3/model.pth (torch_old, 248658 bytes, 10 tensors)

features.0.weight f4 [6, 1, 5, 5]
0	0x3eb8e0db	0.3610905
1	0x3f0ceeaa	0.5505167
2	0x3edac0bf	0.4272518
3	0x3f10b3f9	0.56524616
4	0x3e1a5371	0.15070893
5	0x3eed1b85	0.46310058
6	0x3f34c561	0.70613676
7	0x3f866758	1.0500288
8	0x3f5ec3ba	0.87017405
9	0x3e4d48d7	0.20047317
10	0x3f316e73	0.6930916
11	0x3f6c4364	0.9229033
12	0x3f896924	1.0735211
13	0x3f2da042	0.6782266
14	0x3ecd13da	0.40054208
15	0x3e7cfcd8	0.24705827
16	0x3f2639da	0.64932024
17	0x3f0ccbd0	0.54998493
18	0x3e7ed146	0.24884519
19	0x3e47828c	0.19483393
20	0xbe501ce9	-0.20323528
21	0xbc95658b	-0.018236896
22	0xbc910ed7	-0.017707272
23	0x3e05b562	0.13057473
24	0xbe5a1ba5	-0.21299608
25	0xbdce8807	-0.10084539
26	0xbdb06f12	-0.08614935
27	0xbda5217e	-0.08063029
28	0x3dae1775	0.08500568
29	0xbe22ca52	-0.15897492
30	0x3e4bfa83	0.19919781
31	0xbdaa62eb	-0.08319648
32	0x3eb27569	0.34855202
33	0x3e7f8ef7	0.2495688
34	0x3d6a333c	0.057177767
35	0x3e924458	0.28567767
36	0x3eb8b9bd	0.36079207
37	0x3f236742	0.63829434
38	0x3ef00695	0.46880022
39	0x3e41041d	0.18849225
40	0x3eab6af1	0.33480027
41	0x3ede7f84	0.43456662
42	0x3f2f6671	0.6851569
43	0x3f2ece01	0.68283087
44	0x3ecfc4b9	0.40579775
45	0x3dd936cb	0.10606154
46	0x3ee286c9	0.44243458
47	0x3ecb038d	0.39651147
48	0x3ec5664e	0.38554615
49	0x3cfeeeb0	0.031119674
50	0xbe86996b	-0.26288924
51	0xbbc90f9f	-0.0061358954
52	0x3d023ba4	0.03179516
53	0x3eb27867	0.34857485
54	0x3e19bf6c	0.15014428
55	0x3dcddc9d	0.10051844
56	0x3e830756	0.25591534
57	0x3e808919	0.25104597
58	0x3e93e89a	0.28888398
59	0xbe3c7a5f	-0.18406056
60	0x3e1a3588	0.15059483
61	0x3e14a06c	0.14514321
62	0x3ea2920c	0.3175205
63	0xbd123883	-0.035698425
64	0xbdfba9db	-0.12288257
65	0x3e1de8eb	0.15420882
66	0x3eded6ff	0.43523404
67	0x3d507aa7	0.05089822
68	0xbe341c0e	-0.17588827
69	0xbea9ad12	-0.33139855
70	0x3ebbfd09	0.36716488
71	0x3e901fe3	0.28149328
72	0x3e8ff8b5	0.28119436
73	0xbe80ee5b	-0.2518185
74	0xbeb79b10	-0.3586049
75	0xbe215426	-0.15754756
76	0xbe0d72f4	-0.13813382
77	0x3d8ea9c2	0.069659725
78	0x3d58f2ba	0.052965857
79	0x3e167bed	0.14695711
80	0xbdd29a9c	-0.10283396
81	0xbe0dda64	-0.1385284
82	0x3dcb9251	0.09940017
83	0xbdbf25ec	-0.09333405
84	0x3dd49194	0.10379329
85	0xbd3bd6d3	-0.04585917
86	0x3de353f0	0.11099994
87	0xbe27ee1b	-0.16399424
88	0xbde314c9	-0.11087949
89	0x3d487935	0.048943717
90	0x3d3072dc	0.04307829
91	0xbd6cf2a6	-0.057848595
92	0x3ddc8a59	0.10768575
93	0x3e024beb	0.12724273
94	0xbe1a33ca	-0.15058818
95	0xbddf26dc	-0.10896084
96	0x3e31dfef	0.1737058
97	0xbd9f4906	-0.077776
98	0xbd9d0e28	-0.07668716
99	0xbe47c6a7	-0.19509374
100	0xbdc44f58	-0.09585446
101	0x3d14345e	0.036182754
102	0xbd8123bc	-0.06305644
103	0xbe313870	-0.17306685
104	0xbc821b60	-0.015882194
105	0xbdd75a0a	-0.105152205
106	0xbe2a8aaf	-0.16654466
107	0xbe012d67	-0.12614976
108	0xbe40535a	-0.18781796
109	0xbe11d507	-0.1424142
110	0x3e661b81	0.2247143
111	0x3d2edcc5	0.04269101
112	0x3d49fea5	0.049315114
113	0xbe4c744f	-0.19966243
114	0xbe1b4451	-0.1516278
115	0xbd282ed4	-0.041060284
116	0x3d29da1e	0.04146778
117	0xbe3834d9	-0.1798891
118	0xbdc48008	-0.095947325
119	0xbe11f5c0	-0.14253902
120	0x3d04e3aa	0.03244368
121	0xbd87f351	-0.06638206
122	0xbd053dd2	-0.03252966
123	0xbe27ca07	-0.16385661
124	0xbe342b84	-0.17594725
125	0xbe0563be	-0.1302633
126	0xbd959506	-0.073038146
127	0xbe235a2a	-0.15952364
128	0x3e28600e	0.16442892
129	0xbd1941e6	-0.03741636
130	0x3e26f4e9	0.16304363
131	0x3d77cab0	0.060496032
132	0xbe314b9b	-0.17313997
133	0x3e045847	0.129243
134	0xbd71d994	-0.05904539
135	0xbda91761	-0.08256412
136	0xbe2a8555	-0.16652425
137	0xbe52d52b	-0.2058913
138	0x3d314bc9	0.043285165
139	0xbd574e52	-0.052564926
140	0x3d8f7cbd	0.07006214
141	0xbe2bf04c	-0.16790885
142	0x3e0d1c97	0.13780437
143	0xbe23c6f4	-0.15993863
144	0xbd285d7f	-0.04110479
145	0x3d2bad5a	0.041913368
146	0x3de335c1	0.11094237
147	0x3e2d9455	0.16951115
148	0x3e44e8a0	0.19229364
149	0xbe15c51f	-0.14625977

features.0.bias f4 [6]
0	0x3a5b3d9d	0.0008363368
1	0x3a9f42b9	0.0012150622
2	0xbd7a30ec	-0.06108181
3	0xbe308648	-0.17238724
4	0x3ecb797a	0.39741117
5	0xbe0cad0f	-0.13737892

features.3.weight f4 [16, 6, 5, 5]
0	0xbd43441a	-0.04767237
1	0x3cb8f84a	0.022579331
2	0x3b71691b	0.003683633
3	0xbe04f86e	-0.12985393
4	0x3cea422c	0.028596006
5	0x3d6747fe	0.05646514
6	0x3e39521a	0.18097726
7	0xbb9dfbc5	-0.004821273
8	0xbd9bf97a	-0.07615943
9	0xbdf0cc59	-0.11757726
10	0xbdc3706a	-0.09542926
11	0x3e751ed7	0.23937546
12	0x3dd6321e	0.10458778
13	0xbe56e007	-0.20983897
14	0xbe2fdb00	-0.17173386
15	0xbd8d9e3b	-0.06914946
16	0x3e687217	0.22699772
17	0x3d4d76c4	0.05016209
18	0xbe43194a	-0.19052616
19	0xbdc4104a	-0.095734194
20	0xbd183a53	-0.037164997
21	0x3e3cdcc6	0.18443593
22	0x3d4dec0f	0.05027395
23	0xbe756e2b	-0.23967807
24	0xbcc6aed2	-0.024253283
25	0x3d926359	0.07147855
26	0x3dd40e38	0.103542745
27	0xbc6e4eb9	-0.014545136
28	0xbca6780d	-0.020320917
29	0x3b2102e6	0.0024568378
30	0x3ce9a4cc	0.028520964
31	0x3d9c4739	0.07630772
32	0x3b2522e2	0.0025197794
33	0xbdb9db9f	-0.090750925
34	0xbdb11bef	-0.08647906
35	0xbd7d9782	-0.061912067
36	0x3e20b485	0.15693863
37	0x3dad944b	0.0847555
38	0xbdda6e02	-0.106655136
39	0xbd726178	-0.059174985
40	0x3c3f5eb7	0.011680297
41	0x3dcc6eeb	0.099820934
42	0x3c2524a7	0.010079539
43	0xbd833f7f	-0.06408595
44	0xbdc66835	-0.09687845
45	0x3bd69d95	0.006549547
46	0x3dd27783	0.10276701
47	0xbd53097b	-0.051522713
48	0xbdb96f27	-0.09054404
49	0xbd73bf76	-0.059508763
50	0xbdf35b57	-0.11882656
51	0xbdc585d6	-0.09644668
52	0x3b32c06d	0.002727534
53	0x3bcf6be3	0.00633
54	0x3ca2149f	0.019785224
55	0xbd18fbdc	-0.037349567
56	0xbd502ed8	-0.050825924
57	0x3bf83b98	0.0075754635
58	0xbd202b59	-0.03910384
59	0x3d0121e0	0.031526446
60	0xbd673791	-0.056449477
61	0x3d06edf1	0.032941762
62	0x3dbe7728	0.09300071
63	0xbd9aa94b	-0.07551821
64	0xbdb34add	-0.087545134
65	0x3d48dbc4	0.04903771
66	0x3d6c7820	0.057731748
67	0x3c70e901	0.01470399
68	0xbe07cac6	-0.13260946
69	0x3d2b591c	0.04183303
70	0x3db819be	0.08989285
71	0x3de6f55c	0.11277267
72	0xbd841bd9	-0.06450624
73	0xbe05fda2	-0.13085034
74	0xbd786d4d	-0.060651112
75	0x3d70f5eb	0.058828276
76	0x3d1c8b2f	0.038218673
77	0x3d8e7271	0.06955422
78	0x3d305e36	0.043058597
79	0x3ca04dc5	0.019568333
80	0xbb225a51	-0.002477307
81	0xbd803baa	-0.0626138
82	0xbd8f2c84	-0.069909126
83	0xbd9ea45c	-0.07746193
84	0x3d04c5c9	0.032415185
85	0xbd2cebd5	-0.042217094
86	0xbc85f8a4	-0.016353913
87	0xbd427143	-0.047471296
88	0xbc7ef422	-0.0155611355
89	0xbd6d23c4	-0.057895437
90	0xbd64a670	-0.05582279
91	0x3ce4232f	0.027848808
92	0xbcc7e867	-0.02440281
93	0x3d4de63e	0.050268404
94	0xbcd98885	-0.026554355
95	0xbd81942c	-0.0632709
96	0xbc71057a	-0.014710778
97	0xbd21e7d8	-0.039527744
98	0xbcccc02a	-0.024993975
99	0xbd9eaeb0	-0.07748163
100	0x3d37aa7c	0.04484032
101	0xbd6ed3f4	-0.058307603
102	0x3d4aa27a	0.049471356
103	0x3d1ecbb5	0.03876849
104	0x3d46e6f8	0.048560113
105	0xbd847ea2	-0.06469466
106	0x3d6d2076	0.057892285
107	0xbccee623	-0.025256222
108	0x3d09a019	0.033599947
109	0x3d8c94e2	0.06864335
110	0xbbd57166	-0.0065137623
111	0xba69efb7	-0.0008923965
112	0xbc091b8c	-0.008368384
113	0xbd83dd61	-0.06438709
114	0x3d04a2d2	0.03238184
115	0xbd9f5468	-0.07779771
116	0x3d638328	0.055545002
117	0x3d88e5de	0.06684469
118	0x3d9d3993	0.07676997
119	0xbcd7fac4	-0.026364692
120	0xbd9e70c9	-0.07736356
121	0x3c3eb422	0.011639627
122	0x3d27347e	0.040821545
123	0xbdb77375	-0.089575686
124	0xbcd8dde3	-0.026472991
125	0xbd416fee	-0.047225885
126	0xbb961a2f	-0.004580758
127	0xbd2c9076	-0.042129956
128	0xbd1bcf50	-0.038039505
129	0xbce4a88f	-0.027912406
130	0xbdaab546	-0.083353564
131	0x3d7a8cb2	0.061169334
132	0x3d7fd117	0.062455263
133	0xbc8420e8	-0.016128972
134	0xbc23d622	-0.009999784
135	0xbd202a61	-0.039102916
136	0xbda46c47	-0.08028465
137	0xbdb10583	-0.086436294
138	0x3ce3caf2	0.027806733
139	0xbd34792b	-0.044060867
140	0xbd6631b6	-0.05619975
141	0xbc466d9b	-0.012111093
142	0xbd062771	-0.032752458
143	0xbcec393f	-0.02883589
144	0x3aa7267b	0.0012752557
145	0xbc93233a	-0.017961133
146	0xbd008446	-0.031376146
147	0xbd2b1564	-0.041768447
148	0xbd86f354	-0.0658938
149	0x3d8dfb01	0.06932641
150	0xbdc359b8	-0.09538597
151	0xbdbf4a5e	-0.09340356
152	0xbde3f7d6	-0.11131255
153	0x3c9a86c0	0.018863082
154	0x3e2f456d	0.17116328
155	0x3d055957	0.032555904
156	0x3d32dabd	0.043665636
157	0x3e94e656	0.29081982
158	0x3e9fe463	0.31228933
159	0x3d86d672	0.06583871
160	0x3e0e39eb	0.13889281
161	0x3e8f7245	0.28016868
162	0x3e5f096d	0.2178094
163	0x3cdb0410	0.026735336
164	0xbe8c71c7	-0.27430555
165	0xbd260b1c	-0.04053794
166	0xbd1c102e	-0.038101368
167	0xbe19e843	-0.15030007
168	0xbe9eba58	-0.31001544
169	0xbe110df3	-0.14165477
170	0xbdda3495	-0.106545605
171	0xbe81544d	-0.2525963
172	0xbe6e13c1	-0.23249723
173	0xbd890e99	-0.066922374
174	0x3dea3052	0.114349976
175	0xbc94a9eb	-0.01814743
176	0xbd564430	-0.052311122
177	0x3c9f16e7	0.0194201
178	0x3e219a42	0.15781501
179	0xbb7bbb53	-0.0038411214
180	0x3d32046a	0.04346124
181	0x3e49ef1a	0.19720116
182	0x3e1adffa	0.15124503
183	0x3d7c20a0	0.06155455
184	0xbdae948a	-0.08524425
185	0xbc1c585f	-0.009542554
186	0xbcdfe302	-0.027329925
187	0xbdeb520f	-0.11490261
188	0xbe5b9486	-0.21443376
189	0xbe0f5320	-0.13996553
190	0x3cd4996f	0.02595207
191	0xbe2c0237	-0.1679772
192	0xbe54f86e	-0.20797893
193	0xbd4e850b	-0.05041985
194	0x3d899fff	0.0671997
195	0x3d6ac077	0.057312455
196	0x3d619867	0.055076983
197	0x3d9d1f6d	0.076720096
198	0xbce53b6a	-0.027982432
199	0x3c5c7a06	0.013456827
200	0x3d436d38	0.04771158
201	0xbd210081	-0.03930712
202	0xbd1b868b	-0.037970107
203	0x3e097ac8	0.13425744
204	0x3d08d99e	0.03341066
205	0xbd802568	-0.06257135
206	0xbd857c69	-0.0651787
207	0x3dc3c669	0.09559328
208	0x3e0f7756	0.14010367
209	0x3cd922e0	0.026505888
210	0x3d073502	0.033009537
211	0xbc8e2c61	-0.017355146
212	0xbcac094a	-0.021000523
213	0xbbcb2d58	-0.0062004738
214	0x3b9a8f2c	0.0047167744
215	0x3d7ae53e	0.06125378
216	0xbd824388	-0.06360537
217	0xbd85f0c8	-0.06540066
218	0xbde8309b	-0.11337396
219	0xbce93606	-0.028468143
220	0x3c16b349	0.009198018
221	0x3ca1e9d4	0.019764818
222	0x3d68cd4c	0.05683641
223	0xbd1bf6ec	-0.03807728
224	0x3de8d2ba	0.11368318
225	0xbd6d8e33	-0.05799694
226	0x3cf563e4	0.029954858
227	0x3d8e21bb	0.06940027
228	0x39d2d950	0.00040216232
229	0x3d97b3e3	0.074073575
230	0xbd8deaab	-0.06929525
231	0xbd014864	-0.031563178
232	0x3d3f621c	0.046724424
233	0xbc99816e	-0.018738475
234	0xbc8e0edb	-0.017341068
235	0xbd057a94	-0.032587603
236	0x3d723914	0.059136465
237	0x3d24009b	0.04003964
238	0x3cc71649	0.024302619
239	0xbd41092d	-0.04712789
240	0xbd85f107	-0.06540113
241	0x3c209f5f	0.009803622
242	0x3cbaa81a	0.022785235
243	0xbd20a2cb	-0.03921775
244	0xbcc370ba	-0.023857463
245	0x3d5d79f9	0.0540714
246	0x3b9f2a4b	0.0048573366
247	0x3aa84420	0.0012837686
248	0xbcaed60a	-0.021342296
249	0xbd968d31	-0.07351149
250	0xbd9dc738	-0.077040136
251	0xbd455ae4	-0.048182383
252	0xbd35a06f	-0.044342455
253	0x3d052cf5	0.032513577
254	0xbc52d13b	-0.012867267
255	0xbd3c1742	-0.045920618

features.3.bias f4 [16]
0	0xbcb7bbce	-0.02242842
1	0x3d1a4182	0.03766013
2	0x3ddc9ced	0.10772119
3	0x3c22d9d3	0.009939629
4	0xbd0f57f3	-0.034995984
5	0x3d9dfc74	0.07714167
6	0x3d08380b	0.03325657
7	0xbcde95ce	-0.027171042
8	0xbc955c70	-0.018232554
9	0xbd6ed097	-0.058304396
10	0xbdf4f668	-0.11961061
11	0x3cbe6e7d	0.023246044
12	0x3ccb687b	0.024830094
13	0x3d1ef4a4	0.038807526
14	0x3d95a820	0.07307458
15	0x3d88fa60	0.0668838

features.6.weight f4 [120, 16, 5, 5]
0	0xbc3af65d	-0.011411277
1	0x3cd844f5	0.026400069
2	0x3cc03451	0.023462446
3	0xbd484d83	-0.048902046
4	0xbbccf468	-0.0062547214
5	0xbd69289f	-0.056923505
6	0xbcd7774d	-0.026302004
7	0x3cd69984	0.026196249
8	0xbbdbb6cc	-0.0067051407
9	0xb8d6f459	-0.000102498285
10	0x3d2ba783	0.0419078
11	0xbd036f8d	-0.032088805
12	0xbcff8e5b	-0.03119581
13	0xbd0bd51b	-0.03413878
14	0x3c41291a	0.0117895845
15	0xbbb352cb	-0.005472516
16	0x3cd9aee4	0.026572652
17	0xbd658f64	-0.05604495
18	0xbd1dd6a0	-0.03853476
19	0x3cd662e5	0.026170203
20	0x3d1097e2	0.035301097
21	0x3b725a70	0.0036980174
22	0x3c0ebefc	0.008712526
23	0x3be6d546	0.007044467
24	0x3d8b0a08	0.06789023
25	0x3d11f2fe	0.035632126
26	0x3d2774e2	0.040882953
27	0xbbd8e2cf	-0.0066188346
28	0xbd268362	-0.04065264
29	0xbd1416af	-0.036154445
30	0x3cb3516b	0.021889409
31	0x3d06aaa1	0.03287757
32	0xbd10f62a	-0.03539101
33	0x3cb53c09	0.022123354
34	0x3c5fe5fa	0.0136656705
35	0x3d09b40a	0.033618964
36	0x3d0fbf00	0.03509426
37	0x3cd113e9	0.02552219
38	0x3d773e95	0.060362417
39	0x3c1ad1be	0.0094494205
40	0x3d37fc4d	0.044918347
41	0xbcb5f627	-0.022212101
42	0xbcb5be7f	-0.022185562
43	0xbcc35081	-0.023842098
44	0x3bd4d9a9	0.0064956737
45	0x3d867c5a	0.06566687
46	0x3d71b868	0.059013754
47	0xbd1006ae	-0.03516262
48	0x3ca23b2d	0.019803608
49	0xbd1563c0	-0.036472082
50	0xbc79d748	-0.015249081
51	0x3d336be1	0.043804053
52	0xbbe98959	-0.007126969
53	0x3d903c91	0.07042802
54	0xbb57369b	-0.0032838944
55	0x3c9037a5	0.017604658
56	0x3d06b1b8	0.03288433
57	0xbd246323	-0.040133607
58	0x3cae8d90	0.021307737
59	0x3bff19c5	0.0077850544
60	0x3bc6f14a	0.0060712444
61	0x3d307595	0.043080885
62	0x3d17ec20	0.03709042
63	0xbb409fff	-0.002939224
64	0x3d16352f	0.036671814
65	0x3cd66f1f	0.026176034
66	0xbb945d14	-0.0045276973
67	0x3d76e6fd	0.06027888
68	0xbca5e749	-0.020251887
69	0xbbc8ee31	-0.0061319103
70	0x3d768533	0.060185622
71	0x3c35fe14	0.01110794
72	0xbd159485	-0.036518592
73	0x3bde410d	0.006782657
74	0xbd372dd6	-0.044721447
75	0xbca8e6d7	-0.020617886
76	0x3d4672f0	0.048449457
77	0xbcb391fb	-0.021920195
78	0xbd154fe9	-0.03645316
79	0xbaf93c66	-0.0019015193
80	0x3c96ed90	0.018423826
81	0xbcf3490f	-0.029697923
82	0xbd8f0268	-0.06982881
83	0xbd7c6e14	-0.061628416
84	0xbac0522a	-0.0014672924
85	0x3b98f5e4	0.0046679843
86	0x3ce17faa	0.027526695
87	0xbd3d6652	-0.04624016
88	0xbd119848	-0.035545617
89	0xbd0e5134	-0.03474541
90	0xbc5ec6d0	-0.013597205
91	0x3cd6bfb0	0.02621445
92	0x3c606304	0.013695482
93	0xbd211816	-0.03932961
94	0xbcd57316	-0.026055854
95	0x3d662aa8	0.056193024
96	0x3c211131	0.009830759
97	0xbc8d7807	-0.017269148
98	0x3c685b5e	0.01418194
99	0x3d6c0e6b	0.057630938
100	0xbd0e3925	-0.034722466
101	0xbd1cf376	-0.03831812
102	0xbd8a98fb	-0.0676746
103	0x3b382200	0.0028096437
104	0x3c0badc3	0.008525315
105	0xbd01b047	-0.03166225
106	0x3d4a618a	0.049409427
107	0xbd7775ca	-0.060415067
108	0x3d9f419b	0.07776185
109	0xbd485ed6	-0.048918568
110	0x3c978c23	0.01849944
111	0x3cecf79f	0.028926669
112	0xbd0e228a	-0.034700908
113	0x3d253d99	0.040341947
114	0xbd04a3ca	-0.032382764
115	0xbb36d0a7	-0.0027895363
116	0xbd4e3205	-0.05034067
117	0x3bb216d3	0.0054348498
118	0x3c85448e	0.016268041
119	0x3d353e88	0.044249088
120	0x3d1e8232	0.038698383
121	0xbbd42b34	-0.006474877
122	0x3d830ff2	0.06399526
123	0x3b0a3267	0.002108717
124	0x3d597b50	0.053096116
125	0xbcd5fdac	-0.026121937
126	0xbc1f6b44	-0.009730164
127	0xbd703f4f	-0.058654126
128	0x3cfa54b6	0.030557971
129	0xbc43c82d	-0.011949581
130	0xbd237e9e	-0.039915673
131	0x3c0e46d4	0.008683879
132	0xbd0c6e56	-0.034284912
133	0xbcc8e724	-0.024524279
134	0xbbc06cf2	-0.0058723623
135	0xbd135fa3	-0.03597988
136	0x3b13d162	0.0022555222
137	0xbd5b3b95	-0.05352362
138	0x3b9e39cb	0.004828667
139	0xbc2f2405	-0.01068974
140	0x393636c1	0.0001737727
141	0x3c2b99de	0.0104736965
142	0x3d1997c2	0.037498243
143	0x3d368b04	0.04456617
144	0x3da887cc	0.08229026
145	0x3d31416e	0.04327529
146	0xbcaf0728	-0.021365717
147	0xbca45baa	-0.02006324
148	0x3d048894	0.032356814
149	0x3d946669	0.07246096
150	0x3d761175	0.060075242
151	0x3bccbde0	0.006248221
152	0x3b9f7897	0.0048666704
153	0xbd07e4a1	-0.033177022
154	0x3c651528	0.013982095
155	0xbd1ab2c8	-0.037768155
156	0x3c10f891	0.008848325
157	0xbd3b5aca	-0.04574088
158	0x3bea266b	0.007145693
159	0x3c325199	0.010883712
160	0x3b0e2871	0.0021691585
161	0x3d2241d2	0.039613552
162	0x3ceed5a7	0.029154612
163	0xbd27f330	-0.041003406
164	0x3d6f79c9	0.058465753
165	0x3d830fa5	0.06399468
166	0x3d12c75b	0.03583465
167	0xbc37688a	-0.011194358
168	0x3cb7a20c	0.022416137
169	0xbcaaa2c7	-0.020829571
170	0x3c6fad55	0.014628728
171	0x3cc1175d	0.02357071
172	0x3bb26f2e	0.0054453826
173	0x3c1ce007	0.009574897
174	0xbd2f3e39	-0.04278395
175	0x3d147064	0.036239997
176	0xbc3e61a7	-0.011619962
177	0x3d297d53	0.041379284
178	0x3cadd004	0.021217354
179	0x3b4a2bd9	0.003084889
180	0x3d48ec0e	0.049053244
181	0x3d5d18f7	0.053978886
182	0x3d368367	0.04455891
183	0xbccbddbb	-0.024886003
184	0x3d8a03de	0.06739019
185	0x3bcdfdea	0.0062863724
186	0x3c8a10d9	0.016853737
187	0xbb5de7ff	-0.0033860204
188	0x3d24df5f	0.040252086
189	0x3d53b757	0.05168852
190	0xbd4bffb9	-0.049804423
191	0x3ceef06c	0.029167376
192	0xbd84706c	-0.06466755
193	0xbda8e869	-0.08247454
194	0xbd415e3d	-0.047209013
195	0x3d1e308c	0.038620517
196	0xbcc84841	-0.024448516
197	0xbd7d937d	-0.061908234
198	0xbd1e02fc	-0.038577065
199	0x3ce6a372	0.028154109
200	0xbd310189	-0.043214355
201	0xbc8b53d3	-0.017007744
202	0x3b9d7a12	0.0048058117
203	0x3cd46e56	0.025931519
204	0xbcaa78ca	-0.02080955
205	0x3c69d9a0	0.014273077
206	0xbd194025	-0.03741469
207	0xbd1fd69d	-0.03902303
208	0xbac60c66	-0.0015109896
209	0xbccf126e	-0.025277343
210	0x3ba4e84d	0.005032575
211	0xbd4e57bc	-0.05037664
212	0xbbb6092f	-0.005555294
213	0x3ca2f012	0.019889865
214	0xbd3349f8	-0.043771714
215	0x3ca3064a	0.01990046
216	0xbcd5e649	-0.026110785
217	0xbbfeed52	-0.0077797556
218	0xbd04ae88	-0.03239301
219	0xbbd7f508	-0.0065904893
220	0xbc37a6c8	-0.011209197
221	0xbd0f8e20	-0.03504765
222	0x3d39e4a7	0.045384075
223	0x3c416190	0.011803046
224	0x3d2a0b70	0.041514814
225	0x3d02d398	0.031940073
226	0x3d57178b	0.052512687
227	0x3c2d7c53	0.010588723
228	0x3ca9c296	0.020722669
229	0x3d0ea1fd	0.034822453
230	0x3d128d23	0.03577913
231	0xbbdc23ca	-0.0067181336
232	0x3c2051ab	0.009785096
233	0xbda1f83c	-0.07908675
234	0xbbf7310c	-0.0075436886
235	0xbd35466e	-0.04425662
236	0x3d77fac3	0.06054188
237	0x3d2faaa6	0.042887352
238	0x3bbdb70d	0.0057896436
239	0xbca2575d	-0.019817049
240	0xbd61b241	-0.055101637
241	0xbc87a7ed	-0.016559565
242	0xbd38eece	-0.045149617
243	0xbc2a957e	-0.010411618
244	0x3d597e15	0.053098757
245	0xbd1edffc	-0.038787827
246	0xbd89f90e	-0.067369565
247	0xbd80ab23	-0.06282642
248	0xbd70c605	-0.058782596
249	0xbbc3ead5	-0.005978922
250	0xba182764	-0.00058042095
251	0x3c1bd890	0.009512082
252	0xbd599d28	-0.05312839
253	0x3b7dd7e3	0.0038733415
254	0x3cc226c2	0.023700122
255	0xbc8a6ddd	-0.01689809

features.6.bias f4 [120]
0	0xbcaf7588	-0.021418348
1	0x3c71c5b2	0.014756607
2	0xbc5bd7a3	-0.013418111
3	0x3cd760d8	0.026291296
4	0x3cbe3edd	0.023223335
5	0x3d068d08	0.03284934
6	0xbba19255	-0.004930774
7	0xbb02212a	-0.0019856193
8	0x3b69bf12	0.0035666865
9	0xbc941a25	-0.018078873
10	0x3ca70d14	0.020391978
11	0xbb4226f1	-0.0029625262
12	0xbab847be	-0.0014059467
13	0x3d6ed213	0.05830581
14	0xbd580509	-0.052739177
15	0x3cc2ea08	0.023793235
16	0x3c1dd0d2	0.009632306
17	0xbccfac72	-0.025350783
18	0x3d609151	0.054826085
19	0xbc84662c	-0.016162
20	0xbcf8e7ba	-0.030383933
21	0xbb865f39	-0.004100707
22	0x3c24544f	0.010029866
23	0xbd4f3c0c	-0.050594375
24	0x3aa0206d	0.0012216695
25	0x3cd90c83	0.026495224
26	0xbcebeb4f	-0.028798727
27	0x3d1d8eee	0.038466386
28	0x3cbee742	0.023303632
29	0x3d5d5404	0.0540352
30	0x3d16980a	0.03676609
31	0xbc5ef730	-0.013608739
32	0xbcf22d36	-0.029562574
33	0xbd39273b	-0.04520343
34	0x3c1166ac	0.008874577
35	0x3ca60aff	0.020268915
36	0x3ce1c952	0.027561817
37	0x3d0cb51a	0.0343524
38	0x3ca2977e	0.019847628
39	0xbbaebe40	-0.005332738
40	0x3c547f4e	0.012969805
41	0x3cd7d8a5	0.026348421
42	0x3d037ac5	0.032099504
43	0x3d056495	0.032566626
44	0xbced0a66	-0.028935622
45	0xbcea512d	-0.02860316
46	0xbc717b4b	-0.014738868
47	0x3b8b06be	0.004242747
48	0xbd05f272	-0.032701917
49	0x3d0221ee	0.03177064
50	0x3cee2425	0.02906997
51	0x3d8bcb2b	0.068258606
52	0x3d05ed82	0.03269721
53	0x3d199742	0.037497766
54	0x3ab1a1be	0.0013552231
55	0x3bfa41ee	0.007637254
56	0x3c17568e	0.009236945
57	0x3cc98658	0.024600193
58	0x3cb38e3b	0.021918407
59	0x3b6e3628	0.0036348198
60	0x3c388a36	0.011263421
61	0xbd0c1dc8	-0.03420809
62	0x38b64539	8.69133e-05
63	0x3cc262fc	0.02372884
64	0x3c7e7c82	0.015532615
65	0xbd391642	-0.045187242
66	0x3a49b906	0.0007695112
67	0xbc2e7a7e	-0.010649322
68	0x3d0984d3	0.033573937
69	0x3cec697c	0.028858893
70	0xbd15f89a	-0.036614038
71	0x3c3664a1	0.01113239
72	0x3d323f42	0.04351736
73	0xbcfd3f94	-0.030914105
74	0xbbc833de	-0.0061096987
75	0x3b03326f	0.0020019074
76	0x3d10727d	0.035265435
77	0xbcf6018c	-0.030030034
78	0x3c97cd80	0.018530607
79	0x3c7f9e1a	0.015601659
80	0xbd1e6219	-0.038667772
81	0x39a199b6	0.00030822837
82	0x3c3c6425	0.011498486
83	0x3d52cb96	0.051463686
84	0x3cb9e144	0.022690423
85	0xbcc48983	-0.023991352
86	0xbc8a0d2d	-0.016851986
87	0x3c1c31e6	0.009533381
88	0x3d248e23	0.040174615
89	0xbb42c96e	-0.0029722112
90	0x3d5d61f9	0.054048512
91	0x3c02cabf	0.007982909
92	0xbd2cef9b	-0.042220693
93	0x3c070887	0.008241779
94	0xbab49c81	-0.0013779552
95	0xbc8724b8	-0.016497001
96	0x3c1458f8	0.009054415
97	0xbae98eb1	-0.0017819015
98	0xbccc7bc0	-0.024961352
99	0x3cd15cf7	0.025557024
100	0x3cc402ce	0.023927119
101	0xbcfa8322	-0.030580107
102	0x3bebc60b	0.0071952394
103	0x3cd2d932	0.025738332
104	0xbc6645a3	-0.014054689
105	0x3c8dbfaa	0.017303307
106	0xbc9fae17	-0.019492192
107	0xbb990748	-0.0046700574
108	0xbd1302e3	-0.035891425
109	0x3d4f8d40	0.050671816
110	0x3d1085c6	0.035283826
111	0x3ce067ed	0.027393306
112	0xbc5ccbf1	-0.013476358
113	0xbca3d073	-0.019996857
114	0xbc015ad0	-0.007895187
115	0x3d174601	0.036931995
116	0xbc8219ed	-0.015881503
117	0xbc6b3683	-0.014356258
118	0xbd00da80	-0.031458378
119	0xbcae4f57	-0.021278067

classifier.0.weight f4 [84, 120]
0	0xbbfdedf3	-0.007749313
1	0xbb9b995a	-0.0047485055
2	0xbbcec19a	-0.0063097
3	0x3d54fece	0.052000813
4	0x3cf3b081	0.02974725
5	0xbd836cd7	-0.06417244
6	0xbd8f231f	-0.06989121
7	0x3c84595e	0.016155895
8	0x3d8b6b0f	0.06807529
9	0xbdb811d2	-0.08987774
10	0x3d5cfc14	0.053951338
11	0xbd261b08	-0.040553123
12	0x3d4aa169	0.04947034
13	0xbd6540b2	-0.0559699
14	0x3d9213f1	0.0713271
15	0x3dc7b0c7	0.097505145
16	0xbd72e669	-0.059301767
17	0xbd6a3a1d	-0.057184327
18	0x3c57ad16	0.0131638255
19	0x3db9814a	0.09057863
20	0x3d2fa6cb	0.042883676
21	0xbd5e0a18	-0.054208845
22	0x3dd4e3be	0.10395001
23	0xbdb93fa9	-0.09045345
24	0x3dc358c5	0.09538416
25	0xbd6eaaa4	-0.058268204
26	0x3c2c61fc	0.010521408
27	0x3b829041	0.0039844816
28	0xbaa0f407	-0.0012279757
29	0xbc85c716	-0.016330283
30	0x3d6e13d0	0.058124363
31	0x3c9febe4	0.019521661
32	0x3c9b4744	0.01895488
33	0x3daef7a5	0.08543328
34	0x3c1123ec	0.008858662
35	0xbd22df43	-0.0397637
36	0xbdcd3a4a	-0.100208834
37	0x3d8b66a8	0.068066895
38	0xbd818f06	-0.06326108
39	0x3d469011	0.048477236
40	0xbd572808	-0.05252841
41	0xbd66b3f9	-0.05632398
42	0xbb89c4d4	-0.004204372
43	0x3d8d39c0	0.068957806
44	0xbda9ac51	-0.0828482
45	0x3d98708c	0.074433416
46	0xbdb93cf6	-0.090448305
47	0xbbb78a04	-0.0056011695
48	0xbcca4a89	-0.024693744
49	0xbd7d6dbd	-0.061872233
50	0xbd711129	-0.058854256
51	0xbd400603	-0.046880733
52	0xbd996b6c	-0.07491192
53	0xbb4e7a34	-0.0031505944
54	0xbd7c2d93	-0.0615669
55	0xbd12e539	-0.035863135
56	0xbd4338da	-0.04766164
57	0x3caf1e8a	0.021376867
58	0xbc4d8393	-0.012543577
59	0x3d7ee816	0.062233053
60	0x3da19126	0.07889013
61	0xbd99c0d3	-0.075074814
62	0xbca0fa2f	-0.019650547
63	0xbdcb7cb2	-0.09935893
64	0x3d25c2da	0.040469028
65	0xbd03d5d2	-0.032186337
66	0xbbdcfdf2	-0.00674414
67	0x3d242a2e	0.04007929
68	0x3da16966	0.07881431
69	0xbca9ceaf	-0.020728437
70	0xbcbbcb52	-0.0229241
71	0x3dd07081	0.101777084
72	0xbcd6ebcb	-0.026235482
73	0x3c619c49	0.013770171
74	0x3ca45cc5	0.020063767
75	0xbd209075	-0.039200265
76	0x3d6463ab	0.055759113
77	0xbda57e2b	-0.08080705
78	0x3d1fac8b	0.03898291
79	0x3d35f130	0.044419467
80	0x3d81d1e1	0.06338859
81	0xbd1b80db	-0.037964683
82	0x3d59a8f9	0.05313966
83	0x3d8c60ac	0.06854376
84	0x3b0b287b	0.0021233845
85	0xbdc01a6d	-0.0938004
86	0xbb5f91b3	-0.0034113943
87	0xbcf6ca7c	-0.030125849
88	0xbda17d1b	-0.0788519
89	0xba264bff	-0.0006343722
90	0xbd227dd6	-0.039670788
91	0xbdaf02e5	-0.08545474
92	0x3d72e2a8	0.059298187
93	0x3d158f61	0.03651369
94	0xbd3c0d02	-0.045910843
95	0x3ddd9b6c	0.1082066
96	0xbc0cc0ab	-0.0085908575
97	0x3bff47b3	0.0077905296
98	0x3c5e9023	0.01358417
99	0xbd9a7d45	-0.075434245
100	0xbd4e39c6	-0.050348066
101	0x3c4beba6	0.01244632
102	0xbd0caabb	-0.03434251
103	0x3d7dfe8a	0.062010325
104	0xbb759022	-0.0037469943
105	0x3c876249	0.016526358
106	0x3dd69165	0.104769506
107	0xbd182e95	-0.0371538
108	0xbcbb42f2	-0.02285907
109	0xbd475750	-0.048667252
110	0xbd9e7b4d	-0.077383615
111	0x3cbb2c5c	0.0228483
112	0x3db3d441	0.087807186
113	0x3cf9caf6	0.030492287
114	0xbd8f8dd5	-0.07009474
115	0x3d7ca184	0.06167747
116	0xbdb63fa4	-0.08898857
117	0xbd998e07	-0.07497793
118	0x3db650a7	0.08902102
119	0xbd690e6f	-0.05689853
120	0xbcd579b3	-0.026059007
121	0xbe15aced	-0.14616747
122	0xbd16c0c1	-0.03680492
123	0x3cc5432c	0.024079882
124	0xbd49b175	-0.0492415
125	0xbd8de405	-0.06928257
126	0x3d563313	0.052294802
127	0x3d9d93e6	0.07694225
128	0x3b1adedb	0.0023631367
129	0xbd5da8b4	-0.054115966
130	0xbd86522f	-0.06558644
131	0xbcc43381	-0.02395034
132	0xbd9d6718	-0.07685679
133	0xbd7659c0	-0.060144186
134	0xbd9bb5ee	-0.0760306
135	0xbd8de7c7	-0.06928974
136	0xbd2882a9	-0.041140232
137	0xbd78be8a	-0.060728587
138	0x3df727e7	0.12068158
139	0x3c1dc80c	0.009630214
140	0x3cdbb98a	0.02682187
141	0x3d51ae79	0.05119178
142	0xbd502673	-0.050817918
143	0x3c8fce2b	0.017554363
144	0xbde32608	-0.11091238
145	0x3d2a9f19	0.041655634
146	0x3e03221b	0.12805979
147	0xbd1b90c6	-0.037979864
148	0x3e17bd33	0.14818268
149	0xbd681833	-0.056663703
150	0x3b38aba1	0.002817847
151	0xbdb75938	-0.08952564
152	0xbdb81059	-0.08987493
153	0xbd27d8a0	-0.040978074
154	0x3db3b862	0.087754026
155	0xbc916afe	-0.017751213
156	0xbdd78490	-0.10523331
157	0x3d4e001b	0.05029307
158	0xbd5a517e	-0.053300373
159	0xbd62e9fb	-0.055398922
160	0xbd498e8c	-0.04920821
161	0xbc55c954	-0.013048489
162	0xbdb6f12a	-0.08932717
163	0x3d2d61e4	0.042329684
164	0xbd0f2a2a	-0.03495232
165	0xbd7d9f6b	-0.06191961
166	0x3db420c6	0.087953135
167	0xbbfc205f	-0.0076942886
168	0x3e2dfdcd	0.16991349
169	0x3daed9e2	0.085376516
170	0x3c3f8f50	0.011691883
171	0x3dc17c7e	0.09447573
172	0x3d6ce4a4	0.057835236
173	0xbdab540e	-0.083656415
174	0xbdd5ba24	-0.10435894
175	0x3e21055b	0.15724699
176	0x3d47e7bd	0.048804987
177	0x3d476a13	0.048685145
178	0x3d92d2a6	0.07169084
179	0xbdc779da	-0.09740038
180	0x3e19b156	0.15009055
181	0xbcdc2b85	-0.02687622
182	0x3b088bbb	0.002083524
183	0x3d156f1f	0.036482926
184	0x3dd364e6	0.10321979
185	0xbb9af2df	-0.0047286595
186	0xbd9caccb	-0.07650145
187	0xbc99b029	-0.018760758
188	0x3d508877	0.050911393
189	0x3dac717f	0.08420085
190	0xbdb88b85	-0.09010986
191	0xbd96a8b4	-0.07356396
192	0x3e0ea5c6	0.13930425
193	0xbde5807e	-0.112061486
194	0x3e0e97c3	0.1392508
195	0x3db36b1a	0.087606624
196	0x3e050430	0.12989879
197	0x3cfc8cfd	0.030828947
198	0x3d778480	0.060429096
199	0xbdb44284	-0.08801749
200	0x3c9ff4a6	0.019525837
201	0x3dd1e770	0.10249221
202	0xbd3637a2	-0.04448665
203	0x3d20f0cf	0.039292153
204	0x3ccba490	0.024858743
205	0xbd78ed1f	-0.06077301
206	0xbd4bc176	-0.049745046
207	0xbdc7f559	-0.09763593
208	0x3d7704ae	0.060307197
209	0xbd50466d	-0.050848413
210	0x3d48d9d2	0.049035855
211	0xbd198b0a	-0.037486114
212	0x3d40a917	0.047036257
213	0x3e407715	0.18795426
214	0xbdaf6f52	-0.085661545
215	0xbd38381d	-0.04497539
216	0x3d6f15c5	0.05837037
217	0xbc601fb5	-0.013679435
218	0xbd9267ea	-0.07148726
219	0xbd5a1a49	-0.053247724
220	0xbe290049	-0.16504015
221	0xbd2570a4	-0.040390626
222	0xbb6f6769	-0.0036530143
223	0x3db9de4a	0.090756014
224	0xbcb509c1	-0.022099378
225	0x3d34093a	0.04395411
226	0xbc8c1635	-0.017100433
227	0xbd5e524e	-0.05427771
228	0x3d9f0918	0.07765406
229	0x3e0a3e36	0.13500294
230	0xbcb1a163	-0.0216834
231	0x3db9064d	0.09034405
232	0x3e2f0dfe	0.17095181
233	0x3cdcdb70	0.026960105
234	0xbe3dd52b	-0.18538348
235	0x3debd091	0.1151439
236	0x3d062558	0.032750458
237	0xbbc35e00	-0.0059621334
238	0x3d97d0cb	0.07412871
239	0x3c67dacf	0.014151289
240	0xbd38a9ec	-0.045083925
241	0x3d94cf5a	0.07266112
242	0xbd8a34b7	-0.06748336
243	0xbcaa6f61	-0.020805063
244	0xbdb6aeec	-0.089200824
245	0x3b87de48	0.004146371
246	0xbe083a31	-0.13303448
247	0xbd0b1a7c	-0.033960804
248	0x3ceaf764	0.028682418
249	0x3cb38755	0.021915117
250	0xbc2abed8	-0.010421477
251	0x3d12a00f	0.035797175
252	0x3c73ecbd	0.014887986
253	0x3ddde940	0.108355045
254	0xbc334483	-0.010941627
255	0x3c95274e	0.018207218

classifier.0.bias f4 [84]
0	0xbdb99ded	-0.09063325
1	0x3dca13f7	0.09867089
2	0x3daf2575	0.08552066
3	0x3d14b4a9	0.036305103
4	0x3c20ab01	0.0098063955
5	0x3b1b2598	0.002367353
6	0x3aeba592	0.0017978421
7	0x3dc119c0	0.094287395
8	0x3d20e7e8	0.039283663
9	0xbd589c7e	-0.052883618
10	0x3d950f8f	0.07278358
11	0xbc9a257d	-0.018816704
12	0x3dbd11e4	0.09231928
13	0xbd1ef8a0	-0.038811326
14	0x3d56c554	0.05243428
15	0x3cce8b57	0.025212927
16	0x3c5c952a	0.013463298
17	0x3d225e48	0.039640695
18	0x3d914e04	0.070949584
19	0x3dce8dde	0.10085653
20	0x3dd9e7ff	0.10639953
21	0xbc81fd6b	-0.01586791
22	0x3da9fc48	0.08300072
23	0x3da97346	0.0827394
24	0x3dbfa8bb	0.09358355
25	0x3d9906f1	0.07472027
26	0xbd9de040	-0.07708788
27	0xbdfd9db2	-0.123835936
28	0xbdc846b9	-0.09779114
29	0xbd8b252e	-0.06794201
30	0xbdb89ef1	-0.09014691
31	0x3c89e909	0.016834753
32	0x3db96e74	0.090542704
33	0xbc9cb883	-0.01913095
34	0x3caaecfd	0.020864958
35	0x3cb54654	0.022128262
36	0x3d09f424	0.033680096
37	0x3c78d71d	0.015188006
38	0x3d9766a0	0.07392621
39	0x3c6f51fb	0.014606948
40	0x3d0d8706	0.034552597
41	0x3d947cc6	0.07250361
42	0xbdb2f9e7	-0.08739071
43	0xbdb5cc4a	-0.08876856
44	0x3d966e27	0.07345229
45	0xbda2640e	-0.0792924
46	0x3cac7092	0.021049771
47	0x3d8f697d	0.07002542
48	0xbd9c4a0a	-0.07631309
49	0x3d9fce3b	0.07803007
50	0xbd815d42	-0.06316616
51	0xbd8618eb	-0.065477215
52	0x3d679124	0.0565349
53	0x3d81d5dd	0.06339619
54	0x3b37dd26	0.0028055399
55	0xbc91432e	-0.01773223
56	0x3c96545b	0.01835077
57	0xbda1eb4b	-0.07906207
58	0xbd8a93fd	-0.06766508
59	0xbd1cae41	-0.03825212
60	0xbc7fc37a	-0.01561057
61	0xbd0a3c2a	-0.033748783
62	0x3de851c2	0.11343719
63	0x3d48cb0a	0.04902176
64	0x3c7be508	0.0153744295
65	0x3dce3b1f	0.1006987
66	0xbd448d52	-0.047986336
67	0x3d203358	0.039111465
68	0xbd31be9e	-0.043394677
69	0xbdb11dea	-0.08648284
70	0x3d4fec4d	0.050762463
71	0x3c8dd9cf	0.017315773
72	0xbd3e08f3	-0.046395253
73	0x3d1d52ed	0.038409162
74	0x3d44c214	0.04803665
75	0x3d8d02a3	0.068852685
76	0xb9ce7022	-0.00039374927
77	0xbda9c68a	-0.082898214
78	0xbdbbff0d	-0.091795065
79	0xbbea0254	-0.007141391
80	0x3d39435f	0.045230266
81	0xbd7c021b	-0.061525445
82	0x3cd820b8	0.026382789
83	0xbd412534	-0.04715462

classifier.2.weight f4 [10, 84]
0	0xbd691e03	-0.056913387
1	0x3de5ff74	0.112303644
2	0xbd2c00d8	-0.041992992
3	0xbdaa6411	-0.083198674
4	0x3c8e571a	0.017375518
5	0xbeb7c700	-0.35894012
6	0x3e227783	0.15865903
7	0xbe401fb4	-0.18762094
8	0x3eb2368f	0.3480725
9	0x3c9c7387	0.019098056
10	0xbe1e6ce3	-0.15471224
11	0x3e1f6d78	0.15569103
12	0xbe05886f	-0.13040327
13	0xbdb2851b	-0.08716794
14	0xbdcdb7c5	-0.10044817
15	0xbd85f645	-0.06541113
16	0x3e2827ef	0.16421483
17	0xbde56ea3	-0.11202743
18	0x3df2a621	0.11848093
19	0x3cfd913c	0.030953042
20	0xbe2dfe5c	-0.16991562
21	0xbd8a4601	-0.067516334
22	0x3e0feb5b	0.14054625
23	0xbed1b67f	-0.40959546
24	0x3c02b676	0.007978072
25	0x3df80a51	0.12111343
26	0xbe174497	-0.14772259
27	0x3e298f42	0.16558555
28	0x3d9c8e6a	0.07644351
29	0xbe4bc575	-0.19899543
30	0xbb96e55e	-0.0046049794
31	0xbbfc6297	-0.0077021825
32	0x3e51b3e7	0.20478784
33	0xbd99c531	-0.075083144
34	0x3dacf5de	0.08445333
35	0x3cc5d980	0.024151564
36	0x3e42fae4	0.1904102
37	0xbcfff7d8	-0.03124611
38	0x3e2533d3	0.1613305
39	0xbe08ac5a	-0.13346997
40	0xbda3dd60	-0.08001208
41	0x3e29c455	0.16578801
42	0xbd3f4ce3	-0.046704184
43	0x3e698e93	0.22808294
44	0xbe1d9aa6	-0.15391025
45	0x3ce3b5e9	0.027796702
46	0x3ddf6ab7	0.10909026
47	0xbdb05860	-0.08610606
48	0x3d768ac3	0.060190927
49	0xbe4d07fa	-0.20022574
50	0xbd35b46f	-0.044361528
51	0xbdd779f3	-0.10521307
52	0xbd83188e	-0.06401168
53	0xbc22307e	-0.009899257
54	0x3d2a2ac6	0.0415447
55	0x3d058744	0.032599702
56	0xbe0a1093	-0.13482885
57	0x3dfb828b	0.122807585
58	0xbd05126e	-0.03248828
59	0x3dfd320d	0.12363062
60	0x3dd46777	0.10371297
61	0xbd61fd3f	-0.055173155
62	0xbcb07369	-0.021539407
63	0x3d806c68	0.06270677
64	0xbc925fd0	-0.017867953
65	0xbc11dae8	-0.008902289
66	0x3d23319a	0.039842226
67	0x3d829d4c	0.06377658
68	0xbda384d4	-0.07984319
69	0x3cb50cf9	0.022100912
70	0xbd320e4e	-0.043470673
71	0x3dc2557a	0.094889596
72	0x3cfbf734	0.030757524
73	0xbcb2b33b	-0.02181398
74	0xbe2723fe	-0.16322324
75	0xbe95d4e7	-0.29263994
76	0x3d95d4f6	0.0731601
77	0xbc5b286f	-0.013376339
78	0x3ce049b7	0.0273789
79	0xbdeb6325	-0.1149352
80	0x3d27ae7d	0.04093789
81	0x3c2e394e	0.01063378
82	0xbe34d938	-0.17660987
83	0x3d31c56e	0.043401174
84	0x3d1a09fd	0.03760718
85	0xbea51d8b	-0.32249102
86	0x3e199a79	0.15000333
87	0x3dde8771	0.10865677
88	0x3d9cf82f	0.07664525
89	0xbd402ac6	-0.046915792
90	0xbd0ff47d	-0.03514527
91	0x3cf866c4	0.03032244
92	0xbdaa5dff	-0.083187096
93	0xbd94d79d	-0.072676875
94	0xbd857d0d	-0.06517992
95	0x3e1647f9	0.14675893
96	0x3e88c216	0.26710576
97	0x3dc66ffb	0.09689327
98	0xbcb701dc	-0.022339754
99	0xbd5f989c	-0.0545889
100	0x3dcb3340	0.099218845
101	0xbd79ba6f	-0.060968813
102	0x3e43b0c8	0.19110405
103	0x3c9bd049	0.019020217
104	0x3c49ccc2	0.0123168845
105	0x3dafb6ed	0.08579812
106	0xbdc1d827	-0.09465056
107	0xbd642112	-0.0556956
108	0x3d9b4701	0.07581902
109	0x3e08a095	0.13342507
110	0x3d11bf99	0.035583112
111	0x3e09640d	0.13417073
112	0x3e5ab4e5	0.21358068
113	0x3e188a59	0.14896525
114	0x3d26b482	0.04069949
115	0xbd87988d	-0.066208936
116	0xbca883e2	-0.0205707
117	0x3d13db27	0.03609767
118	0xbe1b7e8a	-0.1518499
119	0xbd8dd035	-0.06924478
120	0xbdfe16c3	-0.12406685
121	0xbe62a777	-0.22134195
122	0xbd4e3ef9	-0.050353024
123	0xbdd1a033	-0.10235634
124	0x3d21abd9	0.039470527
125	0x3ca982b3	0.020692205
126	0xbc2df445	-0.01061732
127	0x3dc3d0b8	0.09561294
128	0x3dca5db5	0.098811544
129	0xbe3ac173	-0.18237858
130	0x3d04cf74	0.032424405
131	0x3d85e379	0.065375276
132	0x3e52f5a7	0.20601521
133	0x3e6ec29c	0.23316425
134	0xbd31a86d	-0.043373514
135	0xbd4eb242	-0.05046297
136	0x3e1b8f95	0.15191491
137	0xbe4ae23e	-0.19812867
138	0xbe173bf5	-0.14768966
139	0x3c0a59c3	0.008444252
140	0x3db50854	0.08839479
141	0xbcb5a33a	-0.022172559
142	0xbc82ce34	-0.015967466
143	0x3d04aa31	0.03238887
144	0xbe1a7ac4	-0.15085894
145	0x3d931c1e	0.07183097
146	0x3e216eba	0.15764895
147	0xbe688437	-0.22706686
148	0xbe18f34c	-0.1493656
149	0xbe50c99f	-0.20389412
150	0xbdb0a9eb	-0.08626159
151	0xbc1205c8	-0.008912511
152	0xbd47362f	-0.048635658
153	0xbc1fef63	-0.009761664
154	0xbe67253c	-0.22572798
155	0x3e8d3b8b	0.2758449
156	0xbcc8678d	-0.02446344
157	0x3df03f4a	0.117308214
158	0x3e9c9f19	0.30590132
159	0x3e3e4813	0.18582182
160	0x3d81e7f6	0.06343071
161	0xbc9419fb	-0.018078795
162	0x3d943ea9	0.07238514
163	0x3ebb362a	0.3656476
164	0xb7f351a2	-2.900587e-05
165	0x3e882b2b	0.26595435
166	0xbdc6f154	-0.097139984
167	0x3e111298	0.14167249
168	0xbe0204a8	-0.12697089
169	0xbe339af8	-0.17539585
170	0x3e8af361	0.27138808
171	0xbceb206d	-0.028701985
172	0xbd070ccb	-0.032971185
173	0xbb846ca5	-0.0040412717
174	0xbd5e3c51	-0.05425674
175	0x3e4035b9	0.18770494
176	0x3ebdfa32	0.37104946
177	0xbda7e455	-0.08197848
178	0xbe608550	-0.21925855
179	0xbd376ef4	-0.044783548
180	0x3e29179d	0.16512914
181	0x3d123b48	0.035701066
182	0x3c289bb6	0.010291031
183	0x3d93f982	0.07225324
184	0xbdc10fb1	-0.09426821
185	0x3da83601	0.082134254
186	0x3e00e375	0.12586768
187	0x3e289d12	0.16466168
188	0x3e8323c1	0.25613216
189	0x3dba1fe7	0.09088116
190	0xbd922d90	-0.071375966
191	0x3c553b05	0.01301456
192	0x3aa94354	0.0012913742
193	0xbe7cbce8	-0.24681437
194	0x3db97c01	0.09056855
195	0xbb1de277	-0.0024091282
196	0xbdbb8e94	-0.09158054
197	0xbc854f2d	-0.016273106
198	0xbd442bec	-0.04789345
199	0xbdf24731	-0.11829985
200	0xbd9e98bd	-0.07743976
201	0x3cad2cbf	0.0211395
202	0x3ead5c56	0.3385951
203	0x3d609f4b	0.054839414
204	0x3d39ac52	0.045330353
205	0x3e7f8799	0.2495407
206	0xbddb0137	-0.10693591
207	0x3e8f4aa9	0.2798665
208	0xbd812b0f	-0.06307041
209	0x3e2f35c2	0.1711035
210	0xbdea39a1	-0.11436773
211	0xbe14f0a4	-0.14544922
212	0x3ca8f3d2	0.020624075
213	0xbe6c656e	-0.23085567
214	0xbd606891	-0.054787222
215	0xbdefdb37	-0.11711734
216	0xbe2d8b7a	-0.16947737
217	0x3d38bd35	0.045102317
218	0x3d720946	0.059090875
219	0xbe07d192	-0.13263538
220	0x3d6ab923	0.057305466
221	0xbe4cabf9	-0.19987477
222	0xbe113573	-0.14180546
223	0x3e2dd977	0.16977488
224	0xbdc9f45e	-0.098610625
225	0xbe1669f2	-0.14688852
226	0x3c56c286	0.013107901
227	0xbdb89bf5	-0.090141214
228	0xbd875f17	-0.06609934
229	0x3e182950	0.1485951
230	0xbdf5c234	-0.11999932
231	0xbddd9606	-0.1081963
232	0xbe09b172	-0.13446596
233	0x3e8796ef	0.2648234
234	0x3d910cbf	0.07082509
235	0x3d0f22d9	0.034945343
236	0x3e16d6c3	0.14730363
237	0x3ce4d332	0.027932737
238	0xbe43e3c6	-0.19129857
239	0xbe502b52	-0.20329025
240	0x3d5866a9	0.05283228
241	0xbe31f23b	-0.1737756
242	0xbe6cf523	-0.23140387
243	0xbd434c3a	-0.047680117
244	0xbce66303	-0.028123384
245	0xbd8ad3ef	-0.067787044
246	0xbda9cfc7	-0.082915835
247	0xbe535694	-0.20638496
248	0xbdbd2f3c	-0.09237525
249	0x3d2e52b7	0.04255935
250	0x3d9d26b8	0.07673401
251	0x3da4ef00	0.08053398
252	0x3da6d19e	0.0814545
253	0xbdde0e69	-0.10842592
254	0xbe2421b9	-0.16028489
255	0x3dae86ef	0.0852183

classifier.2.bias f4 [10]
0	0x3c90fa75	0.017697552
1	0x3ca6b098	0.020347878
2	0xbdba230b	-0.09088715
3	0xbc09d71c	-0.0084131025
4	0x3bd10f34	0.006379986
5	0x3d44259f	0.04788744
6	0xbdd5368c	-0.104107946
7	0x3c1d11eb	0.0095867915
8	0xbd03c7b8	-0.03217289
9	0x3da7d8c8	0.081956446
