models/Experiment_4/model.pth (torch_old, 248658 bytes, 10 tensors)

features.0.weight f4 [6, 1, 5, 5]
0	0x3e91f27b	0.2850531
1	0x3e959653	0.2921625
2	0xbb6f3f2a	-0.0036506155
3	0x3e147a0b	0.1449968
4	0xbdebd1d5	-0.11514632
5	0x3e092cb1	0.13395955
6	0x3d811943	0.063036464
7	0x3e78a771	0.24282624
8	0x3e80815c	0.25098693
9	0xbdda50fd	-0.106599785
10	0x3e75aba2	0.23991254
11	0x3e3dcc41	0.18534948
12	0x3e9db896	0.3080489
13	0x3e368edd	0.17827936
14	0x3e4a280f	0.19741844
15	0xbda65e51	-0.08123458
16	0x3e4a1678	0.19735134
17	0x3e13f057	0.14447151
18	0x3d1d882a	0.038459934
19	0x3e213b12	0.1574519
20	0xbe88eec3	-0.2674466
21	0xbde4bcdc	-0.111688346
22	0xbd82210a	-0.06353958
23	0x3e1fc4d9	0.15602435
24	0xbe196342	-0.1497927
25	0xbabc6aaa	-0.001437505
26	0x3d391d22	0.0451938
27	0xbd83af17	-0.0642988
28	0xbdb93855	-0.090439476
29	0xbedf7dd1	-0.43650678
30	0x3e8440e8	0.2583077
31	0xbc6a7bf6	-0.014311781
32	0x3e8cf456	0.27530164
33	0xbca515e5	-0.020152042
34	0xbe85c194	-0.2612425
35	0x3e6516ce	0.2237198
36	0x3e7ee1e7	0.24890862
37	0x3ec2e882	0.38068014
38	0x3e184cba	0.14873019
39	0xbd493a5e	-0.04912793
40	0x3e13920e	0.14411184
41	0x3e297358	0.16547906
42	0x3eaefe9f	0.34178635
43	0x3ed220ba	0.41040593
44	0x3e9278e9	0.28607872
45	0xbdc6c27a	-0.09705062
46	0x3e3899ca	0.18027416
47	0x3e283cbe	0.16429421
48	0x3e8a334b	0.26992258
49	0x3d90f99c	0.07078859
50	0xbe6b4507	-0.2297555
51	0xbdd65577	-0.1046552
52	0xbda8a4e1	-0.08234573
53	0x3ea6d2e9	0.32582787
54	0x3e6c31cc	0.23065871
55	0x3da49233	0.08035698
56	0x3e4e1bfa	0.2012786
57	0x3e611225	0.21979578
58	0x3eaad42b	0.33364996
59	0xbdf15482	-0.11783697
60	0x3df6f6cb	0.12058791
61	0x3df4337c	0.11923882
62	0x3e962a35	0.29329076
63	0xbd668001	-0.056274418
64	0xbe5efd1e	-0.21776244
65	0x3e0bc9d7	0.13651215
66	0x3ed85b57	0.42257187
67	0x3d1853dd	0.037189353
68	0xbe85df0b	-0.2614673
69	0xbf06f349	-0.52714974
70	0x3ea21afa	0.31661206
71	0x3e6fe3dd	0.23426767
72	0x3e8b2190	0.27174044
73	0xbe8c537d	-0.27407447
74	0xbed7101b	-0.42004475
75	0xbefd399b	-0.49458012
76	0xbe92ddb6	-0.28684777
77	0x3d2236e9	0.039603148
78	0x3e1c2ffc	0.1525268
79	0x3ea82fe9	0.32849053
80	0xbed2bb2c	-0.41158426
81	0xbe0dae0d	-0.13835926
82	0x3e885c87	0.26633093
83	0x3e359104	0.177311
84	0x3eb422d6	0.35182828
85	0xbe444ea1	-0.1917062
86	0x3e833f6e	0.2563433
87	0x3e0d4423	0.13795523
88	0x3e5dcafe	0.21659467
89	0x3e83f2cc	0.25771177
90	0x3dce1b6b	0.10063823
91	0x3e079dd1	0.13243796
92	0x3eb6a11c	0.35669792
93	0x3ea8206b	0.32837233
94	0xbd9d12ee	-0.07669626
95	0xba3ef4e7	-0.0007284418
96	0x3e97565f	0.29558083
97	0x3c838782	0.016055826
98	0xbd24bd56	-0.040219627
99	0xbe853c7f	-0.26022717
100	0x3dc9b66d	0.09849248
101	0x3e73175f	0.23739384
102	0x3dc54b4a	0.09633501
103	0xbe5f187a	-0.21786681
104	0xbeb53a73	-0.35396156
105	0x3deb0e26	0.11477308
106	0x3d8c398b	0.06846913
107	0x3d6e792f	0.05822104
108	0xbe9edaaf	-0.31026217
109	0xbef29ac6	-0.47383708
110	0x3edecf13	0.4351736
111	0x3e4c1f09	0.19933714
112	0x3d64e4c8	0.055882245
113	0xbf20d37e	-0.6282271
114	0xbed29b6a	-0.41134197
115	0x3e3d988a	0.1851522
116	0x3e06b72d	0.13155814
117	0xbea1f7ee	-0.31634468
118	0xbf107258	-0.56424475
119	0xbe5bc2d2	-0.21461037
120	0x3e747b70	0.23875213
121	0xbb1ec20d	-0.002422455
122	0xbe33fecb	-0.17577665
123	0xbed98305	-0.42482772
124	0xbe2c05f4	-0.16799146
125	0xbe77a0c8	-0.24182427
126	0xbe9f8560	-0.31156445
127	0xbed83059	-0.42224386
128	0xbbfa6517	-0.0076414454
129	0xbdb66211	-0.089054234
130	0x3d7b6bb8	0.061382025
131	0xbe4d1e3f	-0.20031069
132	0xbed27238	-0.41102767
133	0x3d64a0e1	0.05581749
134	0xbd4f41d3	-0.050599884
135	0xbd75d474	-0.060017064
136	0xbe481a1d	-0.19541211
137	0xbe0e55e5	-0.13899954
138	0x3e51c7f9	0.2048644
139	0x3d21bb56	0.039485298
140	0x3e75a04c	0.2398693
141	0x3d89cb25	0.067282
142	0x3ed94d9d	0.42442027
143	0x3df015cc	0.117229074
144	0x3d8b96b1	0.068158515
145	0x3e8c099d	0.27351084
146	0x3ed65ec3	0.41869172
147	0x3ef43a7e	0.47700876
148	0x3ede5666	0.43425292
149	0xbd521ed2	-0.051298924

features.0.bias f4 [6]
0	0x3d0544f2	0.032536454
1	0xbca25500	-0.019815922
2	0xbb5dfa95	-0.0033871282
3	0xbe2fbc56	-0.17161688
4	0x3e54eda2	0.20793775
5	0x3d1f5db5	0.038907725

features.3.weight f4 [16, 6, 5, 5]
0	0x3d1329ce	0.03592854
1	0x3d14d5f7	0.036336865
2	0x3cacbacc	0.021085165
3	0xbd537f0a	-0.051634826
4	0x3dbecfdb	0.09316989
5	0x3d9a028b	0.07520016
6	0x3da02086	0.07818703
7	0xbd082763	-0.033240687
8	0x3d4d68cc	0.05014877
9	0xbaa5a0aa	-0.0012636383
10	0x3d064821	0.03278363
11	0x3e1a8889	0.15091147
12	0x3d864695	0.06556431
13	0xbd7ec731	-0.062201682
14	0xbdbcaba8	-0.09212428
15	0x3d5e5207	0.054277446
16	0x3dfe6e25	0.12423352
17	0x3c97782a	0.018489916
18	0xbe0580c5	-0.13037403
19	0xbdccf2be	-0.10007237
20	0x3b6b6d9b	0.0035923484
21	0x3ddf24b4	0.108956724
22	0x3dd912ab	0.10599264
23	0xbe1f4923	-0.15555243
24	0xbdb65a5d	-0.08903954
25	0x3dce1cb1	0.10064066
26	0x3dacdb38	0.0844025
27	0x3c8a57c2	0.01688755
28	0x3d55a9b1	0.052163783
29	0x3d4e3a51	0.050348584
30	0x3df57cf2	0.11986722
31	0x3db28d75	0.08718387
32	0x3d14350c	0.036183402
33	0xbd1fd2e7	-0.03901949
34	0xbd5152f5	-0.051104505
35	0x3d051fa9	0.032500897
36	0x3e10a9a2	0.1412721
37	0x3dd24dcc	0.10268745
38	0xbdecccc7	-0.11562496
39	0xbdc6202e	-0.096741065
40	0x3d665dd8	0.05624184
41	0x3d9ae0ae	0.075623855
42	0x3d2a0dc8	0.04151705
43	0xbd98f9d3	-0.07469525
44	0xbe348670	-0.17629409
45	0xbc1bddf0	-0.009513363
46	0x3e1dd1da	0.15412083
47	0x3d95f08b	0.073212706
48	0xbdb3e653	-0.08784165
49	0xbe36a85b	-0.1783766
50	0xbe218717	-0.15774189
51	0xbdb2724f	-0.08713209
52	0xbcf324b9	-0.029680597
53	0x3b9ef9a3	0.0048515364
54	0xbcaaf3e6	-0.020868253
55	0xbc7ef7fc	-0.015562054
56	0x3c1d1d2b	0.009589474
57	0x3d08ce0a	0.03339962
58	0x3c5a69da	0.013330901
59	0xbcb70463	-0.022340959
60	0xbbecd6ec	-0.007227769
61	0x3dc1d872	0.09465112
62	0x3e0ea282	0.1392918
63	0xbda049fa	-0.0782661
64	0xbe366867	-0.17813264
65	0x3ddea6cd	0.108716585
66	0x3db5a91f	0.08870148
67	0x3d739382	0.059466846
68	0xbe4f995b	-0.20273344
69	0x3b5acf14	0.0033387588
70	0x3da54134	0.08069077
71	0x3e04e4aa	0.12977853
72	0xbc2c355a	-0.010510767
73	0xbde1f95b	-0.11033889
74	0xbdd6e9f2	-0.1049384
75	0xbb4c7efe	-0.0031203623
76	0x3b15469b	0.002277768
77	0x3d154197	0.036439504
78	0x3d664589	0.056218658
79	0x3d21f8ec	0.03954403
80	0x3ce4ac5a	0.027914215
81	0xbcee86eb	-0.029117068
82	0xbd11c2c6	-0.03558614
83	0xbdd97bac	-0.10619292
84	0x3ba7f935	0.0051261433
85	0x3d0b20d7	0.033966865
86	0x3d3fd4b2	0.0468337
87	0xbdb11c14	-0.086479336
88	0xbe4bc8f9	-0.19900884
89	0xbd6ac80e	-0.057319693
90	0x3d6d1395	0.057880003
91	0x3e067753	0.13131456
92	0xbd84cd5d	-0.064844824
93	0xbd95f70d	-0.07322512
94	0xbbcd03ab	-0.006256541
95	0x3d881625	0.06644849
96	0x3dc0fa46	0.09422736
97	0xbd92ac1a	-0.07161732
98	0xbc93771b	-0.01800113
99	0xbdf01c91	-0.117241986
100	0xbcd69536	-0.026194196
101	0xbd4bc3b5	-0.049747188
102	0xbd115907	-0.035485294
103	0xbd955b9b	-0.07292863
104	0xbd6241a4	-0.05523838
105	0xbbcb17a3	-0.006197886
106	0x3dee7609	0.11643607
107	0xbd3a5db4	-0.04549952
108	0x3cac836c	0.02105876
109	0xbcafd578	-0.021464095
110	0x3d94f201	0.07272721
111	0x3df64254	0.1202437
112	0x3d93dff6	0.072204515
113	0xbceab072	-0.028648589
114	0xbc84115d	-0.01612156
115	0x3d7b8e60	0.061415076
116	0x3e5b6cf7	0.21428286
117	0x3e5ae6ef	0.21377157
118	0x3df33e24	0.11877087
119	0xbd117c43	-0.035518896
120	0x3da43918	0.08018702
121	0x3e0e8b4c	0.13920325
122	0x3dd2c14a	0.10290773
123	0xbdaf375c	-0.08555481
124	0x3bc37b42	0.005965621
125	0xbccd848f	-0.025087623
126	0x3d234ac5	0.039866228
127	0x3adad920	0.0016696788
128	0xbcc37b36	-0.023862462
129	0x3d24aa50	0.040201485
130	0xbde361aa	-0.11102612
131	0x3d9a183a	0.07524152
132	0x3d1f1c8c	0.038845584
133	0xbdfdc6fd	-0.1239147
134	0xbd501ecb	-0.050810616
135	0xbda01ecd	-0.07818375
136	0xbe026169	-0.12732472
137	0xbe32fe2f	-0.17479776
138	0xbdc99f23	-0.09844806
139	0xbd4ff054	-0.050766304
140	0xbd9827ef	-0.07429492
141	0xbda83745	-0.08213667
142	0xbe84a109	-0.2590411
143	0xbe48cb84	-0.19608885
144	0xbd9885d2	-0.07447399
145	0xbdf1dd85	-0.118098296
146	0xbe319fc4	-0.17346102
147	0xbdbd55c7	-0.09244876
148	0xbcb4da8a	-0.022076864
149	0x3ce6ddde	0.028181966
150	0xbc2d824f	-0.01059015
151	0xbbd2ae1c	-0.006429447
152	0xbd9f5d82	-0.07781507
153	0xbc0a92fc	-0.008457895
154	0x3dbd439e	0.092414126
155	0x3e2a8bc6	0.16654882
156	0x3d0eb291	0.034838263
157	0x3df64c3a	0.12026258
158	0x3e19e42f	0.15028451
159	0x3db7f3be	0.08982037
160	0x3e318a6a	0.17337957
161	0x3e54c361	0.20777656
162	0x3def3de8	0.116817296
163	0x3dbab58b	0.09116658
164	0xbd8824b3	-0.06647625
165	0xbd279d2a	-0.040921368
166	0x3c4a7350	0.012356594
167	0xbd688d13	-0.056775164
168	0xbe527832	-0.20553663
169	0xbe580a5e	-0.21097705
170	0xbdd4ddf7	-0.10393899
171	0xbe34c371	-0.1765268
172	0xbe4e46a7	-0.20144139
173	0xbe0ae80f	-0.13565086
174	0x3cda87ed	0.026676143
175	0x3dca5455	0.09879366
176	0xbc68a39f	-0.014199167
177	0xbca14218	-0.019684836
178	0x3dcda32e	0.1004089
179	0x3c13d1dc	0.009022202
180	0x3e2fc7d5	0.17166074
181	0x3e688ff5	0.22711165
182	0x3e060721	0.13088657
183	0x3dc36d02	0.09542276
184	0x3ca33299	0.019921588
185	0xbc659857	-0.014013371
186	0xbce1d835	-0.027568916
187	0xbdf699be	-0.12041043
188	0xbe60e8d2	-0.21963814
189	0xbe82296b	-0.25422224
190	0xbc0bb0f1	-0.008526073
191	0xbe27a7e7	-0.16372643
192	0xbe773252	-0.2414029
193	0xbe10dbb5	-0.14146312
194	0xbd7ebaf6	-0.06219002
195	0x3df3f3c6	0.119117305
196	0x3db5b431	0.088722594
197	0xbc34f33a	-0.011044318
198	0xbe16b3a3	-0.14716963
199	0xbc92bdb7	-0.017912729
200	0x3e0180be	0.12646767
201	0xbb4c8e44	-0.0031212727
202	0xbc68dfd5	-0.014213522
203	0x3ddb137d	0.106970765
204	0x3ce98242	0.028504495
205	0xbd0bd193	-0.034135412
206	0xbd768856	-0.060188614
207	0x3df119a0	0.11772466
208	0x3e7642f9	0.24048986
209	0x3e27fd80	0.16405296
210	0x3d42cee4	0.047560588
211	0xbc9076ff	-0.017634867
212	0x3c0f0ecb	0.008731554
213	0x3cc3900f	0.023872403
214	0xbd5f24e1	-0.05447853
215	0xbd04a4fa	-0.032383896
216	0xbe16f0fe	-0.14740369
217	0xbe5ced53	-0.21574907
218	0xbe9afaf7	-0.30269596
219	0xbe2ea0d0	-0.17053533
220	0xbd79489d	-0.060860265
221	0xbd098d22	-0.03358186
222	0x3d80501f	0.06265282
223	0x3cfac21e	0.03061014
224	0x3e1b4814	0.15164214
225	0xbd2d97c9	-0.04238108
226	0xbd0f9d3e	-0.035062067
227	0x3d374a92	0.04474885
228	0x3ceb1cf9	0.028700339
229	0x3e1997f4	0.14999372
230	0xbd862a68	-0.06551057
231	0x3d0152d6	0.03157314
232	0x3e30c758	0.17263544
233	0x3e2e78a7	0.17038213
234	0x3e0a7f2c	0.13525075
235	0xbcf31dce	-0.029677298
236	0x3de3dffc	0.11126706
237	0x3de8cc4e	0.11367093
238	0x3c04d11e	0.008106498
239	0xbe2aaba9	-0.16667046
240	0xbe515cf8	-0.20445621
241	0xbe4fabe6	-0.20280418
242	0xbe9fb116	-0.31189793
243	0xbeb768e7	-0.35822222
244	0xbd500dec	-0.050794527
245	0xbde5eacd	-0.11226425
246	0xbe4e8c4a	-0.20170704
247	0xbdec1359	-0.11527128
248	0xbd25a7fe	-0.040443413
249	0x3c529be7	0.012854553
250	0xbd34f2cd	-0.044176865
251	0xbe2ea807	-0.17056285
252	0xbd149229	-0.0362722
253	0x3d693bd7	0.056941833
254	0xbccb0890	-0.024784356
255	0xbe5c06f7	-0.21487032

features.3.bias f4 [16]
0	0xbcbc02a1	-0.022950472
1	0x3d9bb7e5	0.076034345
2	0x3e030df4	0.12798291
3	0xbca1f928	-0.019772127
4	0xbdb5e9c5	-0.088824786
5	0x3dc32900	0.095293045
6	0x3e1e9557	0.15486656
7	0x3d9fdf0e	0.07806216
8	0x3d54e20c	0.051973388
9	0x3dc2b764	0.09507635
10	0xbe0d01a3	-0.13770156
11	0x3df75acc	0.12077865
12	0x3d448895	0.047981817
13	0x3db8a75c	0.09016296
14	0x3de34ba8	0.11098415
15	0x3da11414	0.07865158

features.6.weight f4 [120, 16, 5, 5]
0	0xbd0b2f30	-0.03398055
1	0xbdb28223	-0.08716228
2	0x3ca10aa3	0.019658392
3	0xbd93222c	-0.07184252
4	0x3c437fac	0.011932295
5	0xbe10454a	-0.14088932
6	0xbdd1f986	-0.10252671
7	0x3d54569f	0.05184042
8	0x3d44f104	0.048081413
9	0xbac769ec	-0.0015214062
10	0xbdbe6745	-0.09297041
11	0xbe2cd036	-0.16876301
12	0xbd357db3	-0.04430933
13	0x3ca288db	0.019840648
14	0x3c00ad90	0.0078538805
15	0xbe2fe920	-0.17178774
16	0xbddaa56a	-0.106760815
17	0xbdc7bf08	-0.09753233
18	0xbc734727	-0.014848507
19	0x3c9355c4	0.017985232
20	0xbcf4cac3	-0.02988184
21	0x3bb01783	0.0053738966
22	0x3afa9ed6	0.0019120823
23	0xbc18ae08	-0.009318836
24	0x3da0d615	0.07853333
25	0x3e007878	0.12545955
26	0x3e26f59a	0.16304627
27	0x3d1d1ebe	0.038359396
28	0xbc970b52	-0.018438015
29	0xbc0cf852	-0.008604126
30	0xbb535db3	-0.0032251894
31	0xbc3a0206	-0.0113530215
32	0xbda5d25a	-0.08096762
33	0x3d1ebc6c	0.03875391
34	0x3ce5e1b1	0.02806172
35	0x3d617eef	0.055052694
36	0x3c9cf3eb	0.019159278
37	0x3dc133bd	0.094336964
38	0x3e55cbf2	0.2087858
39	0x3dedfc65	0.11620406
40	0x3cb7ad99	0.022421645
41	0x3d9cce4e	0.07656537
42	0x3cca3e09	0.024687784
43	0xbdcb5ba7	-0.09929591
44	0xbe1a83d8	-0.15089357
45	0x3e1f802a	0.15576234
46	0x3defb61b	0.11704656
47	0xbcf86720	-0.030322611
48	0xbd46f128	-0.04856983
49	0xbda5d44f	-0.08097135
50	0x3d350e14	0.04420288
51	0x3db05dd5	0.08611647
52	0xbc1000d4	-0.00878926
53	0x3cdbe33a	0.026841749
54	0xbc84baf4	-0.016202427
55	0x3b9adcff	0.004726052
56	0xbbb06f41	-0.0053843562
57	0xbd712bd8	-0.058879703
58	0x3d3a7bcb	0.045528214
59	0x3d961288	0.07327753
60	0xbd8f4099	-0.06994743
61	0x3b5e668e	0.003393564
62	0x3d68d595	0.056844313
63	0x3c107d1c	0.008818891
64	0x3c9df90e	0.019283798
65	0x3d82a74c	0.063795656
66	0xb9109c60	-0.00013791164
67	0x3d622f3d	0.05522083
68	0x3c3da99a	0.011576081
69	0xbb3938be	-0.002826258
70	0x3d735e84	0.05941631
71	0x3d015eee	0.031584673
72	0xbc36f133	-0.011165905
73	0x3d7b0089	0.061279807
74	0x3c126022	0.008934053
75	0x3d533428	0.051563412
76	0x3da00e25	0.07815198
77	0xbd436de3	-0.047712218
78	0xbdf637cf	-0.120223634
79	0xbd724efa	-0.05915735
80	0x3c95fd3c	0.018309228
81	0xbddbb0b5	-0.107270636
82	0xbdffc122	-0.12488009
83	0xbd7842bd	-0.06061052
84	0x3da14f10	0.07876408
85	0xbdb60f81	-0.08889676
86	0xb9fb2d6a	-0.00047908287
87	0x3bdd0458	0.0067449026
88	0xbdb73885	-0.08946327
89	0xbcb81d01	-0.022474768
90	0xbd9631f1	-0.07333744
91	0x3dd36b08	0.10323149
92	0x3d4c3d6f	0.049863275
93	0xbd4a1e56	-0.049345337
94	0xbdb3476a	-0.087538555
95	0x3d8e22d4	0.06940237
96	0x3d52a5ac	0.05142753
97	0x3dc9b4bc	0.098489255
98	0x3dba6969	0.09102137
99	0xbd10a8c1	-0.035317186
100	0xbc2a4de5	-0.010394548
101	0xbd0b4c7a	-0.03400848
102	0xbe0bafa4	-0.1364122
103	0xbe2bb964	-0.1676994
104	0xbd3a0208	-0.045412093
105	0xbd794d73	-0.060864877
106	0x3db83dbe	0.089961514
107	0xbde9f1ac	-0.114230484
108	0x3dae2fe5	0.08505229
109	0xbd0339ab	-0.03203742
110	0xbd08fbf0	-0.03344339
111	0x3d42e1d7	0.04757866
112	0xbe081f0d	-0.13293095
113	0xbb4c469e	-0.003117002
114	0x3a3ef327	0.00072841573
115	0xb9f5a635	-0.00046853875
116	0xbd963a0e	-0.07335292
117	0xbcdc6b5f	-0.026906667
118	0xbca2692f	-0.019825546
119	0x3db6b49b	0.089211665
120	0x3e0671da	0.13129368
121	0xba2341a2	-0.00062277366
122	0x3d65ba75	0.056086022
123	0x3e0f7921	0.14011051
124	0x3df24e3d	0.11831329
125	0xbd67e769	-0.056617174
126	0x3c5541cb	0.013016175
127	0xbd6c61ca	-0.057710446
128	0x3cfc5b11	0.030805143
129	0xbd101570	-0.035176694
130	0xbdf7e078	-0.12103361
131	0x3c842d7e	0.016134974
132	0x3dd226f6	0.102613375
133	0xbd012b62	-0.031535514
134	0xba28f936	-0.0006445827
135	0x3d2d7c3d	0.04235481
136	0xbc891326	-0.016732763
137	0x3d1de0e3	0.038544547
138	0x3b8d74af	0.0043168883
139	0xbc9ae200	-0.018906593
140	0x3c5de3df	0.013543098
141	0xbd3ecba1	-0.046580914
142	0xbc06eb27	-0.008234776
143	0x3da2f03f	0.079559796
144	0x3e11109b	0.1416649
145	0x3da90d62	0.08254506
146	0xbd021701	-0.03176022
147	0xbddf038c	-0.108893484
148	0x3df2f03b	0.118622266
149	0x3e0e7eef	0.13915609
150	0x3db88d31	0.09011305
151	0x3ac4617c	0.0014982666
152	0xbd0f89d3	-0.03504355
153	0xbd8c2504	-0.06842998
154	0x3d142fbc	0.036178336
155	0xbd98b27e	-0.0745592
156	0x3d419081	0.04725695
157	0xbc09482c	-0.0083790235
158	0xbc3a0b79	-0.011355274
159	0xbc41b37b	-0.011822577
160	0x3d921f34	0.07134858
161	0x3d6d4cba	0.0579345
162	0x3d3d43e3	0.04620732
163	0xbd05981e	-0.032615773
164	0x3d282dbc	0.04105924
165	0x3e03cdc4	0.12871462
166	0x3d0e3d27	0.03472629
167	0xbd93f69f	-0.072247736
168	0xbbff11d4	-0.0077841077
169	0xbc620e6f	-0.013797387
170	0x3e0abe97	0.13549267
171	0x3dae73a0	0.085181475
172	0xbd2fb0b0	-0.04289311
173	0xbc8d07df	-0.017215667
174	0x3d00eeea	0.031477846
175	0xbcb03674	-0.02151034
176	0x3c41a147	0.011818237
177	0x3d0a2add	0.033732284
178	0x3da10cc9	0.07863767
179	0x3d8f3fc9	0.06994588
180	0x3e012672	0.12612322
181	0xbc4387eb	-0.011934261
182	0x3c8e60fd	0.017380232
183	0x3d08340b	0.033252757
184	0x3da64f42	0.08120586
185	0x3de2098e	0.11036979
186	0x3ca8f335	0.020623783
187	0xbd4289f9	-0.047494862
188	0x3e020a89	0.12699331
189	0x3d843577	0.0645551
190	0x3cf28fd6	0.029609602
191	0x3dd4c45a	0.103890136
192	0xbd46c54f	-0.048528012
193	0xbd0086df	-0.031378623
194	0xbd4e879d	-0.0504223
195	0x3e1d153e	0.15340135
196	0xbc39674b	-0.011316131
197	0xbdb73a0a	-0.08946617
198	0xbd991846	-0.07475333
199	0xbc6ab502	-0.014325382
200	0xbc3df1cd	-0.011593294
201	0x3d1f1b66	0.03884449
202	0x3caebd09	0.021330373
203	0xbbc7dc20	-0.006099239
204	0x38e0260b	0.000106882384
205	0xbc9604fe	-0.018312927
206	0xbd482bb4	-0.048869804
207	0xbd650815	-0.05591591
208	0xbcc3943f	-0.0238744
209	0x3d91ca3a	0.0711865
210	0x3c9d414b	0.019196173
211	0xbd825e87	-0.06365686
212	0x3d304bf4	0.043041185
213	0x3d1646cb	0.036688607
214	0xbd131bcb	-0.035915177
215	0x3caab4c1	0.020838143
216	0xbd11ddb7	-0.035611834
217	0xbbcff0ce	-0.006345845
218	0xbd21e86f	-0.039528307
219	0xbc61cde7	-0.013782001
220	0xbd612586	-0.054967426
221	0xbcab1c90	-0.020887643
222	0x3db4f1ec	0.088352054
223	0x3d32242d	0.04349153
224	0xbc8e5281	-0.017373325
225	0xbd2538eb	-0.040337484
226	0x3d4bd5da	0.04976449
227	0xbc0fd4fa	-0.008778805
228	0xbd845cea	-0.064630345
229	0x3c0c66a6	0.008569395
230	0x3d71213d	0.05886959
231	0x3dcf15cf	0.101115815
232	0x3d449210	0.04799086
233	0x3bac7c4e	0.0052638417
234	0x3cab24cf	0.020891575
235	0x3d4017fc	0.046897873
236	0x3d5b2fda	0.05351243
237	0x3bf49743	0.007464321
238	0x3ced6227	0.028977467
239	0xbcd03edd	-0.0254206
240	0x3c1f8e63	0.0097385375
241	0x3ca39f66	0.019973468
242	0xbd7b9b44	-0.06142737
243	0xbd4c411d	-0.049866784
244	0x3dcb9fbc	0.09942576
245	0x3d84513e	0.06460808
246	0x3d04e8a7	0.032448437
247	0xbd5b8c24	-0.053600445
248	0xbdb95413	-0.09049239
249	0x3c887d07	0.01666118
250	0x3c7b966b	0.015355687
251	0x3ca5c2ee	0.020234551
252	0xbddfbd74	-0.10924807
253	0xbcb3374d	-0.021876955
254	0xbd53b32c	-0.051684543
255	0xbba9de82	-0.0051839957

features.6.bias f4 [120]
0	0x3cc92005	0.0245514
1	0x3d10dad5	0.035364944
2	0xbc9a0006	-0.01879884
3	0x3b542802	0.003237248
4	0x3c419a8c	0.011816632
5	0x3dbe02a5	0.09277848
6	0x3cc847ab	0.024448236
7	0x3d8ffd3c	0.070307225
8	0xbcbe8db4	-0.023260929
9	0xbd88fe7e	-0.066891655
10	0x3caaefc2	0.020866279
11	0xbc21b163	-0.009868952
12	0x3d1efa65	0.038813014
13	0x3d500513	0.05078609
14	0xbd41f0bb	-0.04734872
15	0x3c3ff878	0.011716954
16	0x3d08e303	0.03341962
17	0xbca9f406	-0.020746242
18	0x3d71d10b	0.05903725
19	0xbd0560d3	-0.032563042
20	0xbcc05788	-0.023479238
21	0x3d3bba0c	0.045831725
22	0xbc28ae2f	-0.010295435
23	0xbd494bde	-0.04914462
24	0xba926200	-0.0011168122
25	0x3d9bce94	0.07607761
26	0xbb160804	-0.0022892961
27	0x3c1ee38d	0.009697807
28	0x3d6fd160	0.058549285
29	0x3d9a1e15	0.07525269
30	0x3d26168d	0.04054885
31	0xbc34c1ab	-0.011032502
32	0xbd6ed0a0	-0.05830443
33	0xbc21123e	-0.009831009
34	0x3ca536c3	0.020167714
35	0x3d1e9ccc	0.038723752
36	0x3c8d8d23	0.017279213
37	0x3d8dba5d	0.069203116
38	0xbb311c35	-0.002702487
39	0xbc5de3d7	-0.013543091
40	0x3cbec742	0.023288373
41	0x3d1d641c	0.03842555
42	0x3cb25f4d	0.021773959
43	0x3d2513b7	0.040302005
44	0xbc220844	-0.009889666
45	0xbcf994a7	-0.03046639
46	0xbcb62e93	-0.022239005
47	0xbb049a3c	-0.0020233532
48	0xbd039630	-0.03212565
49	0x3ce6473f	0.028110145
50	0x3c2577e0	0.010099381
51	0x3e0859a6	0.13315448
52	0x3dc01c1c	0.093803614
53	0x3cb3a1c4	0.021927722
54	0xbd6f3407	-0.058399227
55	0xbcddd42e	-0.027078714
56	0x3c01e0e5	0.007927154
57	0x3d3e6f65	0.046492953
58	0x3d9c958d	0.07645712
59	0x3ca5cb88	0.020238653
60	0x3da2c837	0.07948344
61	0xbc6457e8	-0.013936974
62	0x3ce896ba	0.028392185
63	0xbcb538ad	-0.022121752
64	0x3d19a831	0.037513915
65	0xbbb3da88	-0.0054886974
66	0x3cb9de46	0.022688996
67	0x3d01dad2	0.031702824
68	0x3d1b04bb	0.03784631
69	0x3cbf3441	0.023340346
70	0xbd9c4015	-0.0762941
71	0xbc89acc7	-0.01680602
72	0x3d972a2e	0.07381092
73	0x3cf3ba88	0.029752031
74	0x3d7d5d68	0.061856657
75	0xba6b60ab	-0.0008978943
76	0x3d4c7163	0.04991282
77	0xbd461cd0	-0.04836732
78	0x3d2b2c65	0.041790385
79	0x3c18518b	0.009296785
80	0xbd41daef	-0.047327932
81	0xbd11e019	-0.035614107
82	0xbc00f61c	-0.007871177
83	0x3dcb8d53	0.09939065
84	0xbc72c02a	-0.014816323
85	0xbb52566d	-0.003209497
86	0x3d2d2cb4	0.04227896
87	0x3d26f463	0.04076041
88	0x3d6e9b97	0.05825385
89	0xbc896378	-0.016771063
90	0x3db6a15b	0.08917495
91	0x385e5b14	5.3013748e-05
92	0xbd710da1	-0.05885089
93	0xbc9c7da9	-0.019102888
94	0x3c8ca91c	0.017170481
95	0xbcb3e62b	-0.021960339
96	0x3d5e2c62	0.054241545
97	0xbd8c9bde	-0.06865667
98	0xbcf4784e	-0.029842522
99	0x3cc6260d	0.024188066
100	0xbd029c87	-0.031887557
101	0xbd2f600b	-0.042816203
102	0xbb915feb	-0.004436483
103	0x3d2892dd	0.041155685
104	0x3d7b95ed	0.061422277
105	0x3ba8b666	0.0051486967
106	0x3cb23bc5	0.021757016
107	0xbc259ccd	-0.010108185
108	0xbd431dab	-0.047635715
109	0x3d8572d1	0.0651604
110	0x3c2b4e5e	0.010455696
111	0x3dc06a5d	0.09395287
112	0x3aebc4c6	0.001798772
113	0xbd3461cd	-0.044038583
114	0xbd9aa0ae	-0.075501785
115	0x3c99f523	0.018793648
116	0x3c716d30	0.014735505
117	0xbbeeb7b9	-0.007285085
118	0xbda28820	-0.0793612
119	0x3cc974cf	0.024591831

classifier.0.weight f4 [84, 120]
0	0x3bcf0100	0.006317258
1	0xbd2b1988	-0.041772395
2	0xbc07cb58	-0.008288227
3	0x3d810627	0.063000016
4	0x3cf47edc	0.029845648
5	0xbdaeac53	-0.08528962
6	0xbda2da9e	-0.07951854
7	0x3bd7cf00	0.0065859556
8	0x3ca314fd	0.019907469
9	0xbdac80df	-0.08423018
10	0x3bebf98c	0.007201379
11	0xbd26e00b	-0.040741008
12	0x3c956990	0.018238813
13	0xbd5ca4b4	-0.05386801
14	0x3d9d35e0	0.076762915
15	0x3d888e62	0.06667782
16	0xbda26cf5	-0.07930938
17	0xbda559d6	-0.080737755
18	0x3c2bd305	0.010487323
19	0x3d65ab63	0.05607165
20	0x3cb7d2c0	0.02243936
21	0xbd7550b9	-0.059891436
22	0x3d6dd816	0.058067404
23	0xbdb9094e	-0.09034978
24	0x3d69ea2b	0.057108086
25	0xbd46f353	-0.048571896
26	0xbcba7f1d	-0.02276569
27	0xbd1f071f	-0.03882515
28	0xbd25245b	-0.040317874
29	0xbd3f201e	-0.04666149
30	0x3bca749f	0.006178453
31	0x3a955095	0.0011391813
32	0x3c2d4fa0	0.010578066
33	0x3d991c7e	0.074761376
34	0xbcceaca5	-0.025228808
35	0xbd927ceb	-0.071527325
36	0xbdd8a5e6	-0.105785176
37	0x3d5cf64d	0.05394583
38	0xbd90faee	-0.07079111
39	0x3d3ca698	0.046057314
40	0xbd8900bd	-0.06689594
41	0xbd9d4d57	-0.07680767
42	0x3c6befb0	0.014400408
43	0x3d5a6963	0.05332316
44	0xbdc7f3af	-0.09763276
45	0x3d75b3ac	0.0599858
46	0xbdba09ba	-0.090838864
47	0xbd08dc76	-0.033413373
48	0xbd2881e2	-0.04113949
49	0xbda36235	-0.07977716
50	0xbda7a07c	-0.08184907
51	0xbd5a8365	-0.053347964
52	0xbdb51d78	-0.08843511
53	0xbc67c044	-0.014144961
54	0xbda9f919	-0.08299465
55	0xbd6d98ee	-0.058007173
56	0xbd79d48d	-0.06099372
57	0x3c34f3ac	0.011044424
58	0xbd2912f1	-0.04127783
59	0x3c7f6aa2	0.015589388
60	0x3d25fef7	0.040526357
61	0xbdcb96a4	-0.09940842
62	0xbd16cea9	-0.03681818
63	0xbdccf7e0	-0.10008216
64	0x3cd507a5	0.026004622
65	0xbca2f3b0	-0.01989159
66	0x3c44bf0e	0.012008442
67	0xbbdb68fa	-0.006695864
68	0x3d85056e	0.06495176
69	0xbc152350	-0.009102657
70	0xbd3ad988	-0.04561761
71	0x3d8d9674	0.06913462
72	0xbcbaf755	-0.022823015
73	0x3b4c053f	0.0031131057
74	0xbbd15b44	-0.0063890535
75	0xbd451fbb	-0.048125964
76	0x3d16f79d	0.036857236
77	0xbdb9cd45	-0.09072355
78	0x3cf7e0c0	0.030258536
79	0x3d3615b4	0.04445429
80	0x3d74290c	0.059609458
81	0xbda41b3a	-0.080130056
82	0x3d8344b6	0.0640959
83	0x3d8cffe5	0.068847455
84	0xbc91a283	-0.017777687
85	0xbdcfb602	-0.10142137
86	0xbca29a10	-0.019848853
87	0xbc855ea7	-0.016280485
88	0xbdc24cf0	-0.09487331
89	0xbbb950a0	-0.005655363
90	0xbd3bdec9	-0.04586676
91	0xbdc8529d	-0.09781382
92	0x3d72e2a8	0.059298187
93	0x3c0ecfc8	0.008716531
94	0xbd82d505	-0.063882865
95	0x3da9ac38	0.08284801
96	0xbc2af5e9	-0.010434606
97	0xbc500fe2	-0.012699099
98	0x3c3824f0	0.011239275
99	0xbd9a75f4	-0.07542029
100	0xbd5cf422	-0.05394376
101	0xbbe235b8	-0.0069033764
102	0xbd0a40dc	-0.03375326
103	0x3d018a69	0.03162614
104	0xbc5fd8d8	-0.013662539
105	0x3a70a12e	0.0009179291
106	0x3d94069a	0.07227822
107	0xbd20662d	-0.039159942
108	0xbc497890	-0.012296811
109	0xbd8d9446	-0.069130465
110	0xbdc41e6e	-0.095761165
111	0x3bbcb5f8	0.005758997
112	0x3d481c73	0.048855256
113	0x3cfd1de0	0.030898035
114	0xbddd6c8e	-0.10811721
115	0x3d721010	0.05909735
116	0xbdc99783	-0.09843352
117	0xbda1bdba	-0.078975156
118	0x3daa2322	0.08307482
119	0xbd6948e6	-0.056954287
120	0xbd48dabf	-0.049036738
121	0xbddaa578	-0.10676092
122	0xbd1d0c67	-0.038341906
123	0x3d301097	0.04298457
124	0xbd6b0da9	-0.057386074
125	0xbe04de24	-0.12975365
126	0x3d409263	0.047014605
127	0x3dbe41e4	0.092899114
128	0xbc0fced5	-0.00877734
129	0x3cc21c15	0.023695031
130	0xbe3aa113	-0.18225507
131	0xbd03c263	-0.032167803
132	0x3c967c1e	0.01836973
133	0xbbbdd57b	-0.005793271
134	0xbd655c3d	-0.05599617
135	0xbdcad877	-0.09904569
136	0x3c9a4ce4	0.018835492
137	0xbdd682dd	-0.10474179
138	0x3e1fdef2	0.1561239
139	0x3d99e1b7	0.07513755
140	0x3d4f2b4a	0.050578393
141	0x3dd823e5	0.10553721
142	0xba97ecc8	-0.0011590952
143	0x3c3cee95	0.011531492
144	0xbe089bf8	-0.13340747
145	0x3dd7867a	0.10523696
146	0x3e13af95	0.14422448
147	0xbcd63e91	-0.02615288
148	0x3e2979ae	0.16550323
149	0xbd64b19a	-0.055833437
150	0x3d89b70f	0.06724369
151	0xbd029f4c	-0.0318902
152	0xbd12051b	-0.0356494
153	0x3d86194e	0.06547795
154	0x3dc89c02	0.09795381
155	0x3dbf5c44	0.0934377
156	0xbd4ff326	-0.050768994
157	0x3dd3670b	0.10322388
158	0xbe49f6fe	-0.19723126
159	0xbd8b0834	-0.06788674
160	0xbe05f823	-0.13082938
161	0x3b79785b	0.0038066122
162	0xbe586538	-0.21132362
163	0x3ce45a86	0.027875196
164	0xbdae74cf	-0.08518373
165	0x3ce5483f	0.027988551
166	0x3c8b008b	0.016968032
167	0xbb6ab893	-0.0035815581
168	0x3e14cb70	0.1453073
169	0x3e0b1dbe	0.13585564
170	0xbcfc99f5	-0.030835131
171	0xbc44e526	-0.012017524
172	0x3e0a826a	0.13526312
173	0xbd117a38	-0.035516948
174	0xbe26f4fe	-0.16304395
175	0x3e3bd3bb	0.18342488
176	0x3d71e7e9	0.059059057
177	0x3db88a51	0.09010757
178	0x3e024fd1	0.1272576
179	0xbdb7dbca	-0.08977468
180	0x3dc212da	0.09476252
181	0xbd29a8ab	-0.04142062
182	0x3df86928	0.12129432
183	0x3dbb619e	0.091494784
184	0x3e1826c5	0.1485854
185	0xbd83f06d	-0.06442342
186	0xbd473f4a	-0.04864434
187	0xbdf2bfab	-0.11852964
188	0x3e4cf014	0.20013458
189	0x3da6e4b0	0.081490874
190	0xbda8f072	-0.08248986
191	0xbe02ea9f	-0.12784813
192	0x3dcda07e	0.10040377
193	0xbdbcd0be	-0.09219502
194	0x3e122a04	0.1427384
195	0x3bb2e77a	0.005459723
196	0x3df5b9b3	0.1199831
197	0x3d2495f0	0.040182054
198	0x3dd19174	0.10232821
199	0xbdb9810f	-0.09057819
200	0xbbfaa575	-0.0076491185
201	0x3e110fee	0.14166233
202	0xbd39736b	-0.045276087
203	0x3ddbb824	0.107284814
204	0x3c425869	0.011861899
205	0xbd099ce5	-0.033596892
206	0xbbd573f1	-0.0065140654
207	0x3d3003f8	0.042972535
208	0x3d07b2bc	0.03312944
209	0xbcd52c70	-0.026022166
210	0x3de051ce	0.10953103
211	0xbd8e94e5	-0.06961993
212	0x3c802918	0.015644595
213	0x3e129158	0.14313257
214	0xbdad0c4d	-0.08449612
215	0xbd6b91b8	-0.057512015
216	0x3df1474a	0.117811754
217	0x3c1fb65e	0.00974807
218	0xbd906553	-0.07050576
219	0xbd7c9d97	-0.061673727
220	0xbde4508d	-0.11148176
221	0xbca4ac19	-0.020101594
222	0xbbf2bdf8	-0.0074079
223	0x3e1c511c	0.15265316
224	0x3dc3e04f	0.09564268
225	0x3d442c40	0.047893763
226	0x3d76e275	0.06027456
227	0xbd7bcfdd	-0.06147753
228	0x3d117ce5	0.0355195
229	0x3dfad832	0.12248267
230	0x3d87da56	0.06633441
231	0x3e331c79	0.1749133
232	0x3e06d495	0.13167031
233	0xbbc0932d	-0.0058769197
234	0xbe2641cf	-0.16236041
235	0x3d7aa3b1	0.061191265
236	0x3d43c8c9	0.047798906
237	0x3be8552e	0.0070902323
238	0x3cb80f31	0.022468181
239	0x3d914dfe	0.07094954
240	0xbdb43e6e	-0.0880097
241	0x3ddffaaf	0.10936486
242	0xbd992a5d	-0.07478783
243	0xbbcc734b	-0.00623933
244	0xbda3e630	-0.08002889
245	0x3dabb6a7	0.083844475
246	0xbe2e98da	-0.17050496
247	0xbd15afcd	-0.03654461
248	0x3e86e518	0.2634666
249	0x3d006310	0.031344473
250	0x3cfbf669	0.030757146
251	0x3d052898	0.032509416
252	0x3c4d78d0	0.012541011
253	0x3d8c7561	0.06858326
254	0xbb207295	-0.0024482359
255	0x3d5f9ce3	0.05459298

classifier.0.bias f4 [84]
0	0xbdd9a976	-0.10628025
1	0x3e122d7f	0.14275168
2	0x3d31702c	0.043319866
3	0x3c9db881	0.019253017
4	0x3d14710a	0.036240615
5	0x3cf237f2	0.029567692
6	0x3c61d3de	0.013783423
7	0x3e03fb94	0.12888938
8	0x3d7bde87	0.061491515
9	0x3c1eb21a	0.009686017
10	0x3dbe4d65	0.092921056
11	0xbd4e7c0f	-0.05041128
12	0x3d536054	0.051605538
13	0xbd81b50a	-0.063333586
14	0x3d47ee72	0.048811384
15	0xbc05186a	-0.008123497
16	0x3c2961c7	0.010338253
17	0x3d27c1b9	0.040956233
18	0x3d9456e1	0.07243133
19	0x3da2c74b	0.07948168
20	0x3cd4629b	0.025925925
21	0xbc9e3d2c	-0.019316278
22	0x3e18f988	0.14938939
23	0x3ddc0351	0.1074282
24	0x3d84f839	0.06492657
25	0x3d8ff858	0.0702979
26	0xbdb3c78e	-0.087782964
27	0xbddc6928	-0.107622445
28	0xbde2e12e	-0.11078106
29	0xbd93091c	-0.07179472
30	0xbe0b237d	-0.13587756
31	0x3d91a475	0.07111446
32	0x3dbb43f9	0.09143824
33	0xbceff3af	-0.029291002
34	0x3c85115f	0.016243635
35	0x3c81e363	0.015855497
36	0x3d8fe7fa	0.07026668
37	0xbbb05815	-0.005381594
38	0x3d8c8fe5	0.06863383
39	0x3d805e38	0.06267971
40	0x3d21aaa0	0.03946936
41	0x3d4346e8	0.047675043
42	0xbdd41778	-0.10356039
43	0xbdaa8d95	-0.08327786
44	0x3dbef245	0.09323553
45	0xbdd6c76b	-0.10487255
46	0x3af788aa	0.0018885334
47	0x3cee1e4b	0.02906718
48	0xbbcda918	-0.006276261
49	0x3d3c24f4	0.04593368
50	0xbdcfbe1b	-0.101436816
51	0xbdb12925	-0.08650426
52	0x3cf9a7b7	0.03047548
53	0x3daae1f4	0.083438784
54	0x3da3f9e8	0.0800665
55	0xbd4e0e03	-0.05030633
56	0x3d801cf2	0.06255521
57	0x3cabaf79	0.020957695
58	0xbdc659c4	-0.0968509
59	0xbc33a0c4	-0.0109636225
60	0xbd01c032	-0.031677432
61	0x3d142d46	0.03617599
62	0x3d83e8e1	0.064409025
63	0x3dbd6aa2	0.09248854
64	0x3d47498c	0.048654124
65	0x3dd80087	0.105469756
66	0xbd7d96d8	-0.061911434
67	0x3c300670	0.010743722
68	0xbbec4838	-0.0072107576
69	0xbdd315c7	-0.10306888
70	0x3bf6fd3c	0.007537512
71	0x3d43dbc5	0.04781701
72	0xbd01853d	-0.031621207
73	0x3d2b9469	0.04188958
74	0x3d659390	0.05604893
75	0x3d29673a	0.04135821
76	0xbab1e80f	-0.0013573187
77	0xbdbd39e5	-0.09239558
78	0xbde35bfd	-0.1110153
79	0xbd2bc619	-0.041936968
80	0x3c8b56a0	0.01700908
81	0xbda3f396	-0.08005445
82	0x3cabe573	0.020983433
83	0xbb37f4fb	-0.0028069604

classifier.2.weight f4 [10, 84]
0	0xbbd04d35	-0.00635686
1	0x3d5d93ac	0.05409591
2	0x3e1ba7ea	0.15200773
3	0xbdfc4011	-0.12316907
4	0x3d30a1e5	0.043123145
5	0xbe3c7ca4	-0.18406922
6	0x3e08e068	0.13366854
7	0xbe4577b7	-0.19283949
8	0x3db53477	0.088478975
9	0xbd6735d2	-0.05644781
10	0xbdd8a576	-0.10578434
11	0x3e49a78d	0.19692822
12	0xbe15ca62	-0.14627984
13	0xbda7277b	-0.08161827
14	0xbdd55722	-0.1041701
15	0xbd64f97a	-0.055901982
16	0x3e2716e6	0.16317329
17	0xbd8bf1b6	-0.06833212
18	0x3d260a5f	0.040537234
19	0x3bef9c50	0.007312335
20	0xbdeedebe	-0.116635785
21	0xbdf2beae	-0.118527755
22	0x3e12b173	0.14325504
23	0xbe7887df	-0.2427058
24	0xbc1c1d6b	-0.009528498
25	0xbc991120	-0.018684924
26	0xbcf7281e	-0.030170497
27	0x3e7d3745	0.24728115
28	0x3d8a8cd5	0.06765143
29	0xbe0569b4	-0.13028604
30	0xbc35e3d4	-0.011101682
31	0xbb931cdb	-0.004489524
32	0x3dada354	0.08478418
33	0x3d2f48c1	0.042793993
34	0x3d8c4559	0.068491645
35	0x3c714402	0.014725687
36	0x3d8a0010	0.06738293
37	0xbd71c12c	-0.059022114
38	0x3da1d8df	0.07902693
39	0xbdad7c7a	-0.08471008
40	0xbdcd9541	-0.100382335
41	0x3e182ed5	0.14861615
42	0xbd4fd13e	-0.05073666
43	0x3de6743c	0.11252639
44	0xbe359412	-0.17732266
45	0x3d4fee11	0.050764147
46	0x3ddf6ab6	0.10909025
47	0xbda66d8b	-0.081263624
48	0x3d9f7361	0.07785679
49	0x3b815fb0	0.0039481744
50	0xbc7467fb	-0.014917369
51	0xbd646181	-0.05575705
52	0xbd8ebeb1	-0.06969965
53	0xbbd77654	-0.006575385
54	0x3c9741d6	0.01846401
55	0x3d08cb08	0.03339675
56	0xbe1febb4	-0.15617257
57	0x3de51e58	0.11187428
58	0xbe0fb71f	-0.14034699
59	0x3d8d0fe5	0.06887797
60	0x3da755bc	0.081706494
61	0xbdb706ef	-0.08936869
62	0xbd9993e0	-0.07498908
63	0xbc9e3b19	-0.01931529
64	0x3d1f2383	0.038852226
65	0xbda3b308	-0.07993132
66	0x3ce22702	0.027606491
67	0x3d0b2610	0.033971846
68	0xbe092809	-0.13394178
69	0x3cb7ceb1	0.022437425
70	0x3d4d5600	0.050130844
71	0x3d8d2618	0.068920314
72	0xbc004bf6	-0.0078306105
73	0x3d0e7c59	0.034786556
74	0xbdf4bb42	-0.11949779
75	0xbe5ad5dc	-0.21370643
76	0x3e426e18	0.1898731
77	0x3c293ad0	0.010328963
78	0xbe4431a6	-0.19159564
79	0xbd8874c5	-0.06662897
80	0x3c7ab852	0.015302734
81	0xbcb19810	-0.021678954
82	0xbdce1486	-0.10062508
83	0xbe83d421	-0.2574778
84	0x3cc782ae	0.024354305
85	0xbe4a7cb6	-0.19774136
86	0x3e33cd3c	0.1755876
87	0x3d397932	0.045281596
88	0x3db12f4e	0.08651601
89	0xbdf83178	-0.121188104
90	0xbd11d45d	-0.035602916
91	0xbc0a90ba	-0.008457357
92	0xbe0035db	-0.12520544
93	0xbda0f735	-0.07859651
94	0x3c244bc2	0.010027828
95	0x3e87539b	0.26430973
96	0x3e414f83	0.18877988
97	0x3dbe3702	0.09287836
98	0xbc51d770	-0.012807712
99	0xbdd30c87	-0.10305124
100	0x3dad1c52	0.08452667
101	0x3be945e7	0.0071189287
102	0x3dd1d43f	0.10245561
103	0xbd3aae1b	-0.045576196
104	0x3deae93c	0.11470267
105	0x3d2fc2e2	0.042910464
106	0xbda82552	-0.08210243
107	0xbdadb790	-0.084822774
108	0x3d1105b9	0.03540585
109	0x3cffb997	0.031216426
110	0xbd0ed83f	-0.034874197
111	0xbc024cdc	-0.007952895
112	0x3e3561da	0.17713109
113	0x3dd97a2a	0.10619004
114	0xbe2b904b	-0.16754262
115	0xbd8f82a7	-0.07007342
116	0x3d319a97	0.04336032
117	0x3d228165	0.03967418
118	0xbe0ad453	-0.13557558
119	0xbd778dcc	-0.060437962
120	0xbe4424fa	-0.1915473
121	0xbd7fef27	-0.062483933
122	0xbdd48626	-0.10377149
123	0xbe0735a3	-0.13204055
124	0x3d86f8b9	0.06590409
125	0xbca155e8	-0.019694284
126	0xbc9884dc	-0.01861804
127	0x3d1aa33f	0.03775334
128	0x3d9a34d6	0.07529609
129	0xbdabc9ad	-0.08388076
130	0x3d04e054	0.0324405
131	0x3d217b6c	0.039424345
132	0x3d31b00c	0.043380782
133	0x3e23286b	0.15933387
134	0x3d9eb3ad	0.07749114
135	0xbdbc06f9	-0.091810174
136	0x3d917ba2	0.07103659
137	0xbe204a0e	-0.1565325
138	0xbdfa254a	-0.122141436
139	0x3d77a528	0.06046024
140	0x3d0fe847	0.035133626
141	0xbe223482	-0.15840343
142	0xbd0d374a	-0.034476556
143	0x3d9af8ea	0.07567008
144	0xbe37bd72	-0.17943361
145	0x3e051787	0.12997256
146	0x3dfe0a59	0.124043174
147	0xbe3fa9c7	-0.18717109
148	0xbe1c4ca7	-0.15263616
149	0xbe15d78d	-0.14633007
150	0xbdb3e975	-0.08784763
151	0xbdbbb666	-0.09165649
152	0x3c062899	0.00818839
153	0xbc315f8d	-0.010826004
154	0xbdffe63d	-0.12495086
155	0x3da12802	0.07868959
156	0xbc8fe101	-0.017563345
157	0x3dc33e7b	0.095334016
158	0x3e19e30e	0.1502802
159	0x3e046a9a	0.1293129
160	0x3e456b8a	0.19279304
161	0xbc9f96b6	-0.019481044
162	0x3ea91d0d	0.33029976
163	0x3d66030b	0.056155246
164	0x3cee4944	0.02908767
165	0x3da2d2be	0.07950352
166	0xbdb3410d	-0.08752642
167	0x3dfe8f96	0.124297306
168	0xbd7681e5	-0.06018247
169	0xbe3bc52e	-0.18336937
170	0x3e5458d7	0.20737015
171	0xbcd31d13	-0.0257707
172	0xbd80f519	-0.06296749
173	0x3d0a4418	0.033756346
174	0x3dd43d36	0.103632376
175	0x3e2534eb	0.16133468
176	0x3e3dee25	0.18547876
177	0xbd0b6727	-0.03403392
178	0xbe20437e	-0.15650746
179	0xbe56756f	-0.20943235
180	0x3d15b98c	0.036553904
181	0x3d2c75be	0.042104475
182	0xbbd80441	-0.006592304
183	0x3d7b6977	0.061379876
184	0xbd87c62b	-0.066295944
185	0x3cb3c35d	0.021943742
186	0x3d21c88b	0.039497893
187	0x3e070530	0.13185573
188	0x3da6f0a6	0.08151369
189	0x3e079f32	0.13244322
190	0x3d3e448f	0.0464521
191	0x3d62c526	0.055363797
192	0xbd2a10bc	-0.041519865
193	0xbe21e82e	-0.15811226
194	0x3daa2c67	0.0830925
195	0xbe6047c7	-0.21902381
196	0xbd7f2fd6	-0.06230148
197	0x3d5618e0	0.052269816
198	0xbd93ce1a	-0.07217045
199	0xbe0acd48	-0.13554871
200	0x3b8a06ed	0.0042122514
201	0xbdad9b43	-0.084768794
202	0x3e325ad4	0.1741746
203	0x3d322d75	0.043500382
204	0xbcbe02dd	-0.023194725
205	0x3dd4821b	0.10376378
206	0xbe3d25d3	-0.1847146
207	0x3e21cc38	0.1580056
208	0x3d85a634	0.06525841
209	0x3e1c6f82	0.15276912
210	0xbd011700	-0.031516075
211	0x3cb578c6	0.022152316
212	0xbcdf5f3b	-0.02726709
213	0xbdd02d3c	-0.10164878
214	0xbd633046	-0.05546596
215	0xbd7e1a28	-0.062036663
216	0xbe21cbba	-0.15800372
217	0x3e0fef5b	0.1405615
218	0x3e1245ca	0.14284435
219	0xbc4fbc58	-0.012679182
220	0xbd125bdf	-0.035732146
221	0xbe26ed32	-0.1630142
222	0xbd5ddfda	-0.05416856
223	0x3d235beb	0.03988258
224	0xbd5d7720	-0.054068685
225	0xbdf53713	-0.11973395
226	0xbc579e73	-0.013160336
227	0x3d024264	0.031801596
228	0x3c91bb7f	0.0177896
229	0x3da930dd	0.08261273
230	0xbe314b90	-0.17313981
231	0xbda7c802	-0.08192445
232	0xbe198e88	-0.14995778
233	0x3e173e1e	0.1476979
234	0x3d8ccba4	0.06874779
235	0xbd452a01	-0.04813576
236	0x3d977984	0.07396224
237	0x3d09d1a4	0.033647195
238	0xbc2855d8	-0.010274373
239	0xbd012518	-0.031529516
240	0x3bba501a	0.0056858184
241	0xbe323486	-0.17402849
242	0xbe06d59a	-0.1316742
243	0xbc3decf2	-0.011592137
244	0x3cdb2da3	0.02675516
245	0xbd6af6d6	-0.057364307
246	0xbefbcae9	-0.49178246
247	0xbd8762b0	-0.0661062
248	0xbe4cfb8a	-0.2001783
249	0xbd92ec29	-0.0717395
250	0x3d851814	0.06498733
251	0xbd03503c	-0.03205894
252	0x3d8a64ef	0.06757533
253	0xbd626e86	-0.055281185
254	0xbeb7ac71	-0.3587375
255	0x3d9f85ae	0.07789169

classifier.2.bias f4 [10]
0	0x3da43ec1	0.08019782
1	0xbdd8907b	-0.105744325
2	0xbd4f8dac	-0.05067222
3	0x3d2efba9	0.04272047
4	0x3c85bb45	0.016324649
5	0xbc101352	-0.008793669
6	0xbe165e7b	-0.14684479
7	0xbd37d969	-0.044885073
8	0x3d5c84b6	0.0538375
9	0x3d8fa655	0.07014147
