models/Experiment_1/model.pth (torch_old, 248658 bytes, 10 tensors)

features.0.weight f4 [6, 1, 5, 5]
0	0x3ec32c15	0.3811957
1	0x3f03cd7f	0.5148544
2	0x3eb3693a	0.3504122
3	0x3f087fef	0.5332021
4	0x3e48fa8c	0.19626826
5	0x3ed8098d	0.42194787
6	0x3ee5f95f	0.44916818
7	0x3f37594c	0.7162063
8	0x3f2de010	0.6792002
9	0x3e4485f2	0.19191721
10	0x3f15ec76	0.58563936
11	0x3f19b4cb	0.60041493
12	0x3f3a06ea	0.726668
13	0x3ef876c3	0.48528108
14	0x3ed027f4	0.40655482
15	0x3e70dd1a	0.23521844
16	0x3f043d86	0.5165638
17	0x3ec9ba21	0.39399818
18	0x3e3f835c	0.18702453
19	0x3e74d180	0.23908043
20	0xbd298337	-0.0413849
21	0x3dafc1b5	0.085818686
22	0x3d2cf067	0.042221453
23	0x3e5f31c1	0.21796323
24	0xbdee9533	-0.11649551
25	0xbdb64ca2	-0.08901335
26	0xbce53ce5	-0.027983138
27	0xbd4f897f	-0.050668236
28	0x3dd06faf	0.10177552
29	0xbe11da58	-0.14243448
30	0x3e7766d9	0.24160327
31	0xbd6d14ff	-0.05788135
32	0x3ea44fe0	0.3209219
33	0x3e529e6d	0.20568247
34	0x3d7262e0	0.059176326
35	0x3e908298	0.28224635
36	0x3e8c7bf1	0.2743831
37	0x3eef60a7	0.46753427
38	0x3e9d197d	0.3068351
39	0x3e0a1115	0.13483079
40	0x3e87504c	0.2642845
41	0x3e78a51a	0.24281731
42	0x3ed975ea	0.42472774
43	0x3ef44f37	0.47716686
44	0x3ea36e1d	0.31919947
45	0x3d93ba30	0.07213247
46	0x3ea800d7	0.3281314
47	0x3e877e20	0.26463413
48	0x3e95a109	0.29224423
49	0x3b9508f9	0.0045481888
50	0xbe34236f	-0.17591642
51	0x3bc87cc7	0.0061183902
52	0xbd1feb90	-0.03904301
53	0x3e875519	0.26432112
54	0x3de449bd	0.11146877
55	0x3e02cede	0.12774226
56	0x3e2dc25a	0.1696867
57	0x3dedb91d	0.11607573
58	0x3e6e10ce	0.23248598
59	0xbe07769e	-0.13228843
60	0x3dadce04	0.0848656
61	0xbc3aadc6	-0.01139397
62	0x3e345789	0.17611517
63	0xbcc45c98	-0.023969933
64	0x3d0809c2	0.03321243
65	0x3d467161	0.04844797
66	0x3e94083a	0.28912526
67	0xbcd65194	-0.026161946
68	0xbdd21825	-0.102585115
69	0xbe248d9f	-0.16069649
70	0x3e8ccf62	0.2750197
71	0x3e341bc8	0.17588723
72	0x3e85302c	0.26013315
73	0xbe26b654	-0.1628049
74	0xbe6f2045	-0.23352154
75	0xbe211b67	-0.1573311
76	0xbe0c5ed8	-0.13708055
77	0x3d969f46	0.07354598
78	0x3d7645bc	0.060125098
79	0x3e1dedd7	0.1542276
80	0xbdd32464	-0.10309675
81	0xbe0d8f8d	-0.13824292
82	0x3dcde2f9	0.10053057
83	0xbdb6f61f	-0.089336626
84	0x3de206c0	0.11036444
85	0xbd3eb8be	-0.046562903
86	0x3de3edad	0.111293174
87	0xbe25cb3f	-0.16190813
88	0xbddd4311	-0.108038075
89	0x3d59a75f	0.053138133
90	0x3d2e1120	0.0424968
91	0xbd65aac7	-0.05607107
92	0x3de3c8ab	0.11122259
93	0x3e047380	0.12934685
94	0xbe185d2f	-0.14879297
95	0xbddd4a92	-0.10805239
96	0x3e34de5c	0.17662948
97	0xbd9ae374	-0.075629145
98	0xbd9c0acf	-0.07619249
99	0xbe476456	-0.19471869
100	0xbdad2b87	-0.08455568
101	0x3d761175	0.060075242
102	0xbce886b1	-0.028384538
103	0xbe17b8b0	-0.14816546
104	0x3b0764e0	0.0020659491
105	0xbdea5206	-0.11441426
106	0xbe26ae5e	-0.16277453
107	0xbde451f9	-0.111484475
108	0xbe34c784	-0.17654234
109	0xbe05303c	-0.13006681
110	0x3e5a76f5	0.21334441
111	0x3d2c1436	0.042011462
112	0x3d793e88	0.06085065
113	0xbe3ff128	-0.18744338
114	0xbe08e50d	-0.13368626
115	0xbd6f0a4e	-0.058359437
116	0x3d0d09ac	0.034433052
117	0xbe3458f5	-0.1761206
118	0xbdb26b69	-0.08711893
119	0xbdf98126	-0.12182836
120	0x3c19cf12	0.009387748
121	0xbd914d81	-0.07094861
122	0xbc7d0fbc	-0.015445646
123	0xbe0db32e	-0.13837883
124	0xbe0ea78d	-0.13931103
125	0xbdf9f684	-0.12205222
126	0xbd8fd1d2	-0.07022442
127	0xbe229208	-0.15876019
128	0x3e29b004	0.16571051
129	0xbd25d7f7	-0.040489163
130	0x3e2c6f52	0.1683934
131	0x3d7c80d0	0.061646283
132	0xbe2e6a71	-0.17032792
133	0x3e0b99c2	0.13632873
134	0xbd66fd92	-0.056394167
135	0xbda4000b	-0.08007821
136	0xbe2ae30a	-0.16688171
137	0xbe4cdff4	-0.20007306
138	0x3d6020b4	0.054718688
139	0xbd3ab92e	-0.045586757
140	0x3d9300a0	0.071778536
141	0xbe2c9bf5	-0.16856368
142	0x3e14230d	0.14466496
143	0xbe19da8d	-0.15024777
144	0xbd11e234	-0.035616115
145	0x3d18a994	0.037271097
146	0x3dd3260e	0.10309993
147	0x3e27ece6	0.16398963
148	0x3e3d93a0	0.18513346
149	0xbe1ed337	-0.1551026

features.0.bias f4 [6]
0	0x3c7c2382	0.015389325
1	0x3b9fc96d	0.0048763067
2	0xbb590ebc	-0.0033120355
3	0xbe27f878	-0.16403377
4	0x3e971723	0.2950984
5	0xbe1384a0	-0.14406061

features.3.weight f4 [16, 6, 5, 5]
0	0x3d7a37c8	0.061088353
1	0x3d884d3e	0.06655358
2	0x3d49c5bc	0.04926084
3	0xbd895f92	-0.06707682
4	0x3d19d38c	0.037555262
5	0x3d4f2a7c	0.050577626
6	0x3de65d6a	0.11248286
7	0x3b4c28a4	0.0031152153
8	0x3bee1e96	0.0072668297
9	0xbdabeadf	-0.083944075
10	0xbcd9d8f2	-0.026592705
11	0x3e368765	0.17825086
12	0x3dc107ef	0.09425341
13	0xbdc2585e	-0.09489511
14	0xbe05120d	-0.12995167
15	0x3cc190f2	0.023628686
16	0x3e218f04	0.15777212
17	0x3d17c01f	0.037048455
18	0xbded98e8	-0.1160143
19	0xbde5e552	-0.1122538
20	0x3c1d18bd	0.009588418
21	0x3e0aae38	0.13543022
22	0x3da8ce95	0.082425274
23	0xbe2a6b16	-0.16642413
24	0xbd6e66d0	-0.05820352
25	0x3d899d18	0.067194164
26	0x3d82b4e7	0.06382161
27	0xbac7b356	-0.0015235941
28	0x3ccab91d	0.024746472
29	0x3c179602	0.009252073
30	0x3d2c029f	0.041994687
31	0x3d3d1d01	0.04617024
32	0x3c6bc1fc	0.014389511
33	0xbcaaf204	-0.020867355
34	0xbd7548a8	-0.059883744
35	0xbc8976c0	-0.016780257
36	0x3de2e0d7	0.11078041
37	0x3dc46ecb	0.095914446
38	0xbd3a98cc	-0.045555875
39	0xbd7ee42a	-0.062229313
40	0x3d006463	0.031345736
41	0x3d5b3946	0.053521417
42	0x3ce4dc0e	0.027936962
43	0xbce0ca8a	-0.027440328
44	0xbdedc111	-0.1160909
45	0x3c9c2d29	0.019064503
46	0x3deffe49	0.11718423
47	0x3ca1cf87	0.019752277
48	0xbd6aad6a	-0.057294287
49	0xbdb44fd7	-0.08804291
50	0xbd85d36b	-0.065344654
51	0xbd902b12	-0.07039465
52	0xbb9012f2	-0.0043967897
53	0x3d0ed20d	0.03486829
54	0x3d2622a9	0.0405604
55	0x3c9ca5ba	0.019121993
56	0xbd70fdd8	-0.058835834
57	0xbc82cf2e	-0.015967932
58	0xbc29c81d	-0.010362652
59	0x3d64100f	0.055679377
60	0x3adb8c0e	0.0016750114
61	0x3c0940d2	0.008377271
62	0x3d81ea92	0.06343569
63	0xbd26e5ff	-0.040746685
64	0xbd9c66ca	-0.07636793
65	0x3d860bd5	0.065452255
66	0x3b8aded0	0.004237987
67	0x3b83fdfc	0.00402808
68	0xbdc9b015	-0.09848038
69	0x3d116a51	0.03550178
70	0x3d9f2dca	0.077724054
71	0x3d8934fd	0.0669956
72	0xbd4f0c39	-0.050548766
73	0xbdc8d764	-0.098067075
74	0xbda578c4	-0.08079675
75	0x3d73c0a9	0.059509907
76	0x3d1e595f	0.03865945
77	0x3d8e0e5d	0.06936333
78	0x3d303500	0.043019295
79	0x3ca2dbe9	0.019880252
80	0xbadcd01d	-0.001684669
81	0xbd7ecc3e	-0.0622065
82	0xbd8f20ed	-0.06988702
83	0xbd9de0da	-0.07708903
84	0x3d056590	0.03256756
85	0xbd288a86	-0.04114773
86	0xbc83ad7b	-0.016073933
87	0xbd4182d7	-0.04724392
88	0xbc7cd620	-0.015431911
89	0xbd6cd2d2	-0.05781824
90	0xbd5fdd15	-0.0546542
91	0x3ce43e74	0.027861811
92	0xbcc71b34	-0.024304964
93	0x3d4e05ed	0.05029862
94	0xbcd87430	-0.02642259
95	0xbd7bdb24	-0.061488286
96	0xbc67c421	-0.014145882
97	0xbd215bba	-0.039394118
98	0xbccc4125	-0.024933407
99	0xbd9eb507	-0.07749372
100	0x3d493927	0.04912677
101	0xbd5ac4bb	-0.053410273
102	0x3d493f12	0.049132414
103	0x3d3d201d	0.046173204
104	0x3d87006e	0.06591879
105	0xbd766169	-0.06015149
106	0x3d75eff5	0.060043294
107	0xbcf6ffe2	-0.030151311
108	0x3d2c01ff	0.04199409
109	0x3db0a31e	0.08624862
110	0xbbdc6536	-0.0067259325
111	0x3b1ae87e	0.0023637111
112	0xbc1b28f0	-0.0094702095
113	0xbd5f3525	-0.054494042
114	0x3d49b68a	0.04924635
115	0xbd9e5cf6	-0.07732575
116	0x3d5c3566	0.053761862
117	0x3d8ee645	0.06977514
118	0x3db9ee20	0.09078622
119	0xbc277987	-0.0102218455
120	0xbd8b4944	-0.06801084
121	0x3ca469a0	0.020069897
122	0x3d58a15d	0.052888263
123	0xbd8dab77	-0.0691747
124	0xbc2a051b	-0.010377194
125	0xbd457e32	-0.048216052
126	0xbbbaf12f	-0.005705021
127	0xbd22f76e	-0.03978675
128	0xbd0c3df9	-0.03423879
129	0xbcdd69d9	-0.027028011
130	0xbd9fc870	-0.07801902
131	0x3d882331	0.06647337
132	0x3d89569a	0.06705971
133	0xbc6b1693	-0.014348644
134	0xbc2818b0	-0.010259792
135	0xbd0b6e5b	-0.03404079
136	0xbd9a8323	-0.075445436
137	0xbda93f25	-0.08263997
138	0x3ce6cde8	0.028174356
139	0xbd3ac4c3	-0.045597803
140	0xbd5a0738	-0.05322954
141	0xbc03d016	-0.008045217
142	0xbcf24a69	-0.029576497
143	0xbce91f54	-0.028457321
144	0x3aa1bc2a	0.0012339402
145	0xbc9475c2	-0.018122558
146	0xbcf293f2	-0.029611561
147	0xbd25d27b	-0.040483933
148	0xbd898464	-0.06714705
149	0x3d8adece	0.06780778
150	0xbd986ce7	-0.074426465
151	0x3bfdd9c1	0.0077469056
152	0xbc07a43b	-0.008278902
153	0x3d3d8dc7	0.046277788
154	0x3e004ee4	0.12530094
155	0x3d2acfc7	0.04170206
156	0x3aa5d75e	0.0012652685
157	0x3e169bd7	0.14707886
158	0x3e358f97	0.17730556
159	0x3d9bfd28	0.07616645
160	0x3db2145a	0.08695288
161	0x3e18340d	0.14863606
162	0x3d8b6863	0.068070196
163	0x3d4079d8	0.0469912
164	0xbda7616c	-0.081728786
165	0xbce989fc	-0.028508179
166	0x3d117bd3	0.03551848
167	0xbbe3d1ba	-0.0069524916
168	0xbe08a2e0	-0.13343382
169	0xbe0b0f00	-0.13579941
170	0xbdc37621	-0.09544016
171	0xbe091ab2	-0.1338909
172	0xbe02767f	-0.12740515
173	0xbd954a5d	-0.07289574
174	0x3cdd8744	0.027042039
175	0x3b6a5470	0.0035755895
176	0xbd100586	-0.035161518
177	0xbc7a9b9f	-0.015295892
178	0x3db86ec8	0.09005505
179	0xbcd4b4f2	-0.025965188
180	0x3c3c61b7	0.011497906
181	0x3dc0e9c8	0.0941959
182	0x3ce580a5	0.028015444
183	0x3d05a81a	0.032631017
184	0x3a3cdd7f	0.00072046363
185	0xbc34159b	-0.010991479
186	0xbcfe9c0d	-0.03108027
187	0xbd986148	-0.0744043
188	0xbdc1eba5	-0.09468774
189	0xbda58d85	-0.08083633
190	0x3d6e8e22	0.058241017
191	0xbd94fa96	-0.07274358
192	0xbdceee77	-0.10104077
193	0xbcd0e8ae	-0.025501575
194	0xbbb1edf4	-0.0054299776
195	0x3d0201ed	0.031740118
196	0x3d4e0f95	0.05030783
197	0x3d118650	0.03552848
198	0xbdab878a	-0.083754614
199	0x3bfffdf2	0.007812255
200	0x3d18fc02	0.03734971
201	0xbca27091	-0.019829066
202	0xbd29125c	-0.041277274
203	0x3dbff19b	0.093722545
204	0xbc858722	-0.016299788
205	0xbd43bad3	-0.04778559
206	0xbd845d13	-0.06463065
207	0x3ce3a779	0.027789818
208	0x3d6e9eda	0.05825696
209	0x3cd0e2ea	0.025498826
210	0x3cc971a0	0.024590313
211	0xbd3f55b3	-0.04671259
212	0xbd8191c5	-0.063266315
213	0x3aac8102	0.0013161006
214	0x3d7bb575	0.061452348
215	0x3d3962ba	0.04526017
216	0xbd505dfd	-0.050870884
217	0xbcaedae1	-0.021344604
218	0xbd9cffaf	-0.07665955
219	0xbd4f7fec	-0.050659105
220	0x3b5e2025	0.0033893671
221	0x3d176e79	0.03697059
222	0x3d79fb41	0.06103063
223	0xbda18c14	-0.07888046
224	0x3d67c4b4	0.056584075
225	0xbd6b8437	-0.057499137
226	0x3cfc3806	0.030788433
227	0x3d8dd5b8	0.06925529
228	0x3a739cc6	0.00092930754
229	0x3d97ba6e	0.074086055
230	0xbd8dd8a5	-0.06926087
231	0xbcfba794	-0.030719556
232	0x3d434011	0.04766852
233	0xbc953b60	-0.018216789
234	0xbc8b3298	-0.016991898
235	0xbd0729db	-0.0329989
236	0x3d6b764a	0.057485856
237	0x3d24795f	0.04015481
238	0x3cd0976c	0.025462829
239	0xbd3db957	-0.046319332
240	0xbd8693c4	-0.06571153
241	0x3c0f77da	0.008756602
242	0x3cc07d4c	0.023497246
243	0xbd1d189f	-0.03835356
244	0xbcbddded	-0.023177112
245	0x3d5f1891	0.054466788
246	0x3bb4d1c3	0.0055181696
247	0x3b2d0b07	0.0026404278
248	0xbcabbb4c	-0.020963334
249	0xbd97ac60	-0.07405925
250	0xbd9d5b5b	-0.0768344
251	0xbd376fc3	-0.04478432
252	0xbd3e8244	-0.04651095
253	0x3cb06c28	0.021535948
254	0xbcd7a9c1	-0.026326062
255	0xbd11ffc6	-0.035644315

features.3.bias f4 [16]
0	0x3c86ad99	0.0164402
1	0x3cf42504	0.029802807
2	0x3d538831	0.051643554
3	0x3c2f090a	0.010683307
4	0xbb83ee52	-0.0040262127
5	0x3d937420	0.071998835
6	0x3d88ffb8	0.066893995
7	0x3bcd0510	0.006256707
8	0xbcdd58bf	-0.027019856
9	0x3caf40bf	0.021393178
10	0xbd0589fb	-0.03260229
11	0x3d8bbe11	0.06823362
12	0x3ca7a156	0.020462673
13	0x3b4505b9	0.0030063225
14	0x3d3db640	0.046316385
15	0x3d468cef	0.04847425

features.6.weight f4 [120, 16, 5, 5]
0	0xbc16eb06	-0.009211307
1	0x3cae7750	0.021297127
2	0x3b523fc6	0.003208147
3	0xbd57482b	-0.05255906
4	0xbb4c0503	-0.0031130917
5	0xbd583914	-0.05278881
6	0xbd4463c9	-0.047946725
7	0x3b80912a	0.003923555
8	0x3c67b2b8	0.014141731
9	0x3bea169e	0.0071438095
10	0x3d08badd	0.03338133
11	0xbd23f9b3	-0.040033054
12	0xbcaa51c8	-0.02079095
13	0xbc1ce54a	-0.009576151
14	0x3c1c76cd	0.009549809
15	0xbca4f553	-0.020136511
16	0x3c7354ba	0.014851743
17	0xbc950255	-0.018189589
18	0xbc8b3ae1	-0.01699585
19	0x3c3f346e	0.011670215
20	0x3d02c2e7	0.031924155
21	0xbb35a67f	-0.0027717648
22	0x3d1fb381	0.038989548
23	0x3c8bd78f	0.01707056
24	0x3d348da5	0.044080395
25	0x3d015db4	0.031583503
26	0x3d191366	0.037372015
27	0xbbc3ecc2	-0.0059791515
28	0xbd2bb5f0	-0.041921556
29	0xbcbc216d	-0.022965157
30	0x3ca8496b	0.02054282
31	0x3d1bdd5d	0.038052905
32	0xbcb4b0c5	-0.022056947
33	0x3d151449	0.0363963
34	0x3c5dc181	0.013534904
35	0x3b7ea594	0.0038856016
36	0x3b043d78	0.002017824
37	0xb8ac85ce	-8.226522e-05
38	0x3d775562	0.06038416
39	0x3c5b8975	0.0133994715
40	0x3d224aa4	0.039621964
41	0xbd07ac3d	-0.033123244
42	0xbc9e23aa	-0.019304115
43	0x3b213f92	0.0024604541
44	0x3cf4ff3c	0.029906861
45	0x3d1e307b	0.038620453
46	0x3cbb3204	0.022850998
47	0xbd31b94b	-0.0433896
48	0xbb4c3be0	-0.0031163618
49	0xbd2b60fb	-0.041840535
50	0xbd13717d	-0.035996903
51	0x3d085077	0.033279862
52	0x3b3d0d3f	0.0028847007
53	0x3d874e39	0.06606717
54	0xbc8d28f0	-0.017231435
55	0x3cbdfdb1	0.023192259
56	0x3d3ae1bd	0.045625437
57	0xbce3222e	-0.02772626
58	0x3c7f88c6	0.015596574
59	0xbc63488a	-0.013872275
60	0x3c382d0f	0.011241212
61	0x3d4c2b38	0.049845904
62	0x3c23215f	0.009956687
63	0xbbb75da5	-0.00559588
64	0x3cc4b15c	0.024010353
65	0x3cfb4c21	0.03067595
66	0x3ccb909e	0.024849232
67	0x3d7aac19	0.06119928
68	0xbc635fae	-0.013877792
69	0xbc284f9b	-0.010272886
70	0x3d87edd2	0.066371575
71	0x3d1919fe	0.037378304
72	0xbce1b73a	-0.02755319
73	0x3c0c524f	0.008564546
74	0xbd3e42a0	-0.046450257
75	0xbcc9bf88	-0.024627462
76	0x3d2bcc55	0.041942913
77	0xbbf60edf	-0.007509097
78	0xbccd5451	-0.02506462
79	0x3b977df1	0.0046231677
80	0x3c3b1aad	0.011419934
81	0xbc91894b	-0.017765662
82	0xbcf37c70	-0.029722422
83	0xbd491e57	-0.0491012
84	0x3c49f86f	0.012327298
85	0xbcc2abec	-0.02376362
86	0x3ccd5840	0.025066495
87	0xbbbd8989	-0.0057842177
88	0xbd0b664f	-0.034033116
89	0xbcb5216f	-0.022110669
90	0xbd08bf38	-0.033385485
91	0x3b9acba6	0.004723984
92	0x3cac2cab	0.021017393
93	0xbcf10bb4	-0.029424526
94	0xbd473d8c	-0.04864268
95	0x3d51216b	0.05105726
96	0x3c821854	0.015880741
97	0xbc85ba77	-0.016324265
98	0x3b8f97b0	0.004382096
99	0x3d1b3813	0.037895273
100	0xbd2d6107	-0.04232886
101	0xbd116946	-0.035500787
102	0xbd83a86e	-0.0642861
103	0xbcbb8e29	-0.022894936
104	0xbba2c9bc	-0.0049678963
105	0xbd235960	-0.039880157
106	0x3cd6a0e4	0.026199766
107	0xbd7f2a6b	-0.062296312
108	0x3d0c4d0f	0.034253176
109	0xbd27c464	-0.040958777
110	0xbc0d7537	-0.008633903
111	0x3b2dae78	0.0026501697
112	0xbd1a60cb	-0.037689965
113	0x3d31cfed	0.043411184
114	0xbd1b1d8a	-0.037869968
115	0xbc1739a3	-0.00923005
116	0xbd48d085	-0.049026985
117	0xb98a2a86	-0.00026353094
118	0x3d3046cf	0.04303628
119	0x3d4e5b0c	0.050379798
120	0x3c3d0b7a	0.011538381
121	0xbccf4ceb	-0.025305232
122	0x3d389751	0.04506618
123	0x3c52d160	0.012867302
124	0x3d3304db	0.043705802
125	0xbcdbfacd	-0.02685299
126	0xbccc0477	-0.024904473
127	0xbd2a78ee	-0.041619234
128	0x3d624709	0.055243526
129	0x3c77fdb5	0.015136172
130	0xbd29ca40	-0.041452646
131	0xbaf2b115	-0.0018515909
132	0xbc92764d	-0.017878676
133	0x3b941790	0.0045194104
134	0x3bc4f9f9	0.0060112444
135	0xbccfe0a2	-0.025375668
136	0x3bdbbb52	0.00670568
137	0xbcd8cfb4	-0.026466228
138	0x3ca09dfd	0.019606585
139	0xbd47e7eb	-0.04880516
140	0x3c4a2119	0.012336993
141	0x3d435521	0.047688607
142	0x3d5538be	0.052056067
143	0x3cda252b	0.026629051
144	0x3d3807f5	0.044929463
145	0x3d5f50d0	0.05452043
146	0x3c48cbe5	0.0122556435
147	0x3caa8a4f	0.020817904
148	0x3bd70120	0.0065614134
149	0x3d3e6f2a	0.046492733
150	0x3d45e7cc	0.04831676
151	0xbb292d4e	-0.0025814357
152	0x3c97887d	0.0184977
153	0xbc2f695e	-0.010706274
154	0x3d0e0e95	0.034681875
155	0xbd21a52c	-0.03946416
156	0x3cc4bc3c	0.024015538
157	0xbc1380c6	-0.00900287
158	0x3bff26c9	0.007786606
159	0x3c8fa55a	0.0175349
160	0xbcf9def0	-0.030501813
161	0x3d08f9e5	0.033441443
162	0x3d2d7ecd	0.042357255
163	0xbcec95db	-0.02888005
164	0x3d3feb25	0.04685511
165	0x3d85f1ee	0.06540285
166	0x3d3a708e	0.045517497
167	0x3b853359	0.004064959
168	0x3cc1c076	0.023651343
169	0xbcf2f1e4	-0.029656358
170	0x3b86e38b	0.0041164807
171	0x3ceb8465	0.028749654
172	0x3c7efceb	0.01556323
173	0x3c6694e3	0.014073583
174	0xbd57e854	-0.0527118
175	0x3d073860	0.033012748
176	0xbd0cb66d	-0.034353662
177	0x3d039ff0	0.03213495
178	0x3c42a631	0.011880443
179	0xbb174236	-0.0023080236
180	0x3d3ba45c	0.045811042
181	0x3d004d01	0.031323437
182	0x3d072b42	0.03300024
183	0xbcd92f7a	-0.026511896
184	0x3d483b4d	0.04888468
185	0x3c764102	0.0150301475
186	0x3c7520f3	0.014961469
187	0xbc836252	-0.016038094
188	0x3cf907e0	0.030399263
189	0x3d53a921	0.051674966
190	0xbd3fbd29	-0.046811257
191	0x3c4560c4	0.0120469965
192	0xbd58cb33	-0.05292816
193	0xbd03d2b1	-0.032183353
194	0xbd42e312	-0.047579832
195	0x3ccd7bbe	0.025083419
196	0xbd3d31ac	-0.04618995
197	0xbcdf736c	-0.027276717
198	0xbc779b8c	-0.015112769
199	0x3bdf6e44	0.0068185646
200	0xbd41739f	-0.047229405
201	0xbc9ea324	-0.0193649
202	0x3bb09f2a	0.0053900676
203	0x3c4b8710	0.012422338
204	0xbc8f0c04	-0.017461784
205	0x3c812b2e	0.01576766
206	0xbcf553cc	-0.029947184
207	0xbd3bcbf5	-0.045848805
208	0xbc0088a4	-0.007845078
209	0xbd043c4a	-0.03228406
210	0x3ce35011	0.02774814
211	0xbd0d33f4	-0.034473374
212	0x3b2349a7	0.0024915726
213	0x3cd2ef4c	0.025748871
214	0xbd59f345	-0.053210516
215	0x3d2bf682	0.041983135
216	0xbc72949e	-0.014805941
217	0xbbe7cdf3	-0.0070741116
218	0xbce8a249	-0.028397696
219	0xbc9b8a11	-0.018986734
220	0xbc3f3f5a	-0.011672819
221	0xbd1b6dd7	-0.03794655
222	0x3caf6b21	0.021413388
223	0xbb9085a1	-0.004410461
224	0x3d4034d2	0.046925373
225	0x3cfedd81	0.03111148
226	0x3d23f170	0.040025175
227	0x3c760034	0.015014697
228	0x3cbf4f91	0.02335337
229	0x3d2f6cdc	0.042828426
230	0x3d09be41	0.033628706
231	0xbd2cefbf	-0.042220827
232	0xbbc23058	-0.005926173
233	0xbd8cfded	-0.0688437
234	0xbc83cf22	-0.01608998
235	0xbccfd493	-0.025369918
236	0x3d225847	0.03963497
237	0x3c87f415	0.01659588
238	0x3a21e39d	0.00061755796
239	0xbd0e270f	-0.034705218
240	0xbd174f77	-0.036941018
241	0xbc3d64c7	-0.011559672
242	0xbcd86229	-0.026413994
243	0xbc924b34	-0.017858125
244	0x3d341400	0.043964386
245	0xbc98caf3	-0.018651461
246	0xbd235744	-0.039878145
247	0x3c6eebd2	0.014582591
248	0x3c61f7bb	0.013791974
249	0xbcd0fc1c	-0.02551084
250	0x3ac0f3a8	0.0014721053
251	0x3b15b8a1	0.0022845643
252	0xbd94e915	-0.07271019
253	0xbc8a4bfa	-0.016881932
254	0xbb30ce5e	-0.0026978473
255	0xbc8ccd09	-0.017187612

features.6.bias f4 [120]
0	0xbcbc8e57	-0.023017092
1	0x3c7242ae	0.0147864055
2	0xbc59cea3	-0.013293895
3	0x3cb5a2ed	0.022172416
4	0x3cbe0022	0.023193423
5	0x3cec46d5	0.02884237
6	0xbbbec2d3	-0.0058215647
7	0xbc9cacb4	-0.01912532
8	0x3c01942e	0.007908864
9	0xbc9e09c6	-0.01929177
10	0x3ca63452	0.02028862
11	0xbb2914ff	-0.0025799868
12	0xbb6e229e	-0.0036336551
13	0x3d5db16a	0.054124273
14	0xbd3fe9a1	-0.046853665
15	0x3cebd734	0.02878914
16	0x3c4b467c	0.0124069415
17	0xbcce5b36	-0.025189977
18	0x3d1785f4	0.036992982
19	0xbc24155c	-0.010014858
20	0xbd1c7c31	-0.038204376
21	0xbc1e8b79	-0.009676808
22	0x3c8f36a8	0.017482117
23	0xbd48ef76	-0.049056493
24	0x3b1eac71	0.002421167
25	0x3cbe285d	0.023212606
26	0xbd254a11	-0.04035384
27	0x3d1d1ffa	0.038360573
28	0x3c9464f5	0.018114546
29	0x3d3c7fd7	0.046020355
30	0x3d3fbec7	0.0468128
31	0xbb6b4e89	-0.0035904965
32	0xbc9ec4e6	-0.019380998
33	0xbd2dc049	-0.042419706
34	0xbb20f9b2	-0.0024562893
35	0x3c8869b7	0.016651971
36	0x3cd82d44	0.026388772
37	0x3ce00dd0	0.027350336
38	0x3ca55beb	0.020185431
39	0xbba3ba50	-0.0049965754
40	0x3c5182cc	0.012787532
41	0x3cdf93ae	0.027292099
42	0x3d142804	0.036170974
43	0x3d06ce5e	0.03291165
44	0xbce45429	-0.027872162
45	0xbcd8ca60	-0.026463687
46	0xbc595039	-0.0132637555
47	0x3bcba588	0.006214801
48	0xbd1bce7a	-0.03803871
49	0x3cddb995	0.027066031
50	0x3cc2bae2	0.023770753
51	0x3d5b5fde	0.053558223
52	0x3ce64e35	0.028113464
53	0x3d4499d4	0.047998264
54	0x3b5d0604	0.003372551
55	0x3a6ce4a7	0.00090367574
56	0x3babe4af	0.005245767
57	0x3c6b55a3	0.014363679
58	0x3c734727	0.014848507
59	0xba111a77	-0.00055352546
60	0xbc4ecc62	-0.012621971
61	0xbd28335f	-0.041064616
62	0xba4b512d	-0.00077559316
63	0x3cd69c26	0.026197504
64	0x3bc9ad2e	0.006154678
65	0xbd40ae9a	-0.047041513
66	0xbb9dd659	-0.004816812
67	0xbc99dedc	-0.018783025
68	0x3d0d121f	0.03444111
69	0x3cf409f0	0.029789895
70	0xbcc31e52	-0.023818169
71	0x3c9cf78e	0.019161012
72	0x3ccf2104	0.025284298
73	0xbd027f1b	-0.0318595
74	0xbc7e06be	-0.015504537
75	0x3ac6c016	0.0015163447
76	0x3cef7f7d	0.029235596
77	0xbccbf0be	-0.024895068
78	0x3c4cf105	0.012508635
79	0x3c840054	0.016113438
80	0xbd35f94c	-0.0444272
81	0xb9c79ac6	-0.00038071553
82	0x3c638eed	0.013889057
83	0x3d1041ac	0.03521888
84	0x3c60c9ca	0.013719985
85	0xbc26533b	-0.01015168
86	0xbca0af0e	-0.019614723
87	0x3c9b745b	0.018976381
88	0x3d1408b5	0.036141116
89	0xbbe45162	-0.0069677094
90	0x3d3b97fe	0.045799248
91	0x3c00a46b	0.0078517
92	0xbd292d01	-0.041302685
93	0x3bfc107a	0.007692394
94	0x3a1c75d0	0.0005968483
95	0xbc1e829c	-0.009674694
96	0x3c1cc248	0.009567805
97	0xbb7b1a0e	-0.003831509
98	0xbcc51f0a	-0.024062652
99	0x3ce2420f	0.02761939
100	0x3d076379	0.03305385
101	0xbccec009	-0.025238054
102	0x3bdcec18	0.0067420118
103	0x3caea4fa	0.021318901
104	0xbc2a1620	-0.010381252
105	0x3c742a2f	0.0149026355
106	0xbc590127	-0.013244904
107	0xbb868eee	-0.004106394
108	0xbd1c9aaf	-0.038233455
109	0x3d38ddda	0.04513345
110	0x3d325ba5	0.04354443
111	0x3ce1e939	0.02757703
112	0xbc821309	-0.015878217
113	0xbc83be18	-0.016081855
114	0x3c267baa	0.01016132
115	0x3d067f12	0.032836027
116	0xbc5a6b8a	-0.013331303
117	0xbc693d93	-0.014235872
118	0xbd0ed59c	-0.034871683
119	0xbd067c9f	-0.03283369

classifier.0.weight f4 [84, 120]
0	0x3b8d485f	0.004311606
1	0xbba2debe	-0.0049704006
2	0xbc07c9dd	-0.008287874
3	0x3d95b0fd	0.073091485
4	0x3cf47edc	0.029845648
5	0xbd8ea3a8	-0.06964809
6	0xbd8bb48c	-0.06821546
7	0x3c98cf58	0.018653557
8	0x3d65b489	0.056080375
9	0xbdac81bc	-0.08423182
10	0x3d0752ea	0.033038057
11	0xbd26e00b	-0.040741008
12	0x3d0687f6	0.032844506
13	0xbd43b3ad	-0.047778774
14	0x3d9d5815	0.07682816
15	0x3dab039b	0.08350297
16	0xbd8781ac	-0.0661653
17	0xbda59255	-0.08084551
18	0x3cb207ff	0.021732328
19	0x3d93946a	0.07206042
20	0x3d155dac	0.036466286
21	0xbd40c79a	-0.047065355
22	0x3d9bd94c	0.076098055
23	0xbdb9094e	-0.09034978
24	0x3d9b27b5	0.07575933
25	0xbd1a986c	-0.037743017
26	0xbc0ed665	-0.008718108
27	0x38278da7	3.9947827e-05
28	0xbce36a02	-0.02776051
29	0xbcaefea5	-0.021361658
30	0x3ca24deb	0.019812545
31	0x3c90164d	0.017588759
32	0x3c2d3dba	0.010573799
33	0x3db50e28	0.08840591
34	0xbc147466	-0.009060955
35	0xbd67338c	-0.056445643
36	0xbda4b0a2	-0.080415025
37	0x3d88de7d	0.06683061
38	0xbd87472a	-0.0660537
39	0x3d3ca698	0.046057314
40	0xbd59f231	-0.053209487
41	0xbd7a8802	-0.061164863
42	0x3c64891a	0.013948703
43	0x3d8e0fb1	0.06936587
44	0xbda85aa4	-0.08220413
45	0x3d6f629c	0.05844365
46	0xbdba09b3	-0.09083881
47	0xbc9add53	-0.018904364
48	0xbd068780	-0.032844067
49	0xbd8d63ec	-0.06903824
50	0xbd926fef	-0.07150256
51	0xbd268584	-0.040654674
52	0xbd9b5948	-0.075853884
53	0xba85a403	-0.0010195974
54	0xbd820e53	-0.063503884
55	0xbd46e3f9	-0.048557255
56	0xbd3a8272	-0.04553456
57	0x3ccb5bc3	0.024824029
58	0xbcd48db8	-0.025946483
59	0x3d581448	0.052753717
60	0x3d4da63a	0.050207354
61	0xbd8cda87	-0.06877618
62	0xbc7de590	-0.0154966265
63	0xbdba636d	-0.09100995
64	0x3d291531	0.041279975
65	0xbca2f3b0	-0.01989159
66	0x3cbf0473	0.023317551
67	0x3cf4534e	0.029824879
68	0x3da5bfae	0.080932006
69	0xbc19a8c9	-0.00937862
70	0xbce4b93d	-0.02792036
71	0x3dad61ad	0.08465896
72	0xbc250153	-0.0100711165
73	0x3c770f85	0.015079384
74	0x3c048dfa	0.0080904905
75	0xbd44ee9f	-0.04807913
76	0x3d4f0968	0.05054608
77	0xbd9cdbaf	-0.07659089
78	0x3d3178a6	0.04332795
79	0x3d3615b4	0.04445429
80	0x3d719acc	0.058985516
81	0xbd898f8d	-0.06716833
82	0x3d8344b6	0.0640959
83	0x3da41731	0.08012236
84	0xbb1f6cc2	-0.00243263
85	0xbdb14e1b	-0.086574756
86	0xbbe24515	-0.006905208
87	0xbaf27b67	-0.0018499912
88	0xbda52dc0	-0.08065367
89	0xbbc31f23	-0.0059546395
90	0xbd02d7de	-0.03194415
91	0xbda97c2c	-0.08275637
92	0x3d72e2a8	0.059298187
93	0x3cb1aad7	0.021687908
94	0xbd22033b	-0.039553862
95	0x3da9b03f	0.082855694
96	0x3ad9ac40	0.0016607121
97	0x3b930bf2	0.004487508
98	0x3c36c2ad	0.011154813
99	0xbd9a7672	-0.07542123
100	0xbd272898	-0.040810198
101	0x3c37d0be	0.011219202
102	0xbd0a40dc	-0.03375326
103	0x3d37b11d	0.044846643
104	0xba9d531d	-0.0012002919
105	0x3c96ae56	0.018393677
106	0x3dac2d20	0.084070444
107	0xbd20662d	-0.039159942
108	0xbc49dbf5	-0.012320508
109	0xbd6635d4	-0.05620368
110	0xbdaa3f0f	-0.08312809
111	0x3caaaf69	0.020835595
112	0x3d85fdb7	0.06542533
113	0x3cfd3019	0.030906724
114	0xbd93c1cd	-0.07214699
115	0x3d60bbec	0.054866716
116	0xbdb1faa2	-0.086903825
117	0xbd84185e	-0.0644996
118	0x3da4b71d	0.080427386
119	0xbd2e2820	-0.042518735
120	0xbd406bc5	-0.046977777
121	0xbdcb3357	-0.09921902
122	0xbd333363	-0.043750178
123	0x3d1c9e32	0.038236804
124	0xbd4515da	-0.048116542
125	0xbdff50e8	-0.124666035
126	0x3ca95aa1	0.020673098
127	0x3d7e2503	0.062047016
128	0xbb2d5da5	-0.0026453522
129	0x3a86452d	0.0010244005
130	0xbdfb05a7	-0.122569375
131	0xbcd25bfb	-0.025678625
132	0xbd835ec1	-0.06414557
133	0xbd01904e	-0.03163176
134	0xbd7f78a6	-0.06237092
135	0xbd84053a	-0.064463094
136	0xbd5f82f3	-0.054568242
137	0xbdd747df	-0.10511755
138	0x3dfcab29	0.12337334
139	0x3d8ba546	0.06818633
140	0x3c2998ff	0.0103514185
141	0x3d6f598d	0.05843501
142	0xbd036742	-0.032080896
143	0x3c8eb667	0.01742096
144	0xbde5829b	-0.11206552
145	0x3da3576d	0.079756595
146	0x3de3959a	0.111125186
147	0xbd88507f	-0.066559784
148	0x3e226aca	0.1586105
149	0xbd888b72	-0.06667222
150	0xbd1dc8c2	-0.038521536
151	0xbd82c4fe	-0.063852295
152	0xbd5468cd	-0.05185776
153	0xbd7a1fa1	-0.06106532
154	0x3dc457de	0.09587072
155	0xbc91e71a	-0.017810393
156	0xbd981593	-0.0742599
157	0x3c0cea11	0.008600728
158	0xbd699e58	-0.057035774
159	0xbd6b2388	-0.057406932
160	0xbd508ef1	-0.05091757
161	0xbd400b90	-0.046886027
162	0xbd93db60	-0.07219577
163	0x3d0d26e2	0.03446091
164	0xbd04c7f8	-0.032417268
165	0xbc412f3b	-0.011791046
166	0x3d9ecd35	0.07753984
167	0xbb968b42	-0.0045942375
168	0x3e036e37	0.12835012
169	0x3dcb10b5	0.09915296
170	0xbbcef81f	-0.0063161994
171	0x3da4dc62	0.08049847
172	0x3da94d0e	0.0826665
173	0xbd56e5a7	-0.052465107
174	0xbdb25339	-0.0870728
175	0x3e0f1925	0.13974436
176	0x3d3d9911	0.046288554
177	0x3d52a8b9	0.051430438
178	0x3ccbbec0	0.02487123
179	0xbdef65c6	-0.116893336
180	0x3dd620ff	0.10455512
181	0xbd3d03f3	-0.046146344
182	0x3b73c084	0.0037193606
183	0x3da79920	0.08183503
184	0x3d7c69a4	0.061624184
185	0x3a4df11c	0.00078560575
186	0xbd439fbb	-0.047759753
187	0xbda87690	-0.08225739
188	0x3d1d6e55	0.0384353
189	0x3d7b9808	0.061424285
190	0xbd8d23e4	-0.06891611
191	0xbdcd85a5	-0.10035256
192	0x3de48549	0.111582346
193	0xbdcac680	-0.09901142
194	0x3df8cf3c	0.12148902
195	0x3d0779f1	0.033075277
196	0x3de17474	0.1100854
197	0x3ca4628c	0.020066522
198	0x3d018c0b	0.031627696
199	0xbdaf39e8	-0.085559666
200	0xbc74f55f	-0.014951079
201	0x3dc5664f	0.096386544
202	0xbd157391	-0.036487166
203	0x3dad7ecc	0.0847145
204	0xbbd7b934	-0.006583357
205	0xbd72f2a6	-0.05931344
206	0xbd249ea7	-0.040190365
207	0xbdb5a708	-0.08869749
208	0x3d18c586	0.037297748
209	0xbd8b6a15	-0.06807343
210	0x3d8328bd	0.064042546
211	0xbcd46adb	-0.025929859
212	0x3d448057	0.047973957
213	0x3df7db00	0.12102318
214	0xbd970a21	-0.07374979
215	0xbd57e90f	-0.052712496
216	0x3d7a734e	0.06114512
217	0xbd257174	-0.0403914
218	0xbd906ab5	-0.07051603
219	0xbd58adf6	-0.052900277
220	0xbe082bf1	-0.13298012
221	0xbd77679c	-0.060401544
222	0x36b7c000	5.4761767e-06
223	0x3d9d4064	0.07678297
224	0x3d09e7dc	0.033668384
225	0x3c9a2381	0.018815758
226	0x3ab953bc	0.0014139335
227	0xbd612a65	-0.05497207
228	0x3d272c05	0.040813465
229	0x3daca7f0	0.08430469
230	0xbcf555e1	-0.029948177
231	0x3d9bc299	0.07605476
232	0x3e0dd702	0.1385155
233	0x3b8655f4	0.004099602
234	0xbe213f21	-0.15746738
235	0x3e047dc1	0.12938596
236	0x3d20e78b	0.039283317
237	0xbcdcae8c	-0.0269387
238	0x3c6ddf4a	0.014518568
239	0x3c627dd8	0.013823949
240	0xbd615c53	-0.055019688
241	0x3d9f27f1	0.0777129
242	0xbd8e15ac	-0.06937727
243	0x3bef45bf	0.0073020156
244	0xbdb81be4	-0.08989695
245	0x3d1262ca	0.035738744
246	0xbd6fcfef	-0.05854791
247	0xbb218a06	-0.0024648919
248	0x3d92f1e5	0.07175044
249	0x3c835032	0.016029451
250	0xbbfe1d3f	-0.0077549512
251	0x3d153c40	0.036434412
252	0x3d14d378	0.036334485
253	0x3d57dbe8	0.052699953
254	0x3cba33c7	0.022729767
255	0x3d52761d	0.051382173

classifier.0.bias f4 [84]
0	0xbdbbcb90	-0.09169686
1	0x3d8b74a0	0.06809354
2	0x3da1d560	0.07902026
3	0x3d141f5a	0.03616271
4	0x3c2a6098	0.010399006
5	0x3b7aaa90	0.0038248636
6	0x3be641c9	0.007026885
7	0x3d9752ae	0.07388817
8	0x3d2373dc	0.039905414
9	0xbd42600b	-0.047454875
10	0x3d431942	0.04763151
11	0xbc8ef59a	-0.017451096
12	0x3db948ec	0.09047112
13	0xbd2707ec	-0.04077904
14	0x3d5db557	0.054128017
15	0x3cccbc0c	0.024992011
16	0x3c8eca06	0.017430317
17	0x3cc0359c	0.023463063
18	0x3d6b43e9	0.05743781
19	0x3dce6b69	0.100790806
20	0x3de35bf5	0.11101524
21	0xbc6bf044	-0.0144005455
22	0x3d8e394d	0.06944523
23	0x3da16c16	0.07881944
24	0x3dbc10a3	0.09182861
25	0x3d7dbd46	0.061948083
26	0xbd93efbb	-0.07223459
27	0xbdd9145e	-0.10599588
28	0xbda6274f	-0.08112966
29	0xbd76aec8	-0.06022528
30	0xbdabd80f	-0.08390819
31	0x3c8c43d3	0.017122185
32	0x3dc1fdaf	0.094722144
33	0xbcea99af	-0.028637735
34	0x3cd92804	0.026508339
35	0x3cb9b5a1	0.022669615
36	0x3c80fe14	0.015746154
37	0x3c282aca	0.010264108
38	0x3d6937b9	0.056937907
39	0x3a4cb1cc	0.0007808476
40	0x3d127b84	0.035762325
41	0x3d7d57cf	0.06185132
42	0xbdb3d8ad	-0.08781562
43	0xbdb2909f	-0.087189905
44	0x3d4ccb66	0.049998663
45	0xbdb207f6	-0.08692925
46	0x3cb07b58	0.02154319
47	0x3d74f977	0.05980822
48	0xbd9452fb	-0.0724239
49	0x3d98a190	0.074526906
50	0xbd836d34	-0.06417313
51	0xbd816fc6	-0.06320147
52	0x3d49e2d6	0.049288593
53	0x3d8418ee	0.064500675
54	0xbc49db37	-0.012320331
55	0xbca58318	-0.020204112
56	0x3c5ec11f	0.013595848
57	0xbd8e8435	-0.0695881
58	0xbd9538a1	-0.07286192
59	0xbd2d11c3	-0.042253267
60	0xbca6e583	-0.020373112
61	0xbd24334a	-0.040087976
62	0x3de79a45	0.113087215
63	0x3d2bbd0e	0.041928343
64	0x3bbb1b38	0.005710032
65	0x3db454ff	0.08805274
66	0xbd43cc64	-0.047802344
67	0x3d3a44b7	0.045475688
68	0xbd609ed6	-0.054838978
69	0xbdba165d	-0.09086297
70	0x3cd6a97b	0.026203861
71	0x3cf140b5	0.0294498
72	0xbd0bd266	-0.0341362
73	0x3d2f2f60	0.04276979
74	0x3d220884	0.039558902
75	0x3d88443a	0.06653638
76	0x39c84736	0.0003820003
77	0xbda9a193	-0.08282771
78	0xbdba5d0d	-0.09099779
79	0xbbb53039	-0.00552943
80	0x3d038080	0.03210497
81	0xbd505c1f	-0.050869104
82	0x3ca8eda9	0.020621138
83	0xbd14c0c1	-0.036316637

classifier.2.weight f4 [10, 84]
0	0xbca8a51a	-0.020586539
1	0x3dbbe15b	0.091738425
2	0xbc628d1b	-0.0138275875
3	0xbdaa068b	-0.08302029
4	0x3c929c34	0.01789675
5	0xbe657059	-0.22406138
6	0x3e3218d6	0.17392287
7	0xbe0892ee	-0.13337299
8	0x3e3f1833	0.18661575
9	0xbbb4377e	-0.0054997792
10	0xbdd25d0f	-0.10271656
11	0x3e029b61	0.12754585
12	0xbdf6e72d	-0.12055812
13	0xbda72738	-0.08161777
14	0xbdcb2657	-0.09919422
15	0xbd8dba02	-0.06920244
16	0x3e0f5e48	0.14000809
17	0xbda7d8b0	-0.08195627
18	0x3d496b94	0.04917486
19	0x3d31c2ad	0.043398548
20	0xbe025069	-0.12725987
21	0xbd9d9a41	-0.07695437
22	0x3df0690f	0.11738788
23	0xbe753305	-0.23945244
24	0x3accb6a0	0.0015618391
25	0x3da7e9c3	0.081988834
26	0xbdb57f4c	-0.088621706
27	0x3e1d1803	0.15341191
28	0x3ccbaad9	0.02486174
29	0xbe394d31	-0.18095852
30	0xba20c115	-0.0006132287
31	0xbbc57d6f	-0.0060269157
32	0x3e1ad3f3	0.15119915
33	0xbdb2dfcc	-0.08734092
34	0x3da72842	0.081619754
35	0x3cc66bbc	0.024221294
36	0x3e0188d3	0.1264985
37	0xbd054d5f	-0.03254449
38	0x3dc32dcb	0.09530219
39	0xbdaba6f5	-0.08381454
40	0xbd868032	-0.0656742
41	0x3e15578d	0.14584179
42	0xbd52ca8d	-0.0514627
43	0x3e226793	0.15859823
44	0xbe0205bb	-0.12697499
45	0x3d3fd53d	0.04683422
46	0x3ddf6b17	0.10909098
47	0xbe007af0	-0.12546897
48	0x3d78f59a	0.0607811
49	0xbdbf8c12	-0.09352888
50	0xbd6365a6	-0.05551686
51	0xbd2e2073	-0.042511415
52	0xbcc22b87	-0.023702396
53	0x3ca59279	0.020211445
54	0x3cda9a71	0.026684972
55	0x3d59f89b	0.053215604
56	0xbdf26d3d	-0.11837242
57	0x3dbff7d1	0.09373439
58	0xbde0382a	-0.109482124
59	0x3d85e842	0.0653844
60	0x3d867f02	0.065671936
61	0xbcf82efe	-0.030295845
62	0xbd831f85	-0.06402496
63	0x3cc76617	0.024340672
64	0x3cf0703c	0.029350393
65	0xbd05795c	-0.03258644
66	0x3d203397	0.0391117
67	0x3d64ed57	0.055890407
68	0xbdd6258c	-0.1045638
69	0x3cbb8d63	0.022894567
70	0x3c12ceeb	0.008960466
71	0x3d7db1a5	0.061936993
72	0x3db2987d	0.08720491
73	0x3c2dda60	0.010611147
74	0xbdfb3ada	-0.122670844
75	0xbe6d8f82	-0.23199275
76	0x3d953c8e	0.072869405
77	0x3c1082a6	0.0088202115
78	0x3ce04dfe	0.02738094
79	0xbdd48560	-0.10377002
80	0x3c577be0	0.013152093
81	0xbd5fbab8	-0.05462143
82	0xbe297c02	-0.16551211
83	0xbcca3b56	-0.024686497
84	0x3ccc1805	0.024913797
85	0xbe6ca6fc	-0.23110574
86	0x3e28a8e2	0.16470674
87	0x3dde859f	0.1086533
88	0x3d9cf94d	0.07664738
89	0xbd8f73c5	-0.07004503
90	0x3b5ae074	0.0033397945
91	0x3d0446c6	0.032294057
92	0xbd987c41	-0.074455746
93	0xbdbf6442	-0.093452945
94	0xbd1c4136	-0.038148127
95	0x3dee20e8	0.1162737
96	0x3e53831f	0.20655487
97	0x3dc1015d	0.09424088
98	0xbc99baf1	-0.018765898
99	0xbd5cc478	-0.053898305
100	0x3d48a824	0.048988476
101	0xbccf78b8	-0.025326118
102	0x3e232ffa	0.1593627
103	0x3b297605	0.0025857699
104	0x3d837e52	0.06420578
105	0x3dba3c63	0.09093549
106	0xbd5659c8	-0.052331716
107	0xbdcf5652	-0.10123886
108	0x3d5145f7	0.051092114
109	0xbbf675ee	-0.0075213825
110	0xbd20a6ba	-0.039221503
111	0x3dd6beed	0.10485635
112	0x3e0a4145	0.13501461
113	0x3e0f75a4	0.1400972
114	0x3b66e2a1	0.0035230296
115	0xbd8f235f	-0.069891684
116	0xbcd17c7f	-0.02557206
117	0x3d11522b	0.035478752
118	0xbdcbcffe	-0.09951781
119	0xbd888696	-0.06666295
120	0xbdb49ac8	-0.08818585
121	0xbe101f11	-0.14074351
122	0xbd0ffbf3	-0.035152387
123	0xbd8cddc7	-0.06878238
124	0x3d4fdcaf	0.05074757
125	0x3d2deb77	0.042460885
126	0xbc288e5d	-0.010287848
127	0x3cda01cf	0.02661219
128	0x3de15c22	0.11003901
129	0xbdc9ab23	-0.09847095
130	0x3d04e30e	0.0324431
131	0x3dc1f7c5	0.094710864
132	0x3e0edbee	0.13951084
133	0x3e6982f3	0.2280386
134	0xbd3a6550	-0.045506775
135	0xbd938472	-0.07202996
136	0x3db60378	0.0888738
137	0xbe3fbf2d	-0.18725272
138	0xbdf2e889	-0.11860759
139	0x3cfaecaf	0.030630438
140	0x3d23e932	0.040017314
141	0x3b81cc2f	0.003961108
142	0xbd2ecd87	-0.042676475
143	0x3d3d250e	0.046177916
144	0xbdd2c596	-0.10291593
145	0x3da50b02	0.0805874
146	0x3d8bc9c1	0.06825591
147	0xbe50fbfa	-0.20408621
148	0xbe0e3f3c	-0.1389131
149	0xbe3adb8f	-0.18247817
150	0xbdb37ee6	-0.08764438
151	0xbd5eda15	-0.054407198
152	0xbcc552f1	-0.024087401
153	0x3c9b8eae	0.018988933
154	0xbe1cec35	-0.15324481
155	0x3d874ac8	0.0660606
156	0xbc9a6cf1	-0.018850775
157	0x3db58697	0.088635616
158	0x3e635b15	0.22202714
159	0x3d9edf1b	0.07757398
160	0x3d81d01c	0.06338522
161	0xbbfb70b8	-0.007673349
162	0x3d95a2c3	0.07306435
163	0x3e566134	0.20935518
164	0x3d73cb6f	0.05952018
165	0x3e4c7bf4	0.1996916
166	0xbdc54051	-0.09631408
167	0x3da1a0fd	0.07892034
168	0xbd652656	-0.055944763
169	0xbe6c88c5	-0.23099048
170	0x3e17a94e	0.14810678
171	0xbd19c146	-0.037537836
172	0xbd0b0b54	-0.03394635
173	0x3b89358e	0.0041872924
174	0x3d38aea9	0.045088444
175	0x3e05e74a	0.13076511
176	0x3e945660	0.2897215
177	0xbd500c24	-0.05079283
178	0xbe6a85e9	-0.22902645
179	0xbb8406f7	-0.0040291506
180	0x3da24be2	0.0792463
181	0x3ca09d5c	0.019606285
182	0x39654c0e	0.00021867474
183	0x3d96e685	0.07368187
184	0x3ac89fb7	0.0015306388
185	0x3c377657	0.011197648
186	0x3dcf11b4	0.101107985
187	0x3e05f5d2	0.13082054
188	0x3e194f12	0.14971569
189	0x3ddb7151	0.10714973
190	0xbd521a5b	-0.051294666
191	0x3cd178c9	0.02557029
192	0x3cd576c0	0.026057601
193	0xbe29736f	-0.1654794
194	0x3df55692	0.119794026
195	0x3b1e3e4c	0.0024146019
196	0xbd5f7921	-0.054558877
197	0x3d363497	0.044483747
198	0xbd13f110	-0.036118567
199	0xbdb2ecf8	-0.087366045
200	0xbd9f14d0	-0.077676415
201	0x3c44dc61	0.012015433
202	0x3e587877	0.21139704
203	0x3d53b1f5	0.051683385
204	0x3d00dd52	0.031461067
205	0x3e2f1020	0.17095995
206	0xbe134d6f	-0.14385007
207	0x3e57b43c	0.21064848
208	0x3d18709f	0.03721678
209	0x3e163e3e	0.14672181
210	0xbd3868e6	-0.045021914
211	0xbd6bcccc	-0.057568356
212	0x3bef9343	0.007311256
213	0xbe201f6e	-0.1563699
214	0xbd632e70	-0.055464208
215	0xbdac0a9b	-0.0840046
216	0xbe233c6b	-0.15941016
217	0x3d9415fa	0.07230754
218	0x3d7f0b7e	0.06226682
219	0xbc2134fa	-0.009839291
220	0xbd882c65	-0.066490926
221	0xbe2ae2ae	-0.16688034
222	0xbd90e863	-0.07075574
223	0x3dc9fb14	0.098623425
224	0xbd61a2de	-0.055086963
225	0xbdfcff20	-0.12353349
226	0xbb99b093	-0.0046902387
227	0x3caa5c2b	0.020795902
228	0x3cea3310	0.028588802
229	0x3da89fb8	0.08233589
230	0xbdc41724	-0.09574726
231	0xbddc7832	-0.10765113
232	0xbe00c97a	-0.12576857
233	0x3e53546e	0.20637676
234	0x3d90d6e3	0.070722364
235	0x3cdc636e	0.02690288
236	0x3df87266	0.12131195
237	0x3d8c4870	0.06849754
238	0xbdc3d676	-0.095623896
239	0xbdb3d597	-0.087809734
240	0x3b990cf4	0.0046707336
241	0xbd86c723	-0.06580951
242	0xbe031695	-0.12801583
243	0xbd422c10	-0.047405303
244	0xbcd9bc66	-0.026579093
245	0xbd136682	-0.03598643
246	0xbdac8dc1	-0.08425475
247	0xbe02a14b	-0.12756841
248	0xbe03b500	-0.12862015
249	0xbaeeb840	-0.001821287
250	0x3de7f45a	0.11325903
251	0x3c4a6a08	0.012354381
252	0x3d8a3f1f	0.06750321
253	0xbdafe926	-0.085893914
254	0xbdc9450e	-0.09827624
255	0x3db138b8	0.08653396

classifier.2.bias f4 [10]
0	0x3d06202a	0.032745518
1	0x3cc90adf	0.024541317
2	0xbd925468	-0.071450055
3	0x3baac529	0.0052114916
4	0x3cb1c79e	0.02170163
5	0x3c9cfe9c	0.019164376
6	0xbdd5e4f5	-0.10444061
7	0x3d1395ae	0.036031418
8	0xbd82da1e	-0.06389259
9	0x3d476449	0.048679624
