models/Experiment_2/model.pth (torch_old, 248658 bytes, 10 tensors)

features.0.weight f4 [6, 1, 5, 5]
00000000: 4dec b33e 34ca 0f3f 1b6e dd3e 3989 0d3f
00000010: 3625 f93d a3ac e43e 917f 373f 01e5 873f
00000020: 67eb 5b3f d1c1 1d3e ed55 283f b028 683f
00000030: 9447 893f c738 2c3f 64fe bf3e 1ba0 4b3e
00000040: 1d82 1d3f 2be0 083f a91e 7e3e 4c6c 343e
00000050: 898d 7abe cb89 75bd e89f 63bd 1063 db3d
00000060: 2bde 77be cfd6 bfbd a6a9 87bd 0bbc 8abd
00000070: 95da a73d 69bf 29be 9fd8 573e 284f 7abd
00000080: 1197 b63e 4188 713e 7b17 213d b8a6 933e
00000090: ab67 c03e 5cfb 233f e55b eb3e d932 313e
000000a0: be68 a53e dcca df3e 2513 2e3f 309b 2c3f
000000b0: db99 c73e e6f7 a53d de21 dc3e 4c7d c73e
000000c0: a37d c23e a48e ce3c ffeb 89be 6976 d5ba
000000d0: ba31 2b3d 15df b53e f3cf 1e3e 536e cc3d
000000e0: 3fb1 873e 9cbf 883e f8f9 973e 4ab1 3fbe
000000f0: f539 213e 3730 233e 081b aa3e b207 04bd
00000100: 8bc1 03be 0097 293e 6b9f e43e 5ec9 583d
00000110: e82d 3abe e556 adbe 3a7e c53e fdd5 963e
00000120: a939 913e 28ae 80be 96f8 b6be 1623 21be
00000130: b07a 0dbe bdb8 8f3d 4706 563d 66d4 143e
00000140: 5831 d3bd 29f2 0ebe b564 c83d b79c c1bd
00000150: fdc0 d03d 0bc6 3fbd cb96 de3d 456a 2abe
00000160: 9ba8 e5bd abac 423d 5cf4 263d 9052 7abd
00000170: a086 d63d c546 003e 0bda 1abe c81b e4bd
00000180: c55d 2e3e 2f10 a5bd cc1c a0bd 04f2 47be
00000190: 6127 c9bd a6eb 063d 2e66 89bd ce45 36be
000001a0: 6526 bcbc 30c4 d8bd 0242 2dbe 4c3b 04be
000001b0: 665a 43be d637 17be 1cfe 683e 7578 2d3d
000001c0: 99d9 473d c8b8 4ebe 1598 1fbe 1715 0cbd
000001d0: 8e13 283d b083 39be cb8e cbbd b423 18be
000001e0: 5580 1d3d 28cb 8bbd 17e5 15bd cc39 2dbe
000001f0: 5a37 38be 6dd4 08be f339 9abd 3c1a 25be
00000200: b7eb 263e b0d7 1bbd 9dff 233e 3324 723d
00000210: 3804 32be 40f0 023e 819e 74bd 0847 aebd
00000220: da73 2bbe 60ac 53be 35ca 2a3d fb20 59bd
00000230: f390 893d 5a47 2dbe 062c 0e3e b068 22be
00000240: 659e 1dbd 1aaa 253d e251 e23d 8fd4 2e3e
00000250: 44b8 473e 5feb 11be
0.3514122 0.5616791 0.43248066 0.5528751 0.121653005 0.4466296 0.71679026 1.0616761
0.8590607 0.15405966 0.6575611 0.90687084 1.0724969 0.67274135 0.37498772 0.19885294
0.6152666 0.53467053 0.24816383 0.17619437 -0.24468054 -0.059945863 -0.05557242 0.10712254
-0.24205844 -0.09367143 -0.06624155 -0.067741476 0.08195988 -0.16576923 0.21078728 -0.061110646
0.3566213 0.23587133 0.039329033 0.28838134 0.37579092 0.6405542 0.45968547 0.17304553
0.32306474 0.43709457 0.6799796 0.674243 0.3898457 0.081039235 0.4299459 0.3896278
0.37986478 0.0252145 -0.26937863 -0.0016285899 0.04179547 0.3552176 0.15509014 0.0998198
0.26502416 0.26708686 0.296829 -0.18719974 0.15744765 0.15936361 0.33223748 -0.0322339
-0.128668 0.16561508 0.44652876 0.052926414 -0.18181574 -0.33855358 0.38572866 0.29460135
0.28364304 -0.2513287 -0.3573653 -0.1573604 -0.13816333 0.07017658 0.05225208 0.14534149
-0.10312146 -0.13959564 0.09784833 -0.09453719 0.101930596 -0.046819728 0.10868605 -0.16642101
-0.112137996 0.04752795 0.040760383 -0.061113894 0.104748964 0.12526996 -0.1512224 -0.11138111
0.17027958 -0.080597274 -0.078179926 -0.19525915 -0.09821964 0.032939576 -0.06708942 -0.17800066
-0.022967527 -0.10584295 -0.16919711 -0.12913245 -0.19077453 -0.14767393 0.22753185 0.042351205
0.0487915 -0.20187676 -0.15585358 -0.0341998 0.041034274 -0.18116641 -0.09939345 -0.1485737
0.038452465 -0.06825858 -0.03659543 -0.16916579 -0.17989865 -0.13362284 -0.07530584 -0.16123289
0.16300856 -0.038047493 0.16015477 0.059116554 -0.17384422 0.1278696 -0.059721474 -0.08509642
-0.16743413 -0.20671225 0.041696746 -0.05300997 0.067171 -0.1692175 0.13883981 -0.15860248
-0.038481135 0.040445425 0.11050774 0.17073272 0.19503886 -0.14249943

features.0.bias f4 [6]
00000000: bebf e938 5a15 813a c28c bdbd cab3 32be
00000010: beef ea3e 4289 0bbe
0.000111460206 0.0009848282 -0.09255363 -0.17451397 0.45886034 -0.13626578

features.3.weight f4 [16, 6, 5, 5]
00000000: 2f98 70bd abf1 8a3c bfd7 df3b f70a f8bd
00000010: c62c 003d 6c1c db3c 50ca 2b3e 055b b1bc
00000020: 4a3c afbd 998f 05be 3ef8 edbd d48e 643e
00000030: 67a2 a83d 870d 6dbe d1de 3ebe 07d8 87bd
00000040: f094 773e a58f 343d 31ae 5fbe 64cd 06be
00000050: 95e2 1cbd a22f 473e 867d e73c 1e3f 93be
00000060: 0fce 91bd 2e7d 633d ca57 c93d 54de 94bc
00000070: bc6e c4bc eb2d 3dbb deec 5f3c 0f2e 8e3d
00000080: 5003 21bc 6c5a cbbd a6a2 bebd ad05 6abd
00000090: 01ae 253e c387 963d 8e4e f8bd 56e7 9abd
000000a0: 5edb 8a3c 3277 e63d 43b7 3e3b 1086 afbd
000000b0: 55f0 fbbd c52c a0bb 2595 b73d f24b a9bd
000000c0: b63a 00be e77e b2bd 9a29 f8bd 6cf8 c4bd
000000d0: f2f0 0a3c 37a7 d33b 1a77 693c 1197 25bd
000000e0: f557 17bd cfbd 413c 0bb3 4dbd 20f3 f73c
000000f0: 2643 79bd b29b 4b3d 93a8 c93d fabd adbd
00000100: 4ecd bbbd e2c2 523d ddac 8c3d c632 963c
00000110: 7cc6 0dbe 9b68 003d c1c2 c43d 6799 f93d
00000120: 1608 90bd bc99 10be c80f 97bd 9d46 723d
00000130: 78d8 1d3d bad3 8e3d d28a 303d 9e8d 9f3c
00000140: 1d50 0dbb f43c 7fbd 9edb 8ebd fa96 9ebd
00000150: 5f2a 053d 7459 2bbd 0de9 81bc ed22 42bd
00000160: 5d55 80bc 18e4 6cbd cd54 63bd 8675 e53c
00000170: 7529 c8bc 5fef 4d3d bdc4 d9bc 4086 80bd
00000180: 70af 6dbc 79f3 21bd 3695 ccbc 93b5 9ebd
00000190: c656 353d 6073 73bd 3fbf 463d 263c 1f3d
000001a0: a718 413d 39e7 85bd aced 723d 7f53 c5bc
000001b0: 2798 093d 4762 8e3d aeb2 fdbb 6c5e 2cbb
000001c0: 9972 c9bb c6cb 85bd 839e 053d 5727 a3bd
000001d0: e211 5d3d 7a7b 8d3d fda1 9b3d 9d4e dfbc
000001e0: 8af5 9cbd d344 803c 46fc 343d addd b3bd
000001f0: e7b2 cfbc 5f02 42bd 3be7 c5bb a0c7 32bd
00000200: cc95 1abd 1a41 e5bc ad6a aabd fd78 783d
00000210: 077b 7c3d 9cad 81bc bd4c 24bc 9a27 22bd
00000220: 50f9 a3bd 39ba afbd 5178 de3c 3dc4 36bd
00000230: 7edd 69bd 1c16 51bc cfe0 09bd 80cd eebc
00000240: 223e 583a c08b 96bc 8a90 02bd 04d3 2cbd
00000250: b42b 87bd 0824 8d3d 907f 94bd b979 e0bd
00000260: c2ee 02be 842a c23c 3848 343e 0667 fa3c
00000270: 2285 503d 1cfb 973e 47c8 a63e 0838 893d
00000280: 4ca4 003e 3dcb 933e c26a 773e 21d4 f43c
00000290: 1a2c 8fbe 3606 4dbd 26dd debc 1e11 19be
000002a0: f28d a6be ac52 19be b107 fcbd 6470 87be
000002b0: 4144 83be 1970 a8bd 93e2 e13d 5020 89bc
000002c0: a9d8 54bd efc5 bb3c 5e2e 293e df1c b4bb
000002d0: 6834 233d 2785 4e3e 5f76 233e ec46 803d
000002e0: 487f b8bd 44c3 8bbc d69d a8bc a33d e4bd
000002f0: 5bea 61be 3515 12be 1966 a43c 4391 32be
00000300: 7882 62be 04db 7abd 185e 8b3d 662d 483d
00000310: 0dc0 5d3d c0b4 8e3d bc5c 38bd 8e76 cf3a
00000320: 0d3d 513d aa23 59bd 7fb1 07bd 7e32 103e
00000330: d131 233d 533f a0bd b995 8dbd cc18 d73d
00000340: f7cc 153e 6078 fd3c 2d22 c03c ceb7 3fbc
00000350: 84ab 36bc 9fe7 21bc 90ac e83b 6f32 803d
00000360: 7765 73bd 6ff1 8abd ab4f f4bd e391 e9bc
00000370: 1e28 df3a 291b 873c f9b4 623d bcd8 12bd
00000380: b7a6 db3d 90d2 6cbd 20e1 f53c 45dd 8d3d
00000390: 7cd9 553a 11bd 973d 89dc 8dbd 27af 01bd
000003a0: 9add 403d 3438 98bc 210a 8ebc 59eb 05bd
000003b0: 24a7 703d ee5b 243d 8504 c83c d0bf 40bd
000003c0: 9eea 85bd d173 1f3c c72a bc3c ab06 21bd
000003d0: 7aaa c4bc 1d20 5e3d 0794 9d3b 615b e33a
000003e0: d2e9 aebc 88b8 96bd 1953 98bd 180f 41bd
000003f0: cc71 2cbd 66e2 0d3d 8408 30bc efb0 40bd
-0.058738884 0.01696094 0.006831139 -0.121114664 0.0312927 0.026746951 0.16776395 -0.021649847
-0.08556421 -0.1304306 -0.11619614 0.2232011 0.08234101 -0.23149692 -0.18639685 -0.06633001
0.24177909 0.044082303 -0.21843792 -0.13164288 -0.038302023 0.19451764 0.028258096 -0.28759092
-0.07119381 0.055539303 0.098311976 -0.01817242 -0.023978584 -0.002886648 0.013667313 0.06942379
-0.00982745 -0.09929356 -0.093083665 -0.05713432 0.16179658 0.07350113 -0.12124358 -0.07563655
0.016950306 0.112532035 0.0029100932 -0.08570492 -0.12301699 -0.0048881494 0.08963994 -0.082664385
-0.12522396 -0.08715611 -0.1211731 -0.09617695 0.008480297 0.0064591425 0.014249587 -0.04042727
-0.036949117 0.011825039 -0.050219577 0.030267298 -0.060855053 0.04970903 0.09846606 -0.08483501
-0.09170018 0.051455386 0.068689086 0.018334758 -0.13845247 0.03134976 0.09607459 0.12187462
-0.07032792 -0.14121145 -0.07376057 0.059149373 0.03853652 0.069739774 0.04310114 0.019476708
-0.0021562644 -0.06231399 -0.069754824 -0.0774364 0.03251111 -0.041833356 -0.015858198 -0.04739659
-0.015665704 -0.057834715 -0.055500794 0.028010141 -0.02443383 0.05027711 -0.02658307 -0.06275606
-0.01450716 -0.039538834 -0.024973493 -0.07749476 0.044272207 -0.059436202 0.04852223 0.03887572
0.04714265 -0.06538243 0.059308693 -0.024087666 0.03359237 0.06952339 -0.0077422475 -0.0026301397
-0.0061476943 -0.06533007 0.03262187 -0.07966488 0.053972133 0.06908317 0.07599256 -0.027259165
-0.0766402 0.015657818 0.0441859 -0.08782516 -0.025353862 -0.047365543 -0.0060395277 -0.04364741
-0.037740514 -0.027985144 -0.08321128 0.06066226 0.061640766 -0.015829854 -0.010028061 -0.03958855
-0.08006537 -0.08580441 0.02715698 -0.04462074 -0.057095997 -0.012761619 -0.03366166 -0.029150724
0.00082490046 -0.018377185 -0.031876124 -0.042193428 -0.066001326 0.06891638 -0.07250893 -0.10960717
-0.12786391 0.023701914 0.17605674 0.030566704 0.050908215 0.2968377 0.32574674 0.0670014
0.12562674 0.28865996 0.24161819 0.029886307 -0.27963334 -0.05005475 -0.027205061 -0.14947936
-0.3253017 -0.14972943 -0.123061545 -0.26452935 -0.2563801 -0.08224506 0.11029544 -0.01673904
-0.051964436 0.02292153 0.16521594 -0.0054966058 0.0398449 0.20167981 0.15963124 0.06263527
-0.09008652 -0.017060883 -0.020583075 -0.11144569 -0.22062056 -0.14265902 0.020068215 -0.17438225
-0.22120082 -0.061244026 0.06805056 0.04887142 0.054138232 0.06968069 -0.045010313 0.0015828179
0.051083613 -0.053012528 -0.033128258 0.14081761 0.03984243 -0.07824578 -0.06913323 0.105027765
0.14628969 0.030941188 0.023453796 -0.011701537 -0.011149291 -0.009881883 0.007100649 0.062596194
-0.059422936 -0.06784331 -0.11929258 -0.028511947 0.0017025506 0.016492443 0.05534837 -0.035851225
0.10725158 -0.057817996 0.030014575 0.069269694 0.0008157713 0.074091084 -0.06926829 -0.03166118
0.047086336 -0.018581487 -0.017338814 -0.03269515 0.058753148 0.040126733 0.024416218 -0.047057927
-0.0653889 0.009732203 0.022969617 -0.039313 -0.02400707 0.054229844 0.004808906 0.0017345959
-0.021351729 -0.07359415 -0.074377246 -0.047133535 -0.042100713 0.03463974 -0.010744218 -0.047043737

features.3.bias f4 [16]
00000000: 897f 85bc 3c7c 133d a764 d33d 8acb d73a
00000010: 38ee f6bc 09e7 973d 4b60 0b3d d89b 22bd
00000020: 5561 bebc f761 81bd e6ff febd 0abd a03b
00000030: a833 413d 0e42 133d fe04 c43d 26d4 963d
-0.016296165 0.03600715 0.10321932 0.0016463858 -0.030142888 0.07417113 0.03402738 -0.039699405
-0.02323977 -0.063175134 -0.124511525 0.0049053477 0.047168404 0.035951667 0.09571265 0.07364683

features.6.weight f4 [120, 16, 5, 5]
00000000: b43d 19bc dc39 e23c 1b3f a83c 451a 5cbd
00000010: 2f7b a6bb c781 5ebd caca 07bd 0d5e 863c
00000020: e0bc b2bc 6664 30bb 6ffa 2d3d b8cf 09bd
00000030: c58a 2abd b1b3 1abd 92ae 233c 6965 6bbb
00000040: b10a f93c 7bce 17bd 8a05 0bbd a522 a03c
00000050: 17aa 243d a1b7 033c b1c5 d03c 4a8c fd3b
00000060: 4a07 733d 1b56 ce3c fadc 203d 5a29 2bbb
00000070: 142d 0fbd 7ff2 0ebd f84d 5a3c a732 1d3d
00000080: 3311 1abd bf1a 933c 3f2a 4f3c bd6a 223d
00000090: 39aa 1f3d e94f 013d 8a5b 803d 35a3 463c
000000a0: 0d28 103d e659 b5bc dcea 8abc 0067 b6bc
000000b0: 0098 1fba fb2b ae3d 1261 a23d 997d 34bd
000000c0: e39e 383a 0d56 04bd 1616 cebc 70e8 5f3d
000000d0: 339c ec3a b1a5 9f3d be9c 22bb af42 c33c
000000e0: ac81 463d 0e4e 20bd f307 343c 6768 b43a
000000f0: d963 823a 473c 533d 74ef 7b3d 49b2 6d3b
00000100: 3223 c73c 071b 023d 56e2 b33c 9129 aa3d
00000110: b086 ffbc 7faa 59bc a1ba 9f3d 1647 883c
00000120: ab36 2dbd dd7f dcbb e17d 32bd 0176 84bc
00000130: 8a19 533d 439b 90bc 5772 17bd 96a2 7dbb
00000140: 428e 6c3c 8955 05bd 223d 85bd ccb7 80bd
00000150: 128d e6bb 847b 273c 8a0f f33b b4a2 46bd
00000160: 6adf 07bd 90f6 e6bc d3ac 91bc f0b5 b33c
00000170: 8c62 81bb 0261 1dbd b7cd d1bc 8d3d 803d
00000180: 4b99 3a3b 239b d6bc 9d00 763c 60ef 683d
00000190: 44a9 0bbd d6f4 1fbd 4c0f 8fbd 6d67 1abc
000001a0: 08e8 813c b2ea dabc 5196 073d 6a66 88bd
000001b0: 384f 7f3d d4de 63bd 51a5 913c d676 ea3c
000001c0: f5ec cbbc af7a 203d 9927 ebbc b019 febb
000001d0: ad37 75bd 274f 503c 63ab d13c 05fb 4e3d
000001e0: f94f d53c 3193 a0bc ee76 923d 4df4 313c
000001f0: cc97 463d d94a babc 00a7 54bc a315 95bd
00000200: 08dd 183d 3be8 6ebc c9be f8bc 2736 103c
00000210: 8665 65bd 5dfc cbbc 996f 5dbc 890a 25bd
00000220: d9fc 543b 1c41 75bd f692 5b3c 67f0 c5bb
00000230: fcc0 9c39 75a6 393c c136 033d fcb9 2c3d
00000240: af35 a03d 1d26 593d ae49 8ebc 9f99 3fbc
00000250: 921b cd3c cff5 8c3d ff20 6e3d 7737 d63b
00000260: 97af 913c 17ab 46bc 8886 be3c e8f3 2cbd
00000270: d260 5a3c 14e4 29bd 790f 823c 6186 e93b
00000280: 3da7 91bb 46c7 093d ed2f 213d d2f1 04bd
00000290: b5fa 733d 975e 583d e961 de3c 213b 3fbc
000002a0: 3ce8 b23c cdd6 eebc ef51 c23c 1264 e43c
000002b0: 368e 4abb 0376 253c 88f1 0dbd 4a33 0c3d
000002c0: 62e9 04bc 2ede 2a3d 24d9 9c3c 60c7 513c
000002d0: f75d 293d 3fc4 903d ed42 4d3d 4303 f7bc
000002e0: 05f9 963d 25d5 1b3c dc2b af3c dc29 16bc
000002f0: 4f7e e23c c9f7 763d e0b9 59bd 011e 033d
00000300: d6bc 8abd df0b 9abd 408b 3fbd 5f73 033d
00000310: 9914 92bc 9258 80bd c3ff 3ebd 75a4 cd3c
00000320: d8ed 3dbd 6610 a3bc 1dd3 283b f141 df3c
00000330: 80b0 86bc e858 b23c 3b4a 03bd 5620 28bd
00000340: 6671 cabb c6ca 00bd ad33 013c a734 41bd
00000350: bd80 ebba 95e9 9e3c 90ff 54bd 295a d23c
00000360: 5a92 a2bc dcf8 46bc 4052 febc 1ce7 fabb
00000370: e479 10bc 16f5 f6bc 29c4 283d e2da 2b3c
00000380: 3d60 243d 4ba0 043d 4a55 743d 70e1 933a
00000390: 3eb6 543c 652f 1d3d 578e f33c ada3 37bc
000003a0: 5078 cdbb 00c1 a6bd ca9b 643b 74b6 65bd
000003b0: 5305 5c3d 4796 f43c 2207 a5bb 9ec8 a7bc
000003c0: 5d09 36bd bd8d d4bc b67e 30bd bfda 9abc
000003d0: 3261 6a3d db84 e5bc ebb2 8ebd 8518 62bd
000003e0: f54c 78bd d558 9abc 57a1 15b8 157d ca3c
000003f0: e07d 6ebd 9f86 253c cc43 813c 08f4 4bbc
-0.00935309 0.02761548 0.020537904 -0.05373599 -0.0050806026 -0.054322984 -0.03315238 0.016402269
-0.021818578 -0.002691531 0.04247516 -0.03364536 -0.041636247 -0.037769023 0.009990351 -0.00359186
0.030400606 -0.03706215 -0.03394083 0.01954777 0.040201273 0.008039386 0.025484892 0.007737671
0.059333123 0.025187543 0.03927324 -0.0026117177 -0.0349551 -0.03489923 0.013324253 0.038378384
-0.03761406 0.01795709 0.01264435 0.039652575 0.038980696 0.03157035 0.0626746 0.0121238725
0.035194445 -0.022137593 -0.016957693 -0.022265911 -0.00060880184 0.08504482 0.07928671 -0.04406509
0.0007042719 -0.032308627 -0.025157016 0.05466503 0.0018051922 0.07795275 -0.0024812664 0.023835508
0.04846351 -0.03913694 0.010988223 0.0013764024 0.000994797 0.051571157 0.061507657 0.0036269596
0.024308775 0.031764057 0.021958511 0.083087094 -0.031192154 -0.013285278 0.077992685 0.016635459
-0.042288464 -0.0067291097 -0.04357708 -0.01616955 0.051538028 -0.01765216 -0.036974277 -0.0038701645
0.014438214 -0.032552276 -0.06505801 -0.062850565 -0.00703586 0.0102223195 0.007417624 -0.04849501
-0.03317205 -0.028193742 -0.017782604 0.02193734 -0.0039485153 -0.038422592 -0.025610788 0.0626174
0.0028472717 -0.026197022 0.015014795 0.05686891 -0.03409697 -0.039051853 -0.069853395 -0.009424073
0.015857711 -0.02672324 0.033102337 -0.06660159 0.06233141 -0.055632427 0.017779024 0.028621119
-0.024893263 0.0391795 -0.028705405 -0.007754527 -0.05986755 0.012714184 0.025594419 0.05053236
0.02603911 -0.019601436 0.0715159 0.0108614685 0.04848461 -0.022740768 -0.012979269 -0.072795175
0.037320167 -0.014581735 -0.030364411 0.008801973 -0.056005023 -0.02490061 -0.0135153765 -0.04029325
0.0032499342 -0.059876546 0.013401737 -0.006040621 0.00029898423 0.01133119 0.03203464 0.042169556
0.07822739 0.053014863 -0.017369118 -0.011694341 0.02503756 0.06882822 0.058136936 0.0065373736
0.017783923 -0.012125752 0.023257509 -0.042224795 0.013328748 -0.041477278 0.015876519 0.007126615
-0.004444985 0.033637308 0.039352346 -0.03245718 0.059565265 0.052824583 0.027146297 -0.011671812
0.021839254 -0.02915516 0.02372071 0.027879748 -0.0030907518 0.010098937 -0.03465417 0.0342286
-0.008112283 0.041715793 0.01914651 0.012803882 0.041349377 0.07068681 0.050112654 -0.030152922
0.073717155 0.009511267 0.021383218 -0.0091652535 0.02764812 0.0602949 -0.05315578 0.032011036
-0.06774299 -0.075217955 -0.04676366 0.03209245 -0.017832087 -0.062668934 -0.046630632 0.025102833
-0.046369404 -0.01990528 0.00257606 0.027253123 -0.016441584 0.02177091 -0.032053214 -0.041046463
-0.006178069 -0.03144338 0.007885856 -0.047169354 -0.0017967444 0.01939849 -0.052001536 0.025677757
-0.019845176 -0.012144294 -0.03104508 -0.007656945 -0.0088181235 -0.030146163 0.041202698 0.010489197
0.040130842 0.03237943 0.05965165 0.0011282396 0.012982903 0.038375277 0.029730959 -0.011208457
-0.006270446 -0.081422806 0.0034882897 -0.056082204 0.053716015 0.029856814 -0.0050362507 -0.020481404
-0.044442523 -0.025946492 -0.04308959 -0.018903134 0.0572216 -0.028017452 -0.0696772 -0.055199165
-0.060620267 -0.018841187 -3.5674628e-05 0.024717847 -0.058225513 0.010102897 0.015779398 -0.012448318

features.6.bias f4 [120]
00000000: 783e c2bc e4f1 2f3c 0591 58bc a13f e43c
00000010: 4ca0 bf3c 6b7c e63c ce6b e8ba 7bc9 eabb
00000020: 829b 8d3b 2744 91bc 4d85 a63c 2737 51bb
00000030: c1f5 933a 19bf 753d c977 56bd d512 d83c
00000040: 24c5 ff3b 2e17 ddbc e57e 5b3d 7b15 89bc
00000050: 846b 00bd c85a a538 9b52 263c 7dc4 4fbd
00000060: d5cd a03a b7b0 143d 923b f6bc 9415 173d
00000070: 1544 c73c 9765 673d 9920 293d 5247 32bc
00000080: 0665 afbc 0493 39bd 85e1 143c 0dfb 913c
00000090: 330a ba3c 90f3 153d 846b 9f3c 60f5 a9bb
000000a0: 8b64 513c 3879 e83c 839e 073d c0c4 053d
000000b0: a51e eebc 9a93 e0bc 79a7 73bc 20de dc3b
000000c0: 72e0 07bd 8031 e73c a7b4 dc3c 7ced 8b3d
000000d0: 2815 063d a77b 1f3d 990a 0ebb c5a8 fb3b
000000e0: 848f 0a3c a898 d73c dfab a53c 881d 9a3a
000000f0: bc4c 6a3c 4a10 0bbd 1fae 193a c0a6 b43c
00000100: 4934 8c3c b1c3 38bd 9a86 913b 2285 2cbc
00000110: 36ef 0c3d 63b8 e33c 6731 14bd ab6c 0f3c
00000120: b382 343d f27e 03bd 026a 00bc a9ac 8d3a
00000130: aa54 193d 1b7c e5bc 5fbe 9f3c 3334 7d3c
00000140: 04f9 1fbd 733f 1abb f23e 5a3c 4e83 483d
00000150: d584 883c 88d1 88bc b68c 95bc c500 583c
00000160: 9ac0 283d fc8b 96bb 4bce 623d 574c fa3b
00000170: 3115 2dbd 8ea6 163c 5db0 593b ef15 92bc
00000180: a4cd 043c fef9 9dbb ec2c b6bc 1b78 ce3c
00000190: 18f9 d73c 459f e6bc d15b da3b b940 d03c
000001a0: 0ba1 65bc 1741 933c 1a1f 74bc b312 92bb
000001b0: 2257 13bd 1de0 4d3d 38bc 193d 5a44 db3c
000001c0: 64ac 7bbc 1829 a9bc 29b6 0b3a 6ccc 143d
000001d0: 9517 85bc bf68 55bc 1612 f3bc f2a6 9fbc
-0.023711428 0.010738824 -0.013218169 0.027862372 0.023391865 0.028135499 -0.0017732324 -0.0071651316
0.0043215165 -0.017732693 0.020327235 -0.0031923742 0.001128845 0.059996698 -0.05236033 0.026376167
0.0078054834 -0.026988592 0.053587813 -0.016733875 -0.031352535 7.8847224e-05 0.010151531 -0.050724495
0.0012268374 0.03630134 -0.030057702 0.036885813 0.024324456 0.056493368 0.041290853 -0.010881262
-0.021410476 -0.04530622 0.009086971 0.017819906 0.022709941 0.036609232 0.019460447 -0.0051867217
0.012780319 0.028378114 0.033110153 0.03265834 -0.029067347 -0.027414132 -0.014871472 0.0067403466
-0.033173032 0.028221846 0.02694161 0.06832406 0.03273502 0.038936283 -0.0021673797 0.007680031
0.008457068 0.02631791 0.020223556 0.0011758069 0.014300521 -0.03395108 0.0005862433 0.022052169
0.017114775 -0.0451085 0.0044410946 -0.010529788 0.034407817 0.027797883 -0.036179926 0.008753936
0.044069957 -0.032103486 -0.007837774 0.0010808903 0.037434258 -0.02801328 0.019499956 0.01545434
-0.03905584 -0.0023536354 0.013320671 0.048953347 0.016664902 -0.016701475 -0.018255573 0.013183777
0.041199304 -0.004594324 0.055372518 0.007638495 -0.042256538 0.009194983 0.0033216693 -0.017832724
0.008105669 -0.004821061 -0.022238217 0.025203755 0.026363894 -0.028152118 0.0066637774 0.025421487
-0.014015446 0.017975373 -0.014899993 -0.0044577955 -0.03597177 0.05026256 0.037533015 0.026765991
-0.015360925 -0.020649478 0.0005329573 0.036327764 -0.016246596 -0.013025462 -0.02967171 -0.019488785

classifier.0.weight f4 [84, 120]
00000000: fb15 2f3b f664 ba3b daeb edbb 3429 3e3d
00000010: 5af0 f63c 42df 77bd ee96 91bd ab5c 653c
00000020: c34e 6b3d 3a53 bbbd 2e40 493d 74e6 2abd
00000030: 7f70 1a3d c59e 74bd 5927 a43d adb2 cb3d
00000040: 3d58 94bd 6b47 84bd db52 5c3c dfe6 743d
00000050: 7dad f33c 6265 31bd 8634 d33d 7697 b9bd
00000060: a879 ab3d 6c0f 33bd 78af 9e3b f8a4 3e3b
00000070: 78c8 11bc c718 8fbc 62ce 4c3d 9e93 f93b
00000080: 3d7f 023c 5c91 c43d a7ab ce3b c8e7 65bd
00000090: 9482 b6bd 9d33 8e3d 8cec 81bd 26f2 523d
000000a0: e967 5abd 7e3d a2bd 2e71 473b 7d9b 8e3d
000000b0: 42d9 a3bd f1fa 8a3d a22e b9bd c9b2 77bc
000000c0: 5843 b2bc 619c 73bd f515 82bd 0b7b 21bd
000000d0: 7f7d a5bd 28ac 05bd 9be8 97bd 07e8 5cbd
000000e0: d4f4 43bd d6ad 013d 2e58 2bbc a755 8c3d
000000f0: 8a89 ac3d 3c35 8cbd b5d4 94bc 56cd c5bd
00000100: 3338 543d 5d77 e6bc 5de7 cc3c 6206 563d
00000110: b214 ab3d 2745 08bc 09c9 d0bc 3ffd c53d
00000120: 3fd8 94bc 2260 923c d1ab b13c ee1c 08bd
00000130: 0832 4e3d 6702 c5bd 9c9e 813c e9cf 373d
00000140: 3906 893d bc38 03bd 3ff3 823d 0248 7e3d
00000150: 96fa 3bbc 6892 bbbd 4f72 61bc 971e 31bc
00000160: b24b a1bd d8b1 ca3a ca2f 40bd ea22 aabd
00000170: b3e2 723d b16f 243c cf42 34bd b41d d33d
00000180: a9c7 ecbb 9ec2 50bb 62de 673c d979 9abd
00000190: e4c4 1cbd 10ea 743a c2d4 05bd 042e 803d
000001a0: b4a1 243b 2e42 823c 20c5 db3d 9faf 0dbd
000001b0: ed65 c9bc 1f39 88bd 2860 8ebd bcbc af3c
000001c0: de27 a43d 1051 ea3c 6e90 92bd 7b30 523d
000001d0: 6a33 afbd 2068 adbd 20c7 983d 56dc 53bd
000001e0: 9945 4ebd c2cf 13be cd09 18bd 8279 5d3d
000001f0: f6ff 49bd 778a 62bd da0e 353d 1115 933d
00000200: dc2a d1bb 4c8e 2abd 7d5e 9fbd 104f dbbc
00000210: 37c6 51bd 28cb 07bd 6307 9cbd 5afb 86bd
00000220: 144a d2bd a2ea a4bd 29dc d23d 9b20 643c
00000230: 206c e93c 72d9 703d aaa5 9abc dacf 8d3c
00000240: e27c bdbd 9180 bb3d 8119 cd3d 4dd9 96bd
00000250: 7b6e 1b3e 0b26 32bd 8325 193c 69ac 84bd
00000260: b665 88bd 250f e0bc 42ae bc3d 11d1 0bbd
00000270: f19a eabd 3606 763d df2c 50bd 93b9 5cbd
00000280: 7556 45bd b557 c53a a7bc f3bd 10bf 343d
00000290: f42e 0ebd 038a c9bc 170f a93d 09f0 a8bb
000002a0: 10fa d33d 4461 8d3d e3d7 e03b 857b c53d
000002b0: 22d8 df3c a9bb fabc 1ba9 09be 4e45 243e
000002c0: e69e 4e3d 13b7 853d 6eb5 733d 7885 cdbd
000002d0: f0b9 053e 690e e6bc 51a4 c43c 68f4 cd3c
000002e0: 3d71 d13d 7da3 20bb bee4 f8bc 633f 13bd
000002f0: eee6 7f3d 221f ae3d 8966 0dbe 41a6 f7bd
00000300: b419 063e d073 f9bd c612 283e f87f 9b3d
00000310: 7369 1b3e eb85 07bc 777f b43d efa1 b2bd
00000320: a9c2 053d c6f4 c33d 2985 2fbd 6a9f 973c
00000330: 6919 09bc d4ac 2fbc 0174 1fbd c8c5 a0bd
00000340: e2e4 8a3d cf66 96bd 13ca ab3d 7426 f9bc
00000350: 50be 3d3d 4990 653e 7886 7dbd 32ad f3bc
00000360: f218 ed3c 990a 173d 6e46 a0bd adfd 58bd
00000370: 9b52 10be 13bf f5ba 04ed ddbb dd5a 9b3d
00000380: 9eec d2bc 2e0d 9b3c 1ba9 27bc 6cb0 37bd
00000390: 89a4 893d d8c1 0a3e 906b aabc b49b b03d
000003a0: 0ae1 3b3e f918 f33c ed9b 46be c153 f23d
000003b0: b058 2f3c b6f1 1bbb 48d2 a63d b6c3 7c3c
000003c0: c58a 3bbd 1df8 803d cdf9 91bd 714f 41bd
000003d0: f41b b7bd 68f2 ff38 35bb 12be cab1 0abc
000003e0: 92cb 853d da77 2c3c 4541 82bc 08cc 143d
000003f0: c7ee 743d 8e1b d93d 16e4 97bc 3532 af3b
0.0026715982 0.005688305 -0.0072607817 0.046426013 0.030143905 -0.06051565 -0.07108866 0.013999145
0.05744816 -0.091467336 0.049133472 -0.041723683 0.03770494 -0.059721727 0.080153175 0.09946189
-0.072433926 -0.064589344 0.013447489 0.05979049 0.029745812 -0.043309577 0.103127524 -0.09062092
0.083728135 -0.04371588 0.004842695 0.0029090028 -0.008897893 -0.01746787 0.05000151 0.0076164743
0.007964906 0.095980376 0.0063070836 -0.056129247 -0.089116246 0.06943438 -0.06343946 0.051500462
-0.053321753 -0.07921885 0.003043245 0.06963251 -0.08000423 0.067861445 -0.09042098 -0.015118309
-0.021760628 -0.059475306 -0.06351844 -0.039423984 -0.08080577 -0.032634884 -0.07417413 -0.053932216
-0.04784091 0.031659923 -0.010458035 0.068522744 0.08424671 -0.06846091 -0.018167833 -0.09658305
0.05181141 -0.028133089 0.025012666 0.05225218 0.08353557 -0.008317268 -0.025486486 0.096674435
-0.01816952 0.017868105 0.021688374 -0.033230714 0.050340682 -0.09619599 0.015822701 0.044876013
0.0669064 -0.032036528 0.06394052 0.06208039 -0.011473319 -0.09158784 -0.013760163 -0.010810516
-0.07875766 0.0015464379 -0.046920575 -0.083074406 0.05929823 0.010036395 -0.044009026 0.103084
-0.00722595 -0.0031854282 0.014152141 -0.07542772 -0.038273707 0.00093427394 -0.032673605 0.06258777
0.0025120797 0.015900698 0.10730958 -0.034591313 -0.024584735 -0.0665152 -0.06951934 0.0214523
0.080154166 0.028603107 -0.07156454 0.051315766 -0.08554728 -0.08467126 0.07459855 -0.0517238
-0.050359342 -0.14434722 -0.03711872 0.054070957 -0.04931637 -0.05530783 0.044203617 0.071817525
-0.006383283 -0.04163961 -0.07781694 -0.026771098 -0.051214423 -0.03315273 -0.076185964 -0.0659091
-0.102680355 -0.08052565 0.102958985 0.013923789 0.02849394 0.058801122 -0.018877823 0.017311025
-0.09252335 0.091553815 0.1001463 -0.073656656 0.15178864 -0.04349331 0.009347322 -0.06478197
-0.06660025 -0.027350971 0.092129245 -0.034134928 -0.11455334 0.060064517 -0.050824042 -0.053887915
-0.048178155 0.0015056046 -0.11901217 0.044127524 -0.034712747 -0.024601942 0.08254831 -0.0051555675
0.1035043 0.069033176 0.006861673 0.096427 0.02732474 -0.030607061 -0.13443415 0.16042063
0.050444506 0.06529059 0.059499197 -0.10035223 0.13059211 -0.028083043 0.024004133 0.025140956
0.102266766 -0.002451151 -0.03038251 -0.035949122 0.06247609 0.08502032 -0.13808645 -0.12092257
0.13095742 -0.121802926 0.16413411 0.075927675 0.15176944 -0.008271675 0.088133745 -0.08722293
0.032656346 0.09568171 -0.0428516 0.018508632 -0.008367875 -0.010722358 -0.03892899 -0.07850224
0.06781937 -0.07343828 0.08388152 -0.030413844 0.046324074 0.22418322 -0.061895818 -0.029745672
0.028942559 0.03687534 -0.078259334 -0.0529763 -0.14094011 -0.0018748961 -0.006772639 0.0758569
-0.025747593 0.018927183 -0.010233189 -0.044845983 0.06720836 0.13550508 -0.020803243 0.08623448
0.18347564 0.029674994 -0.19395418 0.11832381 0.010702297 -0.0023795194 0.08145577 0.0154275205
-0.045786638 0.06297324 -0.07127724 -0.0471949 -0.089408785 0.00012204499 -0.14329226 -0.00846524
0.065329686 0.010526622 -0.015900264 0.036327392 0.05979803 0.10600959 -0.018541377 0.0053465613

classifier.0.bias f4 [84]
00000000: e011 b9bd 3460 c93d 49c8 b33d 2023 183d
00000010: 2fd3 1e3c 1091 e13a 66e4 733b e2e3 c53d
00000020: 9904 353d dec4 4abd 5613 993d 3ee9 abbc
00000030: 4a4e b83d 289b 3abd 0fdc 573d a227 c23c
00000040: 21c2 4b3c e1c3 2c3d 4877 983d 5d9d d33d
00000050: 0eed d73d 5c56 aabc 4894 a93d d0fe b53d
00000060: d0a1 c03d 675c a03d 72b6 99bd 2101 fdbd
00000070: 5de9 bfbd 7b9c 88bd 60cb b8bd 4bfa 803c
00000080: 0e75 ba3d ac62 7abc 3ee0 c53c cc25 b93c
00000090: c984 083d a687 4b3c 7116 993d 076b 743c
000000a0: 7c6c 053d 3b3d 9a3d ba32 b5bd 7e7b afbd
000000b0: 5bd2 963d 8268 a4bd 28cd aa3c 2c1b 883d
000000c0: 9380 9dbd 48a7 a63d bb48 80bd 3dad 89bd
000000d0: 8bd6 5f3d 2069 763d ff28 5c3b 8a73 7fbc
000000e0: 77ec a33c 64fa a5bd b8bc 89bd 26f6 2ebd
000000f0: e932 abbc f1f7 16bd 105a e83d 6954 493d
00000100: 0bef 823c a6e8 d53d 03b3 43bd b51b 2a3d
00000110: d271 30bd 569e b3bd 6c10 513d 56e9 c93c
00000120: 1f22 3dbd 6f67 2b3d db66 4b3d 5259 953d
00000130: 3025 d439 ed06 a9bd 0438 bcbd 5efe aabb
00000140: 10ee 153d 6a6d 64bd 642d a83c 93a2 4abd
-0.090366125 0.098328024 0.08778436 0.037142873 0.009693905 0.001720937 0.0037214993 0.09662606
0.044193838 -0.049504153 0.07474391 -0.020985242 0.089993075 -0.045558125 0.0527001 0.023700539
0.012436421 0.042178992 0.07444626 0.10332749 0.105432615 -0.020793132 0.082802355 0.08886492
0.09405863 0.07830124 -0.07505502 -0.12353731 -0.093706824 -0.06670471 -0.09023166 0.015744349
0.09104358 -0.015282314 0.024154779 0.02260103 0.03332976 0.012422478 0.074749835 0.014918095
0.032574162 0.0753121 -0.08847566 -0.08568476 0.07364341 -0.08027746 0.02084978 0.066458076
-0.07690539 0.08137375 -0.06263872 -0.06722496 0.054647963 0.06015885 0.0033593772 -0.0155915115
0.020010216 -0.08104399 -0.06725448 -0.042715214 -0.0208983 -0.03685755 0.11345303 0.049152765
0.015983125 0.10444765 -0.04777814 0.04153033 -0.043077298 -0.087704346 0.05104105 0.024647396
-0.04617512 0.04184669 0.049658637 0.07292427 0.00040463498 -0.08253274 -0.09190372 -0.005218311
0.036603987 -0.055768408 0.020529456 -0.04947145

classifier.2.weight f4 [10, 84]
00000000: 2f0a 9cbd 9e91 f23d ed6d 3bbd e22e a6bd
00000010: b811 903c 9e7c a4be 55b1 1a3e bade 4dbe
00000020: cf8f be3e 9f31 b93c fed3 2bbe c4c2 113e
00000030: 2238 03be 013f b7bd 9686 cbbd f730 93bd
00000040: 012b 513e 50b3 f1bd b1c0 f83d 1167 753c
00000050: d3d2 24be 0607 a6bd 548b 333e a063 ebbe
00000060: f499 6abc 1b3e 153e a91d 3bbe 1de5 4d3e
00000070: 030a c43d 7918 3fbe 1d44 09bc e443 45bc
00000080: 7e93 633e 222c 03be e875 ad3d 8404 c63c
00000090: 0ba2 573e 2724 0abd 40a4 063e 6949 29be
000000a0: b453 a7bd 72d5 263e 8ee2 62bd d63a 693e
000000b0: c9b5 1abe 1030 293d de0d df3d 1423 b5bd
000000c0: 0ef4 803d d0b0 28be 129b 56bd 82f8 a4bd
000000d0: 8d58 6cbd 7b03 10bc 2890 5f3d acce 873d
000000e0: 2c23 09be 58da 043e cc35 d6bd c424 cc3d
000000f0: 8978 c83d b1b1 20bd d721 67bd 509f 8d3d
00000100: 9bc1 1abd ec07 a43b 0686 223d 7ec9 bc3d
00000110: 53dd e0bd 5e59 a23c 62a7 35bc 677e 973d
00000120: 9fc1 b53d a040 08bc 0beb febd 70fb a1be
00000130: 64a4 953d 7a28 4ebc 6565 df3c 2c51 cebd
00000140: d903 de3d 86d1 c43a c204 29be 7c67 603d
00000150: c50d 033d f1a7 9fbe d04a 1d3e 64ec df3d
00000160: 4ef4 9c3d 2f09 6cbd 0b6d 4cbd aa1e b23c
00000170: d733 abbd 422d d5bd 162c a3bd ac1d b03d
00000180: be4e 8b3e 59c2 c83d aa5b b5bc 6a6a 67bd
00000190: 6ab3 753d 0e42 aebd b911 1d3e 773f 053d
000001a0: 4e7e cb3c 496a a63d 3447 a6bd 79a7 a1bd
000001b0: cbd8 bb3d c295 f43d 8156 b63d c501 e03d
000001c0: a982 373e e9bd 1c3e 478c 163d b09e 8abd
000001d0: 9bfd c6bc 0b93 053d 861a 59be d651 8ebd
000001e0: bd19 febd 8a37 58be 780b 64bd 417f f1bd
000001f0: f334 943d 2654 c23c e784 28bc 963e f33d
00000200: 5306 f63d 22cd 23be d9b6 043d c0c1 143d
00000210: 2707 603e c332 743e c221 3bbd 8324 21bd
00000220: c993 eb3d e25b 50be 4dd0 46be 9011 efbc
00000230: 8ff8 af3d 886d 213c 34f9 c3bd 3b58 413d
00000240: 6809 c9bd 8d02 8f3d d287 2e3e 6bf9 67be
00000250: dd0c 37be 9345 5ebe b197 b2bd 8119 2cbd
00000260: 16ed 22bd 5fd8 2fbb 9871 71be d9b4 3e3e
00000270: e489 53bd 5924 003e b434 973e 1bb5 373e
00000280: ad21 873d dc69 ffba c308 ce3d f209 b73e
00000290: 025d e33d 6234 8e3e 8987 a8bd 0328 cb3d
000002a0: 1816 dabd e49e 75be 5fa3 9e3e c457 0ebd
000002b0: 6016 0bbd f950 a8bd 7598 20bd a9c3 5e3e
000002c0: dabf c33e 52dc 67bd cb0f 9dbe 0abf c5bd
000002d0: 18fc 273e 6404 483d 1da4 3d3c 6677 923d
000002e0: c6f4 10be 3475 cc3d 41c3 ff3d 3cd6 203e
000002f0: aad4 6d3e 9bb9 063e e969 afbd d81d 1fbc
00000300: a2b5 1bbd 4f60 80be 3233 c53d 3036 21bd
00000310: 5008 88bd 6584 04bd b16a 59bd af30 dfbd
00000320: 5675 83bd 3130 803c 7859 ae3e d09c 623d
00000330: 95dd 983d 09bb 4b3e 8c04 ffbd efae 983e
00000340: 674f 93bd efe1 583e 170d 99bd cc64 03be
00000350: 8728 a03d c5a7 41be 8f6b 62bd a46d 13be
00000360: c43c 27be 9ad9 f93d c95f 7a3d 4e2d b3bd
00000370: 4b76 b1bd 9edf 4abe 0ba7 c8bd ed47 303e
00000380: 606f acbd 3817 14be d245 21bd 8642 52bd
00000390: 4e3c 34bd 107a 053e 252c 28be 0ad8 f2bd
000003a0: 349d 2cbe c6e6 8b3e ecc0 903d 7216 0fbc
000003b0: d1e8 f93d b12b 8d3c ecfd 52be fdfc 5cbe
000003c0: ac35 143d 41f8 30be e9fd 38be d153 5ebd
000003d0: e8d4 21bd 97ce 33bd a104 c5bd b85a 46be
000003e0: 3e89 05be e097 003e 96cf dc3d 4bfb a33d
000003f0: b40e 9d3d ce0e c4bd 6dab 48be 6e4e b33d
-0.0761913 0.118441805 -0.04575913 -0.08114411 0.017586574 -0.32126325 0.1510671 -0.20104495
0.37219092 0.022606669 -0.16780087 0.14234453 -0.12814382 -0.08947564 -0.099377796 -0.07187074
0.20426561 -0.11801779 0.12146128 0.014978186 -0.16096048 -0.08106808 0.17533618 -0.45974445
-0.014318932 0.14574473 -0.18273033 0.20106931 0.09572222 -0.1866168 -0.008378056 -0.012040112
0.22224233 -0.12809804 0.084697545 0.024172075 0.21057908 -0.033725884 0.13148594 -0.1653191
-0.08170262 0.1629236 -0.05539184 0.2277635 -0.15108408 0.0413056 0.10891317 -0.08844581
0.0629655 -0.16473699 -0.05239398 -0.080552116 -0.057701636 -0.008789892 0.054580837 0.066312164
-0.13392323 0.12973917 -0.1045948 0.0996795 0.09788615 -0.03923196 -0.056428757 0.06915152
-0.037782293 0.005005827 0.039678596 0.09218119 -0.10979714 0.019818004 -0.01108727 0.07397156
0.08874821 -0.008316189 -0.12447175 -0.31637144 0.07306746 -0.012582893 0.027270028 -0.10074076
0.10840578 0.0015016056 -0.16505721 0.05478619 0.031995554 -0.31182817 0.1536057 0.1093376
0.07663785 -0.057625946 -0.04990868 0.021743137 -0.08359497 -0.10409023 -0.07967393 0.085994095
0.27208513 0.09802694 -0.022138435 -0.05649797 0.059985556 -0.08508693 0.15338792 0.032531228
0.0248405 0.08125741 -0.0811905 -0.07893271 0.09172209 0.119426265 0.08903218 0.109378375
0.17920937 0.1530682 0.036754873 -0.067685485 -0.02429085 0.032610934 -0.21201524 -0.06949203
-0.12407253 -0.21114936 -0.055675 -0.1179185 0.07236662 0.023721766 -0.010285593 0.11877172
0.12012925 -0.1599622 0.03240094 0.036317587 0.21877728 0.23847489 -0.04568649 -0.03934146
0.11502797 -0.2034755 -0.19415398 -0.02918318 0.08592331 0.009852774 -0.09569016 0.047203284
-0.09816247 0.069829084 0.17043999 -0.22653739 -0.17876 -0.21706228 -0.08720339 -0.04201651
-0.039776884 -0.0026831848 -0.23578489 0.18623675 -0.051645175 0.12513866 0.29532397 0.1794018
0.0659822 -0.0019486505 0.10060265 0.35749775 0.11101724 0.2777434 -0.08228976 0.09919741
-0.10648745 -0.23986393 0.30984017 -0.03475167 -0.033956885 -0.08218569 -0.039207894 0.21754326
0.3823231 -0.0566066 -0.30676112 -0.096555784 0.1640476 0.048832312 0.011574772 0.0715168
-0.14155874 0.09983292 0.124884136 0.15706724 0.23225656 0.1315674 -0.08565123 -0.009711705
-0.038015015 -0.25073478 0.09628905 -0.039358318 -0.066422105 -0.032352824 -0.053080264 -0.108979575
-0.064188644 0.01564798 0.34052634 0.05532533 0.074641384 0.19895567 -0.12452039 0.29820964
-0.07192879 0.21179937 -0.074732 -0.1283142 0.0782023 -0.18911655 -0.055278357 -0.14397293
-0.16331774 0.12199707 0.061126504 -0.087488756 -0.08665141 -0.19811866 -0.09797486 0.17214938
-0.084196806 -0.14461982 -0.039373226 -0.051332973 -0.044002824 0.13034844 -0.1642309 -0.118576124
-0.16856843 0.27324504 0.07068047 -0.008733379 0.12202609 0.017232748 -0.20604676 -0.21580882
0.036183998 -0.17282201 -0.18065609 -0.054279152 -0.039509684 -0.04389819 -0.096200235 -0.19370544
-0.13040635 0.12557936 0.107817814 0.08006915 0.0766882 -0.09573136 -0.19596644 0.08755194

classifier.2.bias f4 [10]
00000000: 0798 903c 1436 cb3c c4eb c0bd d8a6 b8bb
00000010: 396b c23b e9a2 363d d869 e1bd c8f9 263c
00000020: 3a62 bdbc 9fff 9f3d
0.017650617 0.02480606 -0.09419969 -0.0056351237 0.005933192 0.044588957 -0.11006516 0.010191388
-0.023118127 0.07812428
