models/Experiment_6/model.pth (torch_old, 248685 bytes, 10 tensors)

features.0.weight f4 [6, 1, 5, 5]
0	0x3e39d187	0.18146335
1	0x3e4838ad	0.1955287
2	0xbe14d787	-0.14535342
3	0x3c2491ac	0.0100444965
4	0xbe4aa823	-0.19790702
5	0x3d788050	0.060669243
6	0x3bf9de9d	0.0076254145
7	0x3e367c36	0.1782082
8	0x3e472657	0.19448219
9	0xbe33a8c1	-0.17544843
10	0x3e26aea0	0.16277552
11	0x3e224691	0.15847231
12	0x3e7e4a78	0.24833095
13	0x3df4b087	0.119477324
14	0x3e027b9a	0.12742463
15	0xbe19d598	-0.15022886
16	0x3e30eeaa	0.17278543
17	0x3dbf5a2f	0.09343373
18	0xbd0cd8f9	-0.03438661
19	0x3ce96379	0.028489815
20	0xbea09d25	-0.31369892
21	0xbe1f3d63	-0.15550761
22	0xbd95a37e	-0.07306574
23	0x3df1c230	0.118046165
24	0xbea858aa	-0.32880145
25	0xbd919b2f	-0.07109677
26	0xbb529d8d	-0.0032137365
27	0xbd807c12	-0.062736645
28	0xbd726bd5	-0.059184868
29	0xbec6e6ea	-0.38848048
30	0x3e3f5a0b	0.18686692
31	0xbd1bb9fa	-0.038019158
32	0x3e8428a0	0.25812244
33	0xbc74fea6	-0.014953291
34	0xbe5bf019	-0.21478309
35	0x3e12ff0e	0.14355108
36	0x3e3d5946	0.18491086
37	0x3e9a98b9	0.30194643
38	0x3dbce689	0.092236586
39	0xbdfb2490	-0.12262833
40	0x3da383fd	0.07984159
41	0x3d3e4d9c	0.046460733
42	0x3e7c8699	0.2466072
43	0x3ec728a6	0.388982
44	0x3e32b8fb	0.17453377
45	0xbe0ae47f	-0.13563727
46	0x3d9976f6	0.07493393
47	0x3d55aa4a	0.052164353
48	0x3e674c63	0.22587733
49	0x3c8b8906	0.017033111
50	0xbdece6e7	-0.115674786
51	0xbe1295e8	-0.14314997
52	0xbe41b222	-0.18915609
53	0x3e544858	0.20730722
54	0x3e2eb0af	0.17059587
55	0x3e0b1751	0.13583113
56	0x3e124e3c	0.14287657
57	0x3e430bd3	0.1904748
58	0x3eb461c2	0.35230833
59	0xbc836113	-0.0160375
60	0x3d726cfa	0.05918596
61	0x3cf16ef5	0.029471854
62	0x3e796f78	0.24358928
63	0xbdd4ca32	-0.10390128
64	0xbe3dc80d	-0.18533345
65	0x3bc14643	0.0058982684
66	0x3eaf2a10	0.3421178
67	0xbb339721	-0.0027403312
68	0xbea961ff	-0.33082578
69	0xbee976f8	-0.45598578
70	0x3e253afa	0.16135779
71	0x3e2e7d37	0.17039953
72	0x3e6bd4dc	0.23030418
73	0xbe9185bd	-0.28422347
74	0xbdb3e2be	-0.08783482
75	0xbec52fc6	-0.3851301
76	0xbeac93b9	-0.33706453
77	0xbd3bea73	-0.045877885
78	0x3d31d1db	0.043413024
79	0x3e8e18f2	0.27753407
80	0xbf0cdd30	-0.55025005
81	0xbe473393	-0.19453268
82	0x3e7e2745	0.24819668
83	0x3e4c5ab5	0.19956477
84	0x3ee80f7c	0.45324314
85	0xbe5dc99e	-0.21658942
86	0x3e98554d	0.2975258
87	0x3e3704d1	0.17872931
88	0x3e4e2094	0.20129615
89	0x3e5311a6	0.20612201
90	0x3e040b3b	0.12894909
91	0x3df7b8cc	0.12095794
92	0x3ea41620	0.3204813
93	0x3e2e604a	0.17028919
94	0xbea220ad	-0.31665555
95	0xbdb6a287	-0.089177184
96	0x3e0ed726	0.1394926
97	0xbe2b33d8	-0.16718996
98	0xbe81e3ba	-0.25369054
99	0xbed60ec8	-0.41808152
100	0x3e0aae29	0.13543
101	0x3e5c24de	0.21498439
102	0x3d44a6f5	0.048010785
103	0xbea70ff0	-0.32629347
104	0xbf05d634	-0.52279973
105	0x3e3d2152	0.18469742
106	0x3d95c394	0.07312694
107	0x3d150e31	0.036390487
108	0xbeaa606c	-0.3327669
109	0xbf2479e3	-0.64248484
110	0x3ef4cab3	0.47810897
111	0x3e46e9cf	0.19425128
112	0x3d8cd0ac	0.068757385
113	0xbf06e496	-0.52692544
114	0xbef596a7	-0.479665
115	0x3e82223e	0.2541675
116	0x3e150183	0.14551358
117	0xbeae14ad	-0.3400015
118	0xbf16434c	-0.58696437
119	0xbe7ee75f	-0.24892949
120	0x3eaa4a4d	0.33259812
121	0x3cb4f62d	0.022090042
122	0xbe8865dc	-0.26640213
123	0xbf0cb446	-0.54962575
124	0xbe3a24f1	-0.18178155
125	0xbe81ddf3	-0.25364646
126	0xbe94790a	-0.28998595
127	0xbec223ec	-0.3791803
128	0x3c20bef0	0.009811148
129	0xbdcea969	-0.10090906
130	0x3d279909	0.04091743
131	0xbe8d2167	-0.27564546
132	0xbf0b84de	-0.54499614
133	0xbd9b3aa5	-0.07579545
134	0xbd80c7b0	-0.06288087
135	0xbdb7a80c	-0.08967599
136	0xbeb932d0	-0.3617158
137	0xbed9bfc1	-0.4252911
138	0x3cba6446	0.022752892
139	0x3da45330	0.08023679
140	0x3e8de4da	0.27713662
141	0x3d50e121	0.05099595
142	0x3eb78a88	0.35847878
143	0x3e1ab10f	0.15106605
144	0x3e1f56cb	0.15560453
145	0x3ed93989	0.42426708
146	0x3f062de5	0.5241378
147	0x3f055d16	0.5209516
148	0x3ef88c55	0.48544565
149	0xbc213930	-0.009840295

features.0.bias f4 [6]
0	0xbd8d8a14	-0.06911102
1	0xbdff5dae	-0.1246904
2	0xbd500cd5	-0.050793488
3	0xbdccbcb2	-0.09996928
4	0x3e7bd4a4	0.24592835
5	0x3da5422a	0.080692604

features.3.weight f4 [16, 6, 5, 5]
0	0xbe490ef4	-0.1963461
1	0xbd7b5370	-0.06135887
2	0xbcfb59f8	-0.030682549
3	0xbe15ab85	-0.14616211
4	0xbd7aa0e8	-0.06118861
5	0xbd1d780b	-0.03844456
6	0x3d9486d9	0.07252283
7	0xbc168db5	-0.009189059
8	0x3d3f26ef	0.04666799
9	0xbcb12468	-0.021623805
10	0xbdda19e6	-0.10649471
11	0x3dfb4a76	0.12270062
12	0x3db71b58	0.08940762
13	0xbd8edadb	-0.06975337
14	0xbe00e74a	-0.1258823
15	0xbbe767cd	-0.0070619346
16	0x3e2c1abd	0.16807075
17	0x3de90fde	0.113799796
18	0xbdeacfd0	-0.11465418
19	0xbe111bbb	-0.14170735
20	0xbd42f199	-0.047593687
21	0x3decccae	0.11562477
22	0x3dea724f	0.11447584
23	0xbe038e3d	-0.12847228
24	0xbdf53e61	-0.119747885
25	0x3bb1bab2	0.005423867
26	0x3d9d106a	0.07669146
27	0x3d0a54a8	0.03377214
28	0x3d06199b	0.032739263
29	0xbc8938fe	-0.016750809
30	0x3cd63bef	0.026151625
31	0x3dd9b1ae	0.10629593
32	0x3dc0a0ad	0.094056465
33	0xbc8eda8f	-0.017438201
34	0xbd8c234e	-0.06842671
35	0xbd860cab	-0.06545385
36	0x3e3c877d	0.1841106
37	0x3e35934e	0.17731974
38	0xbe113cba	-0.14183322
39	0xbe6372b1	-0.2221172
40	0xbd82215b	-0.06354018
41	0x3d7e97a9	0.062156353
42	0x3daaa7df	0.083328
43	0xbd509fde	-0.05093371
44	0xbe2e38d9	-0.17013873
45	0xbdfc09fc	-0.12306592
46	0x3e1117f2	0.1416929
47	0x3e11d736	0.14242253
48	0x3ca72d2d	0.020407284
49	0xbe09fae0	-0.13474607
50	0xbf026bb1	-0.50945574
51	0xbe74d91b	-0.23910944
52	0xbd42a734	-0.04752274
53	0xbd973da6	-0.073848054
54	0xbe70135d	-0.23444887
55	0xbe532135	-0.20618136
56	0x3d081ee8	0.0332326
57	0x3d8120d2	0.06305088
58	0x3c9c774a	0.01909985
59	0xbd68fadc	-0.056879863
60	0xbe1dd729	-0.15414108
61	0x3dc87a6d	0.09788976
62	0x3e81e130	0.25367117
63	0x3d363eb7	0.044493403
64	0xbdf65a5a	-0.12028952
65	0x3cecba92	0.028897557
66	0x3d910063	0.07080152
67	0x3e07da74	0.13266927
68	0xbdcb7ca2	-0.09935881
69	0x3d4eec13	0.050518107
70	0xbcfe23dd	-0.03102296
71	0x3c65cf52	0.01402648
72	0xbdc3e976	-0.095660135
73	0x3ce3840b	0.027772924
74	0xbdbf3953	-0.093371056
75	0xbe9e8faa	-0.30968982
76	0xbccd9885	-0.025097141
77	0xbdc2e13e	-0.09515618
78	0xbdc4aa87	-0.09602838
79	0xbdebdea4	-0.11517075
80	0xbcc510ff	-0.024055956
81	0xbd91e989	-0.071246214
82	0xbc93aca1	-0.018026652
83	0xbe1e7f18	-0.1547817
84	0xbb149c8f	-0.0022676324
85	0xbd972293	-0.073796414
86	0x3dd53ed2	0.10412373
87	0xbaadde0b	-0.0013265027
88	0xbe482746	-0.19546232
89	0xbe093fb7	-0.13403212
90	0x3e0ccba5	0.13749559
91	0x3e763735	0.24044497
92	0xbba47b79	-0.005019602
93	0xbeb3cee7	-0.3511879
94	0xbd279be1	-0.040920142
95	0x3d87d14e	0.066317186
96	0x3d970386	0.07373719
97	0xbdd8c00e	-0.105835065
98	0x3d42c56f	0.04755157
99	0xbca3dbae	-0.020002212
100	0xbe840300	-0.2578354
101	0xbd5a2fa1	-0.05326808
102	0xbcbbcd76	-0.02292512
103	0xbb8300b3	-0.003997886
104	0xbcb9d3a2	-0.022683922
105	0xbe1ff540	-0.15620899
106	0x3e59f380	0.21284294
107	0xbacb31e4	-0.001550254
108	0x3d3c2d0a	0.04594139
109	0xbd707475	-0.058704812
110	0x3e719abc	0.23594183
111	0x3e88bba1	0.2670565
112	0x3de54da6	0.11196451
113	0x3d47cb2a	0.048777737
114	0xbd90b8c9	-0.07066495
115	0x3e919733	0.28435668
116	0x3e8a981f	0.27069184
117	0x3e832288	0.25612283
118	0x3e31398f	0.17307113
119	0xbd8b6bf7	-0.06807702
120	0x3dc8768e	0.097882375
121	0x3d3c8dfa	0.046033837
122	0x3d5dc448	0.054142267
123	0x3c13cb19	0.00902059
124	0x3c97a2be	0.018510219
125	0xbb7eef7f	-0.0038900075
126	0x3da6748d	0.08127699
127	0x3d00eef4	0.031477883
128	0xbc78b53c	-0.015179928
129	0x3dd20205	0.102542914
130	0xbe1eadca	-0.15495983
131	0x3dc0c258	0.09412068
132	0x3cdaaff3	0.026695227
133	0xbdded1a6	-0.10879831
134	0xbe0220a2	-0.12707761
135	0xbdf78076	-0.12085049
136	0xbddea195	-0.10870663
137	0xbe4f9e16	-0.20275149
138	0xbe9c1459	-0.30484274
139	0xbe0bda47	-0.13657485
140	0xbdadc408	-0.084846556
141	0xbe7243ef	-0.23658727
142	0xbee2166d	-0.44157735
143	0xbe0c3124	-0.1369062
144	0x3d81dc2b	0.06340822
145	0xbe99f530	-0.30069876
146	0xbe2b716d	-0.16742487
147	0x3d0cdd36	0.03439065
148	0x3e29754d	0.16548653
149	0x3e17c13c	0.14819807
150	0xbdf5c526	-0.12000494
151	0x3c9e8f50	0.019355446
152	0xbcac74d8	-0.02105181
153	0x3d3757a2	0.044761308
154	0x3dc75ce4	0.09734514
155	0x3dd86afb	0.1056728
156	0x3d83b482	0.064309135
157	0x3e6da8d7	0.23208939
158	0x3e5bfc4f	0.21482967
159	0x3d615a38	0.05501768
160	0x3d9223c3	0.07135727
161	0x3e29f001	0.1659546
162	0x3e12b923	0.14328437
163	0x3e15dd2c	0.14635152
164	0xbe114240	-0.14185429
165	0xbe099999	-0.13437499
166	0xbde647f7	-0.11244195
167	0xbe5cabe6	-0.21549949
168	0xbec218ca	-0.37909538
169	0xbea46411	-0.32107595
170	0xbdfba0bb	-0.12286516
171	0xbe78ccbe	-0.24296853
172	0xbec68d5b	-0.3877972
173	0xbe93b7da	-0.28851205
174	0x3d378bf1	0.044811193
175	0x3b80dd64	0.003932642
176	0xbcc0b048	-0.023521557
177	0x3ce691e0	0.02814573
178	0x3e01a45f	0.12660359
179	0xbc3fa9ba	-0.011698181
180	0x3d6e2a37	0.058145728
181	0x3e3b0d0f	0.182667
182	0x3e1eb953	0.15500383
183	0x3e128947	0.1431018
184	0xbd908bd3	-0.07057919
185	0xbe16f420	-0.14741564
186	0xbe3c0346	-0.18360624
187	0xbe8841b5	-0.2661263
188	0xbebf5bad	-0.3737463
189	0xbea88691	-0.32915166
190	0x3cec1090	0.028816491
191	0xbe6c1528	-0.23054945
192	0xbef9bc34	-0.487764
193	0xbea1675e	-0.31524175
194	0xbdab03fc	-0.08350369
195	0x3db596b1	0.08866633
196	0x3cb4f7d3	0.022090828
197	0xbe38ee37	-0.18059622
198	0xbe8e8600	-0.2783661
199	0xbc9bdeae	-0.01902708
200	0xbcdefdc2	-0.02722061
201	0xbcb1b6eb	-0.021693667
202	0x3cf61f11	0.03004411
203	0x3e90aa8f	0.28255126
204	0x3e1195f2	0.14217356
205	0xbcc2780a	-0.02373888
206	0xbdfa92b0	-0.1223501
207	0x3d8e64f5	0.0695285
208	0x3e9105cb	0.28324732
209	0x3e8bd032	0.27307278
210	0xbd3a0b46	-0.045420907
211	0xbd6e8f8f	-0.058242377
212	0x3bc05e2a	0.0058706
213	0x3dd90319	0.10596294
214	0xbe8861da	-0.26637155
215	0xbe46d9dd	-0.19419046
216	0xbe2e299f	-0.17008065
217	0xbe1cfab4	-0.1533001
218	0xbed095f9	-0.4073942
219	0xbe90ca72	-0.28279454
220	0xbd1c0fac	-0.038100883
221	0x3d47c704	0.04877378
222	0x3e3e43aa	0.185805
223	0xbccb2a14	-0.024800338
224	0x3e2029d3	0.15640955
225	0xbe75b03f	-0.23993014
226	0xbd137cd0	-0.036007702
227	0x3e0260c2	0.12732223
228	0x3dbae7b8	0.09126228
229	0x3e280e60	0.16411734
230	0xbcc3931d	-0.02387386
231	0x3d6d5e7d	0.05795144
232	0x3e9f4417	0.31106636
233	0x3eb27af4	0.3485943
234	0x3e2a13c4	0.16609102
235	0xbdd43757	-0.10362118
236	0x3e1c77e3	0.15280108
237	0x3e4e329b	0.20136492
238	0x3b9785e3	0.004624115
239	0xbeeb3fe3	-0.4594718
240	0xbeb3365b	-0.35002407
241	0xbe544a74	-0.20731527
242	0xbeb0ceeb	-0.34532866
243	0xbf2808e8	-0.6563859
244	0xbb98fc20	-0.0046687275
245	0xbe769169	-0.24078907
246	0xbe9b2d95	-0.30308214
247	0xbe412f11	-0.1886561
248	0xbd75640e	-0.059909873
249	0x3e049895	0.1294883
250	0xbe4f7772	-0.20260409
251	0xbc94d7b1	-0.018169256
252	0xbc997230	-0.018731207
253	0xbd031430	-0.032001674
254	0x3e07b4e6	0.13252601
255	0xbe12ef78	-0.14349163

features.3.bias f4 [16]
0	0xbd38ffdf	-0.045165893
1	0x3dc292fd	0.09500692
2	0x3e9a31af	0.3011603
3	0x3d9bec0c	0.07613382
4	0xbe11a904	-0.1422463
5	0x3e7aac48	0.24479783
6	0x3e260818	0.16214025
7	0x3e442c81	0.19157602
8	0x3e079e76	0.13244042
9	0x3d864146	0.06555419
10	0xbdc69d76	-0.09698002
11	0x3e7d4d74	0.24736577
12	0x3e6e163c	0.23250669
13	0x3e869690	0.26286745
14	0x3e36c8ad	0.17849989
15	0x3dfc21b4	0.12311116

features.6.weight f4 [120, 16, 5, 5]
0	0xbe5306ab	-0.20608012
1	0xbdbacdb4	-0.09121266
2	0xbdfdfae5	-0.1240137
3	0x3c34872b	0.011018555
4	0x3e15d0ca	0.14630428
5	0xbf32fa3b	-0.6991307
6	0xbd75fd64	-0.060056105
7	0xbaa1e690	-0.0012352038
8	0xbd9f55ba	-0.07780023
9	0xbdbb8ff7	-0.091583185
10	0xbed9f4c2	-0.42569548
11	0xbec2c04c	-0.38037336
12	0xbe1d97f3	-0.15389995
13	0xbda497b4	-0.080367476
14	0xbdf71ac0	-0.12065649
15	0xbe3726c5	-0.17885883
16	0xbdba9ebd	-0.09112308
17	0xbc9fc90e	-0.01950505
18	0x3d86d288	0.065831244
19	0x3d80dcba	0.062921
20	0xbe40a921	-0.18814518
21	0xbd9aba76	-0.07555096
22	0x3dbf85be	0.09351681
23	0x3dafab95	0.085776486
24	0x3d51053d	0.051030386
25	0x3e462821	0.19351245
26	0x3ee629b9	0.44953707
27	0x3d928b6a	0.07155497
28	0x3e34c4c3	0.17653184
29	0x3ded5bbb	0.11589762
30	0xbce46ccb	-0.027883908
31	0x3d1c2783	0.03812362
32	0xbd2df257	-0.04246744
33	0x3da97cc8	0.08275753
34	0x3e776a8a	0.24161735
35	0x3e2657a1	0.16244365
36	0x3e46504b	0.19366567
37	0x3e882f9d	0.26598826
38	0x3dd0f311	0.10202611
39	0x3e99ca16	0.30036992
40	0x3dd2aebc	0.10287234
41	0xbc4abdd1	-0.012374357
42	0xbdab38ab	-0.08360418
43	0xbe17936f	-0.14802335
44	0xbdc90af9	-0.09816546
45	0x3dbffa98	0.09373969
46	0x3d02475c	0.031806335
47	0xbdb33cb6	-0.08751814
48	0xbd2f3150	-0.042771637
49	0xbdc8c2ab	-0.09802755
50	0x3bf89230	0.0075857863
51	0x3e0dce47	0.1384822
52	0x3e096c4f	0.13420223
53	0x3d492bc4	0.049114004
54	0x3e27914e	0.16364023
55	0xbc800cb9	-0.015631067
56	0x3c326a9a	0.010889674
57	0x3d8b4803	0.068008445
58	0xbcedb3a7	-0.029016329
59	0x3d659606	0.056051277
60	0xbee0541d	-0.43814173
61	0xbcb9f6c6	-0.022700679
62	0x3cc43358	0.023950264
63	0x3d458e91	0.048231665
64	0xbc4a9520	-0.012364656
65	0x3e0ebb02	0.13938525
66	0xbda8f384	-0.08249572
67	0xbd85bb3d	-0.065298535
68	0x3d21a6eb	0.039465826
69	0xbd083d96	-0.033261858
70	0x3d9b3e1b	0.07580205
71	0xbcc42e68	-0.02394791
72	0x3d758ab5	0.059946734
73	0x3d0f2df2	0.034955926
74	0x3cb427a3	0.021991557
75	0xbd676558	-0.056493133
76	0xbe01fb5e	-0.12693545
77	0xbd76275b	-0.060096126
78	0xbe4c5ac9	-0.19956507
79	0xbc805a03	-0.015667921
80	0xbe9a6366	-0.3015396
81	0xbe5b5b4b	-0.21421544
82	0xbe1f3b83	-0.15550046
83	0xbe0dec9c	-0.1385979
84	0x3d9048c9	0.07045133
85	0xbe19a4e4	-0.15004307
86	0x3c86aa90	0.016438752
87	0xbddadb68	-0.1068638
88	0xbe3783d9	-0.1792139
89	0xbe8d89ea	-0.27644283
90	0xbaf774a3	-0.0018879365
91	0x3db94e38	0.09048122
92	0xbcf7a458	-0.030229732
93	0xbd9586c8	-0.07301098
94	0xbe4e4f65	-0.20147474
95	0xbe1f7732	-0.15572813
96	0xbccb1ea2	-0.02479488
97	0x3d60d4e3	0.054890525
98	0x3e2d7ad7	0.16941391
99	0x3def77ee	0.11692797
100	0xbde63b2f	-0.11241757
101	0xbdeb1529	-0.11478645
102	0xbef18d52	-0.4717813
103	0xbedb5930	-0.42841482
104	0x3cf507ad	0.029910887
105	0xbe3da460	-0.18519735
106	0x3db2ab59	0.08724088
107	0x3d84d4f7	0.06485932
108	0xbe1f85c4	-0.15578371
109	0x3d850e92	0.0649692
110	0xbe195e88	-0.14977467
111	0xbbbc65b0	-0.005749427
112	0xbe14f29a	-0.1454567
113	0xbdf7fdbf	-0.12108945
114	0xbe3bac69	-0.18327488
115	0xbdbfce25	-0.09365491
116	0xbd7f6576	-0.06235262
117	0xbe51c1d1	-0.20484091
118	0xbd91f259	-0.07126302
119	0x3dded61c	0.10880682
120	0x3da14942	0.07875301
121	0x3addf887	0.0016935029
122	0xbe832e36	-0.25621194
123	0x3dd4e3d1	0.10395015
124	0x3e205ed4	0.15661174
125	0xbe221027	-0.15826474
126	0xbe124af5	-0.14286406
127	0xbe2b1022	-0.16705373
128	0x3db8bfc1	0.09020949
129	0xbd0c0e3d	-0.034193266
130	0xbe762449	-0.24037279
131	0x3a51a02c	0.0007996585
132	0xbda90ecf	-0.08254778
133	0xbe8ae07b	-0.2712439
134	0xbdee1a0a	-0.1162606
135	0x3cf1a530	0.029497713
136	0xbd9ed80d	-0.07756052
137	0x3e11089d	0.14163442
138	0x3cc0d3be	0.023538467
139	0xbc6781fe	-0.014130114
140	0x3e2dd133	0.16974334
141	0x3dd46ba6	0.10372095
142	0x3e682a55	0.22672398
143	0x3d015ee0	0.03158462
144	0x3cf1e8cf	0.029529957
145	0x3e75496f	0.23953794
146	0x3d97a620	0.07404733
147	0xbd0711a1	-0.032975797
148	0xbdcb83fb	-0.09937283
149	0xbe13d61a	-0.14437142
150	0x3e6faf34	0.23406678
151	0xbcabd4c6	-0.020975482
152	0x3d9b9f2d	0.0759872
153	0xbd501220	-0.050798535
154	0x3d9402b5	0.07227079
155	0x3d4aeede	0.049544208
156	0xbe13b18f	-0.14423202
157	0xbd7cd311	-0.061724726
158	0x3d9226fc	0.07136342
159	0xbd20ca65	-0.03925552
160	0xbdc892d3	-0.097936295
161	0xbe276ae9	-0.16349377
162	0x3c09f36c	0.008419853
163	0x3c887564	0.016657539
164	0xbdc3df49	-0.09564073
165	0x3d3025b1	0.043004695
166	0xbe9dc0b2	-0.30811077
167	0xbc9062d0	-0.017625242
168	0xbcf3f58e	-0.029780176
169	0xbe1962b7	-0.14979063
170	0x3e22695d	0.15860505
171	0xbc1a5dc7	-0.009421772
172	0xbd4958cb	-0.049156945
173	0x3ce123a1	0.02748281
174	0x3c68d1b4	0.014210153
175	0xbda1a6ea	-0.078931645
176	0x3e0cd872	0.13754442
177	0x3e852fff	0.2601318
178	0x3dde0607	0.108409934
179	0x3d9c326c	0.07626805
180	0x3e874674	0.2642094
181	0x3de1a7e5	0.110183515
182	0x3e11d12e	0.14239952
183	0x3dec8355	0.11548487
184	0x3e0156e2	0.126308
185	0x3d92e6bb	0.071729146
186	0xbe020ee6	-0.12700996
187	0xbda0c521	-0.07850099
188	0x3e7bea26	0.2460104
189	0x3c54f467	0.012997723
190	0x3c407ca4	0.011748467
191	0x3d229caa	0.039700188
192	0xbd68bff5	-0.05682369
193	0x3d9f1f1a	0.07769604
194	0xbe57cfe4	-0.21075398
195	0x3e5e2411	0.21693446
196	0xbd17dd29	-0.03707615
197	0xbbbe0bff	-0.00579977
198	0xbc05dd6e	-0.008170469
199	0xbcdcdecb	-0.026961705
200	0xbc93eef2	-0.018058274
201	0xbdd017e3	-0.10160806
202	0x3c9d5e40	0.019209981
203	0x3d7a9925	0.061181206
204	0xbc2b6302	-0.010460617
205	0xbe5c04b7	-0.21486174
206	0xbe4bf0ad	-0.1991603
207	0xbc40e5dc	-0.011773553
208	0xbe19dd5d	-0.1502585
209	0x3ddc804d	0.10766659
210	0xbd7b91c7	-0.06141832
211	0xbe3b3479	-0.18281735
212	0x3d076751	0.033057515
213	0xbe2e46b6	-0.17019162
214	0x3d336907	0.043801334
215	0x3e282cd3	0.16423349
216	0x3d665f0e	0.056242995
217	0x3d5e8f9d	0.05433618
218	0xbd12312d	-0.03569143
219	0xbe071087	-0.13189898
220	0xbd8cf046	-0.06881766
221	0x3e59da4f	0.21274684
222	0x3d2452b2	0.040117927
223	0xbd012cf3	-0.031537008
224	0x3d740ed9	0.059584472
225	0x3d487306	0.04893782
226	0xbd3580c5	-0.044312257
227	0x3df08102	0.11743356
228	0xbd9b5d4e	-0.07586156
229	0xbde21fb9	-0.11041207
230	0x3e1448d0	0.14480901
231	0xbcd3a5be	-0.025835868
232	0x3d5ea62f	0.054357704
233	0x3d641dee	0.055692606
234	0x3e26e236	0.1629723
235	0xbe8d83c4	-0.27639592
236	0x3dc538c7	0.0962997
237	0x3e072149	0.13196291
238	0x3e13d913	0.14438276
239	0x3d20d543	0.039265882
240	0xbdaf3d49	-0.08556611
241	0xbdd8a8fc	-0.10579106
242	0xbe9bbc27	-0.30416986
243	0xbdf31462	-0.11869122
244	0x3d1595ef	0.03651994
245	0x3d25b8a2	0.040459283
246	0xbdb451f6	-0.08804695
247	0xbdade0ef	-0.08490168
248	0xbc83995b	-0.016064337
249	0xbd33c432	-0.04388828
250	0xbd7af575	-0.061269242
251	0x3e419f80	0.189085
252	0xbe76872e	-0.24075004
253	0xbd1bd985	-0.03804924
254	0xbdcee94b	-0.10103091
255	0xbe900dbb	-0.28135476

features.6.bias f4 [120]
0	0x3e0dd418	0.13850439
1	0x3d88c4ab	0.066781364
2	0xbcbd60bb	-0.023117414
3	0x3f00f0a7	0.50367206
4	0x3b8402f8	0.004028674
5	0x3d9917ac	0.07475218
6	0x3d3e9d97	0.046537008
7	0x3dd08ae9	0.10182745
8	0xbc14969a	-0.009069109
9	0x3d6bac50	0.057537377
10	0x3b402820	0.0029320791
11	0xbd80eaa1	-0.06294752
12	0x3e7bb75a	0.24581662
13	0x3e420b30	0.1894958
14	0xbd184d2b	-0.037182968
15	0xbcb335b5	-0.021876195
16	0x3d86a2b9	0.06574006
17	0x3d7c195c	0.061547622
18	0x3e655d4e	0.22398874
19	0xbcf8ec0d	-0.030385995
20	0x3d907248	0.070530474
21	0xbe32199a	-0.17392579
22	0x3d1722d9	0.036898468
23	0xbe02c49e	-0.12770316
24	0x3e0fefdd	0.14056344
25	0x3eed1c75	0.46310773
26	0x3df21aa1	0.11821485
27	0x3e156656	0.1458982
28	0x3e577da1	0.21044017
29	0x3e08e3d4	0.1336816
30	0xbdb1e1c9	-0.08685643
31	0xbceaadc8	-0.028647318
32	0xbd071e16	-0.032987677
33	0xbd51846f	-0.05115169
34	0x3e47eb2e	0.19523308
35	0x3e538acc	0.20658416
36	0x3e84e1ae	0.2595343
37	0x3d770379	0.060306046
38	0xbda4a862	-0.08039929
39	0xbc12eb37	-0.008967212
40	0xbb11b71f	-0.0022234393
41	0x3e683421	0.22676136
42	0x3c2e41f7	0.010635844
43	0x3d9272b5	0.07150785
44	0xbb9ee4e6	-0.004849064
45	0xbd3b5670	-0.04573673
46	0xbcd58fbf	-0.02606952
47	0xbc7ebe57	-0.01554831
48	0xbd699c04	-0.057033554
49	0xbd3ff716	-0.0468665
50	0xbd17e3f7	-0.03708264
51	0x3ea65350	0.32485437
52	0xbd5142b9	-0.051089022
53	0x3dc4dd77	0.096125536
54	0x3e051de3	0.12999682
55	0x3d2ba9f6	0.041910134
56	0x3d863cf7	0.06554597
57	0x3e8dca8a	0.27693588
58	0x3c9e491c	0.01932197
59	0x3e1951a5	0.14972551
60	0x3e84ae51	0.25914243
61	0x3d19e3d0	0.037570775
62	0xbc2ae358	-0.01043018
63	0x3c63c87a	0.013902778
64	0x3c35684f	0.011072232
65	0xbd5ad75f	-0.05342805
66	0x3eae4a07	0.34040853
67	0x3e456bb9	0.19279374
68	0x3cabbb89	0.020963447
69	0x3bd1902c	0.0063953605
70	0xbe2cbebf	-0.16869639
71	0x3de86780	0.11347866
72	0x3e9f8964	0.31159508
73	0x3e74a184	0.23889738
74	0xbce7ae44	-0.028281339
75	0xbbb08145	-0.005386504
76	0x3eeadce0	0.4587164
77	0xbc815964	-0.015789695
78	0x3e147603	0.14498143
79	0x3bc0e5df	0.005886778
80	0xbd9237e7	-0.07139569
81	0xbda71a4a	-0.08159311
82	0x3bb84623	0.0056235953
83	0x3ece67f2	0.4031368
84	0x3e8c218d	0.27369347
85	0x3d8c1bee	0.06841265
86	0x3ddcdfd8	0.10784882
87	0x3daad637	0.083416395
88	0x3e0c5a96	0.13706431
89	0x3ebcea3d	0.3689746
90	0x3db2d602	0.08732225
91	0xbb3ef52e	-0.0029137838
92	0xbdfaf663	-0.12254026
93	0x3e2c5c15	0.16832002
94	0x3da22b26	0.07918386
95	0x3cb5fa75	0.022214154
96	0x3f0bd8fe	0.5462798
97	0x3d921232	0.07132377
98	0xbd6c117e	-0.05763387
99	0x3bd6b815	0.006552706
100	0x3e1ad38f	0.15119766
101	0x3e143688	0.14473927
102	0xbc231506	-0.009953743
103	0xbd864842	-0.06556751
104	0xbdbfe661	-0.09370113
105	0x3e3cd4a8	0.18440497
106	0xbcdb06e9	-0.026736693
107	0xbc4568e9	-0.012048938
108	0xbdd04e4d	-0.10171185
109	0x3e20b913	0.156956
110	0xbb86e279	-0.004116353
111	0x3e881fa9	0.26586655
112	0x3e5114bf	0.2041807
113	0x3e06ef0d	0.13177128
114	0x3c688d0c	0.014193784
115	0x3c61c899	0.013780736
116	0x3d12d1ae	0.035844497
117	0xbd0b5718	-0.034018606
118	0xbd5ef6c2	-0.054434545
119	0x3db9d8af	0.09074532

classifier.0.weight f4 [84, 120]
0	0x3ee05391	0.43813756
1	0xbd5052d1	-0.05086023
2	0xbc079506	-0.008275276
3	0x3e4c57ff	0.19955443
4	0x3ca63703	0.020289904
5	0xbeaa6420	-0.33279514
6	0xbdb12f21	-0.08651567
7	0xbcf2ec1c	-0.029653601
8	0x3d8b1ae0	0.067922354
9	0xbdf3ed0a	-0.11910446
10	0xbd4818a5	-0.048851628
11	0xbb7dff24	-0.0038756812
12	0xbcdeb66b	-0.027186593
13	0xbe1dc99f	-0.15408944
14	0x3dac09f4	0.08400336
15	0x3e717453	0.2357953
16	0xbc4317b4	-0.011907507
17	0x3f03fd46	0.5155834
18	0x3d422b6b	0.047404688
19	0x3d90e545	0.0707498
20	0x3e3935ae	0.18086883
21	0xbec412cf	-0.382956
22	0x3e7d0a8d	0.24711056
23	0xbf0aaefa	-0.54173243
24	0x3d835cc8	0.06414181
25	0x39c8ee15	0.00038324358
26	0x3d9c9934	0.07646409
27	0xbd06f032	-0.03294391
28	0xbc300216	-0.010742685
29	0xbd5432fa	-0.051806428
30	0x3b38cc93	0.0028198108
31	0x3ea3efe9	0.32018974
32	0x3ceef4a8	0.029169396
33	0x3d942fb9	0.07235665
34	0x3d1cfcf3	0.03832717
35	0xba328c56	-0.0006811073
36	0x3e112790	0.14175248
37	0xbc8b8d80	-0.017035246
38	0xbc08f4e0	-0.008359164
39	0x3d3ebba1	0.046565656
40	0xbd398fb1	-0.04530305
41	0x3d431dc8	0.047635823
42	0xbc075bc6	-0.008261627
43	0x3e866900	0.26251984
44	0xbe45ab1a	-0.19303551
45	0x3d75b3ac	0.0599858
46	0xbdb59ed4	-0.08868185
47	0x3e8ea5ee	0.2786097
48	0x3b96ff66	0.0046080826
49	0xbdff3b34	-0.12462464
50	0xbbe08b1b	-0.00685252
51	0xbe0dad07	-0.13835536
52	0xbcfe0a9b	-0.031010916
53	0xbe70d4a5	-0.23518617
54	0x3daa9c42	0.08330585
55	0xba76acd2	-0.00094099075
56	0xbf038979	-0.5138164
57	0x3dd1ce8c	0.10244474
58	0x3e33b2f7	0.17548738
59	0x3df5932e	0.11990963
60	0x3cee050d	0.029055143
61	0xbdd34359	-0.1031558
62	0xbc353e77	-0.011062256
63	0xbdb01bbd	-0.08599041
64	0x3f41438c	0.75493693
65	0xbca2dc08	-0.01988031
66	0x3db19fdd	0.086730696
67	0xbd90a0da	-0.0706193
68	0x3d9e7d87	0.07738786
69	0x3b2e74dc	0.0026619947
70	0x39d7fe5e	0.00041197514
71	0x3dd63104	0.10458568
72	0x3de7eb56	0.11324184
73	0x3e19e0ca	0.15027156
74	0xbb3b5afa	-0.0028588162
75	0xbd46466d	-0.048407007
76	0x3e5bd9ad	0.21469755
77	0xbd342fce	-0.043990903
78	0x3da23880	0.07920933
79	0x3d139f3e	0.036040537
80	0x3d147a64	0.036249533
81	0xbdc00f12	-0.093778744
82	0x3d7bfc37	0.061519828
83	0x3d8c8581	0.06861401
84	0x3c3d80e5	0.011566375
85	0x3e47f000	0.19525146
86	0xbdd6b400	-0.10483551
87	0xbdd00dea	-0.10158904
88	0x3dc310d1	0.09524692
89	0xbc992c50	-0.018697888
90	0xbb92c49a	-0.004479003
91	0xbd9cfb7a	-0.07665153
92	0xbed0075d	-0.40630618
93	0x3db36fe5	0.087615766
94	0x3da34c9f	0.07973599
95	0x3e542c39	0.20719995
96	0x3da297c1	0.07939101
97	0xbc53f242	-0.012936177
98	0xbcacdd39	-0.021101581
99	0xbdad91dd	-0.08475087
100	0xbe223345	-0.1583987
101	0x3e5f340b	0.21797197
102	0xbe40b82c	-0.18820256
103	0x3e3fe55c	0.18739837
104	0xbda40d31	-0.080103286
105	0x3edbeb21	0.42952827
106	0x3dc1d8c0	0.0946517
107	0xbd37442a	-0.04474274
108	0xbd334001	-0.04376221
109	0xbe8b443f	-0.27200505
110	0xbe850de1	-0.2598715
111	0x3e225396	0.15852198
112	0x3e5b3397	0.21406399
113	0xbce1a6fb	-0.027545443
114	0xbe0e19a2	-0.13876966
115	0x3d62480e	0.055244498
116	0xbdc35dac	-0.09539351
117	0xbd1a40fe	-0.037659638
118	0x3daa28c5	0.083085574
119	0x3d4578de	0.04821097
120	0xbe12cb10	-0.14335275
121	0xbe697e04	-0.22801977
122	0xbd32b769	-0.043631945
123	0x3d7ec228	0.06219688
124	0xbd3cdf20	-0.046111226
125	0x3dc37e92	0.09545626
126	0xbcbfd300	-0.023416042
127	0x3dd2e586	0.10297684
128	0xbd24e123	-0.04025377
129	0x3cd7ee4b	0.026358744
130	0xbdd272cd	-0.10275803
131	0xbd842e7e	-0.0645418
132	0xbc853a21	-0.01626307
133	0xbe02454e	-0.1272175
134	0xbd345992	-0.044030733
135	0x3d8076ca	0.06272657
136	0xbd8fe865	-0.070267476
137	0xbdccea73	-0.10005655
138	0xbc92fe8b	-0.017943641
139	0x3ca17d10	0.019712955
140	0x3ddbb2af	0.107274406
141	0x3d2bc62e	0.041937046
142	0x3e190611	0.1494372
143	0xbd1fc2af	-0.039004024
144	0xbe3a62f3	-0.18201809
145	0x3dcd6b11	0.10030187
146	0x3df7ad35	0.120935835
147	0x3b6c4af5	0.003605542
148	0xbe0ca8b3	-0.13736229
149	0xbe292e69	-0.1652161
150	0x3d989a7a	0.07451339
151	0xbe0e05db	-0.13869421
152	0xbcb49352	-0.022042904
153	0xbd30d18a	-0.043168582
154	0x3d1e74ec	0.038685724
155	0xbcb1b44d	-0.02169242
156	0xbd7302db	-0.059328895
157	0x3db8801f	0.09008812
158	0xbd6b222a	-0.05740563
159	0xbd6e4ab6	-0.05817672
160	0xbceb7999	-0.028744506
161	0xbc09366d	-0.0083747925
162	0xbd9f6260	-0.077824354
163	0x3e15d03f	0.14630221
164	0xbccfedc8	-0.025381938
165	0x3d028b9c	0.031871423
166	0x3d96778b	0.0734702
167	0xbd967bfb	-0.07347866
168	0x3d569845	0.05239131
169	0x3d35d409	0.044391666
170	0x3cfcfdf3	0.030882811
171	0xbd5f10e2	-0.05445946
172	0x3e2a380f	0.16622947
173	0xbdeb3b05	-0.114858665
174	0xbcbc5b5d	-0.022992784
175	0x3d9dd213	0.07706084
176	0x3d1fd551	0.039021794
177	0x3dcbe704	0.09956172
178	0xba060b8a	-0.0005113414
179	0xbc9260a6	-0.017868351
180	0x3d4c289e	0.049843423
181	0x3d3aec00	0.045635223
182	0x3c035ff0	0.008018479
183	0x3db6e00c	0.08929452
184	0x3df2c740	0.1185441
185	0x3c67ed73	0.014155733
186	0xbe16078a	-0.14651313
187	0xbe54ec80	-0.20793343
188	0x3d09b0fa	0.033616044
189	0x3dcc1a8e	0.099660024
190	0x3da8beeb	0.0823954
191	0xbe7148ef	-0.23562978
192	0x3d922fb4	0.07138005
193	0xbe443a33	-0.19162826
194	0x3d9967d0	0.07490504
195	0x3b9f8253	0.004867831
196	0x3d866003	0.065612815
197	0xbd9458e9	-0.07243521
198	0xb9eb4c9d	-0.00044879774
199	0xbd9e1440	-0.07718706
200	0xbd181ac0	-0.037134886
201	0x3e5b51ef	0.21417974
202	0xbd0f313d	-0.034959067
203	0x3d6c5fba	0.05770848
204	0x3da063ff	0.07831573
205	0xbec2a1aa	-0.38013965
206	0xbda41ac0	-0.08012915
207	0xbd8b2a1f	-0.06795143
208	0x3e06deab	0.13170879
209	0xbd727697	-0.059195127
210	0x3dc0fd49	0.0942331
211	0xbd20e6be	-0.039282553
212	0x3d9761a2	0.07391669
213	0x3e76612f	0.2406051
214	0xbdbbbb1b	-0.09166547
215	0xbd142bd8	-0.036174625
216	0x3d267e17	0.040647592
217	0xbb9c21ab	-0.0047647557
218	0xbd32621a	-0.04355059
219	0xbd8ab1b3	-0.06772175
220	0xbd2b18d7	-0.041771736
221	0xbd3cd261	-0.04609907
222	0x3cc389f5	0.023869494
223	0x3d8a6582	0.06757642
224	0x3d03a407	0.03213885
225	0xbca31966	-0.019909572
226	0x3c2f7787	0.01070965
227	0xbd615f99	-0.05502281
228	0x3cb71967	0.02235098
229	0x3b199daf	0.0023439934
230	0xbe2e52be	-0.17023751
231	0x3dc2408f	0.0948497
232	0x3dcd1d9a	0.10015412
233	0xbce616b7	-0.028087003
234	0xbe50e33e	-0.20399186
235	0x3d8b08c0	0.06788778
236	0x3dc17655	0.09446398
237	0x3c9c6354	0.019090332
238	0xbb8c23bd	-0.0042767213
239	0x3d82d24c	0.06387767
240	0xbddc903c	-0.10769698
241	0x3d225a6f	0.039637025
242	0xbd86fde8	-0.065913975
243	0x3d1b1da4	0.037870064
244	0xbdb39715	-0.08769051
245	0x3cf42e98	0.029807374
246	0xbd8656da	-0.06559534
247	0x3d93f226	0.072239205
248	0x3e4b7ce0	0.19871855
249	0x3d949ce1	0.07256485
250	0xbc791e01	-0.015204907
251	0x3c7408a2	0.014894636
252	0x3e01977d	0.12655444
253	0x3e61d2ce	0.22053072
254	0x3a51fbe9	0.0008010255
255	0xbe2226a9	-0.1583506

classifier.0.bias f4 [84]
0	0x3e95e3e4	0.2927543
1	0x3e5bfee0	0.21483946
2	0x3e6920fb	0.22766487
3	0x3e25fd3b	0.16209881
4	0x3d93bded	0.0721396
5	0x3f0b0dbc	0.5431783
6	0x3ee2e579	0.443157
7	0x3e8eeb6c	0.27913988
8	0x3e45fee0	0.19335508
9	0x3c4b3a17	0.012403986
10	0x3e9b6b49	0.3035529
11	0x3d7ca55f	0.061681148
12	0x3d67e6a2	0.056616433
13	0xbd599c88	-0.053127795
14	0x3c46bb15	0.012129565
15	0x3bd01d23	0.0063511296
16	0x3e873641	0.2640858
17	0x3e73b257	0.237985
18	0x3f2a6288	0.66556597
19	0x3ead11b7	0.33802578
20	0x3ea124ee	0.31473488
21	0x3dba51db	0.09097644
22	0x3ea04ac5	0.31307045
23	0x3e64971f	0.22323273
24	0x3e2a53f6	0.16633591
25	0x3f382e24	0.71945405
26	0x3e1233c7	0.14277564
27	0xbdab4582	-0.08362867
28	0xbdce1778	-0.1006307
29	0x3d3aeec2	0.045637853
30	0xbdcb551d	-0.099283434
31	0x3e8b1d83	0.27170953
32	0x3ea35bbe	0.3190593
33	0xbd82672c	-0.06367335
34	0x3ef59c63	0.47970876
35	0x3ec4da0a	0.384476
36	0x3f249d09	0.64302117
37	0x3eb47080	0.3524208
38	0x3ec8f4e8	0.3924935
39	0x3f96b4fa	1.177398
40	0x3e97390a	0.29535705
41	0x3e2b2060	0.16711569
42	0xbdcbdc57	-0.09954136
43	0x3d2919f7	0.041284528
44	0x3e9d7af9	0.30757883
45	0xbdf6c3f8	-0.12049097
46	0x3c96cc8c	0.018408082
47	0x3ce527ef	0.027973143
48	0x3c929a86	0.017895948
49	0x3e884247	0.26613066
50	0xbe1938cc	-0.14963073
51	0xbdca7ce9	-0.09887106
52	0x3e77cd75	0.2419947
53	0x3eeab6a2	0.45842463
54	0x3eb95cf4	0.3620373
55	0x3d343823	0.04399885
56	0x3ea3e240	0.32008553
57	0x3e24b129	0.16083206
58	0xbdb7b396	-0.089698
59	0xbdc1d4f8	-0.09464449
60	0x3eb4de28	0.35325742
61	0xbd60a74d	-0.05484705
62	0x3db1fa67	0.086903386
63	0x3e93e07e	0.2888221
64	0x3ea28323	0.31740674
65	0x3f606164	0.87648606
66	0xbda11bd6	-0.078666374
67	0x3dfc7f3f	0.12328958
68	0x3e9c3cfd	0.3051528
69	0xbdbf9188	-0.0935393
70	0x3eb53304	0.35390484
71	0x3e6b4444	0.2297526
72	0xbcd62fd6	-0.026145857
73	0x3dbce47a	0.09223266
74	0x3e21aced	0.15788622
75	0x3e4a96e1	0.19784118
76	0xbd05e715	-0.03269108
77	0xbde5a321	-0.11212755
78	0x3d6df3d9	0.05809388
79	0x3c949e24	0.018141814
80	0x3e8f2ff3	0.2796627
81	0xbda6edbd	-0.08150814
82	0x3ca8e823	0.020618504
83	0xbd9e7495	-0.0773708

classifier.2.weight f4 [10, 84]
0	0xbfbfe4ce	-1.4991701
1	0x3b8a9ab2	0.004229867
2	0x3d462ba2	0.048381455
3	0x3b6982dc	0.0035630977
4	0x3c7548e4	0.014970992
5	0xbe62a53d	-0.22133346
6	0x3d1a6e11	0.037702624
7	0xbf928308	-1.1446238
8	0x3dc2c5dc	0.09510395
9	0xbe8413db	-0.257964
10	0xb6d16be7	-6.241247e-06
11	0x3e35764c	0.17720908
12	0xbf46e9b3	-0.77700347
13	0xbda72738	-0.08161777
14	0xbdd5f556	-0.10447185
15	0xbd59280f	-0.05301672
16	0x3d91bb6f	0.07115828
17	0xbc443745	-0.011976068
18	0x3db5461d	0.08851264
19	0xbd364386	-0.04449799
20	0xbf9acf1a	-1.2094452
21	0xbe0c7a4a	-0.13718525
22	0x3dcaf4f7	0.099100046
23	0xbe641f61	-0.22277595
24	0xbd967e44	-0.07348302
25	0xbcf63185	-0.03005291
26	0xbd817107	-0.063203864
27	0x3e296b37	0.16544805
28	0x3d3f2727	0.046668198
29	0xbeaa4393	-0.3325468
30	0x3ae46f73	0.0017428234
31	0xbaf05c14	-0.0018337988
32	0x3df11b83	0.117728256
33	0xbd9d1349	-0.07669694
34	0x3c5d1171	0.013492928
35	0x3cc952e6	0.024575662
36	0x3b82049d	0.003967835
37	0xbdfa0251	-0.12207473
38	0x3d69c2fa	0.05707071
39	0xbd797919	-0.060906503
40	0x393d1546	0.0001803237
41	0x3dcd9b10	0.100393414
42	0xbd319a12	-0.043359824
43	0x3e28cd71	0.1648462
44	0xbd6798d5	-0.056542236
45	0x3cdb3a56	0.026761215
46	0x3ddf6b17	0.10909098
47	0xbda55444	-0.08072713
48	0xbdd5d048	-0.10440117
49	0x3c2d70a1	0.010585935
50	0xbeac9948	-0.33710694
51	0xbd2acaf9	-0.041697476
52	0xbbedb4f0	-0.0072542354
53	0x3d97ee67	0.074185185
54	0xbd36eecd	-0.044661332
55	0xbb24db52	-0.002515514
56	0xbe0b89e3	-0.13626818
57	0x3d74c8ae	0.059761696
58	0xbdbd94ac	-0.092568725
59	0x3d45613b	0.04818843
60	0x3c45c6b4	0.0120713
61	0xbcfe6645	-0.031054625
62	0xbe37bb14	-0.17942458
63	0x3bc0e26a	0.0058863657
64	0x3c2a5b88	0.010397799
65	0xbdff86c9	-0.1247688
66	0x3d1850ef	0.03718656
67	0x3cdf00e3	0.027222103
68	0x38a1a274	7.7073375e-05
69	0x3cbb8d84	0.022894628
70	0x3c8f108f	0.01746395
71	0x3d68f0f0	0.0568704
72	0x3be93617	0.0071170437
73	0xbab352c0	-0.0013681278
74	0xbcfdcdc3	-0.030981904
75	0xbe2bfdbd	-0.16796012
76	0x3d9466d2	0.07246174
77	0x3b2c8b32	0.0026328084
78	0xbb4c71de	-0.00311958
79	0xbe4f8229	-0.20264496
80	0x386c7615	5.6376757e-05
81	0xbd4dd7e0	-0.050254703
82	0xbdd44f2f	-0.103666656
83	0x3bbbece9	0.005735029
84	0x3da2dcdd	0.079522826
85	0xbeb9bcb7	-0.3627679
86	0x3cc3cdda	0.023901869
87	0xbebc73b3	-0.36807021
88	0xbc8aae73	-0.016928887
89	0xbe2b61a3	-0.16736464
90	0xbdef807e	-0.1169443
91	0xbd4ba88e	-0.049721293
92	0xbe4a493e	-0.19754502
93	0xbd503301	-0.05082989
94	0xbde62668	-0.11237794
95	0x3e382bb1	0.17985417
96	0x3e9260ce	0.2858948
97	0x3dc1015d	0.09424088
98	0x3cc9b8b5	0.024624208
99	0xbd5e55a2	-0.054280885
100	0xba48a5f6	-0.00076541246
101	0xbe02ef9d	-0.12786718
102	0x3e2cd2c4	0.16877276
103	0xbda2c7f3	-0.079482935
104	0xbc3606dd	-0.011110035
105	0x3be0da2d	0.006861946
106	0xbf8eecfc	-1.1166072
107	0xbe89e6ad	-0.26933804
108	0xbce1f21c	-0.027581267
109	0x3bf33f1e	0.0074232956
110	0xbe383678	-0.17989528
111	0xbcfe739f	-0.031060992
112	0x3dc53dea	0.0963095
113	0x3c96e1c9	0.01841821
114	0xbba43e3f	-0.005012303
115	0xbf77de8b	-0.9682395
116	0xbc5c8d6e	-0.013461454
117	0x3d4ae35b	0.04953323
118	0xbe7a0861	-0.24417259
119	0x3c9bf426	0.019037317
120	0xbe1e92d3	-0.15485696
121	0xbe338eaf	-0.17534898
122	0xbda63444	-0.081154376
123	0xbd881da0	-0.066462755
124	0x3d7e1f65	0.06204166
125	0x3d05686d	0.03257029
126	0xbc30e5e5	-0.010796999
127	0xbc371a99	-0.011175775
128	0x3b65584b	0.0034995254
129	0xbdc73a9c	-0.09727976
130	0x3cdaca3e	0.026707765
131	0x3d242b8c	0.040080592
132	0x3e1f57f9	0.15560903
133	0x3e5113fd	0.20417781
134	0xbeec4838	-0.4614885
135	0xbd93dd42	-0.07219936
136	0x3dba3845	0.09092764
137	0xbe5d7b3a	-0.21629038
138	0xbe77001e	-0.24121138
139	0x3e2f4ad6	0.17118391
140	0x3cde771f	0.02715641
141	0xbd3952d1	-0.045244996
142	0xbd58b76b	-0.052909296
143	0x3d1dd96b	0.038537424
144	0xbfd8dec2	-1.694298
145	0x3d83efbe	0.064422116
146	0x3d4998f6	0.04921814
147	0xbe35af50	-0.17742658
148	0xbe7bb159	-0.24579372
149	0xbe0cec9e	-0.13762137
150	0xbdb5b268	-0.08871919
151	0xbdf3c122	-0.119020715
152	0xbd313e4f	-0.043272313
153	0x3c9c0cc4	0.019049056
154	0xbe82d14c	-0.25550306
155	0x3d8840a1	0.06652952
156	0xbbec1869	-0.0072050584
157	0x3da83625	0.08213452
158	0x3e5fb205	0.21845253
159	0x3e19631f	0.14979218
160	0x3d360d51	0.044446293
161	0xbcb03b7d	-0.021512741
162	0xb9b37fcd	-0.0003423676
163	0x3e364ae1	0.17802002
164	0xbd41c28c	-0.047304675
165	0xbc2a7521	-0.010403902
166	0xbda9d3a7	-0.082923226
167	0x3d0929d4	0.033487156
168	0xbfc8da8c	-1.5691695
169	0xbee564ca	-0.44803458
170	0x3deae158	0.11468762
171	0x3b81d2d6	0.003961901
172	0x3c91d818	0.017803237
173	0xbc0abef3	-0.008468377
174	0x3d0ef892	0.034905024
175	0x3d943aba	0.07237764
176	0x3e1d3737	0.15353094
177	0xbc2c3172	-0.010509836
178	0xbf6e79e7	-0.9315476
179	0xbcf88f38	-0.03034173
180	0x3d2f6a1e	0.04282581
181	0x3ca09d5c	0.019606285
182	0x3d5350f4	0.051590875
183	0x3d96c91b	0.073625766
184	0xbc0f978d	-0.00876416
185	0xbb99d1c6	-0.0046941964
186	0xbc1f5a1d	-0.0097260745
187	0x3d6a50bd	0.057205904
188	0x3dad5299	0.0846302
189	0xbe1198a1	-0.1421838
190	0xbc034e02	-0.008014204
191	0x3d1e2108	0.03860572
192	0x3ab259bc	0.0013607065
193	0xbe4fda91	-0.2029822
194	0x3cb322b2	0.02186713
195	0xbdc03992	-0.09385981
196	0x3ca259ca	0.019818205
197	0xbb3c0706	-0.002869071
198	0xbd0fc085	-0.03509571
199	0xbf7d21ab	-0.988795
200	0xbbcd39a1	-0.0062629734
201	0x3a0c2e94	0.0005347517
202	0x3e102a78	0.140787
203	0xbda3ecc1	-0.080041416
204	0xbb9155e6	-0.0044352887
205	0x3d76b3b2	0.060229965
206	0xbf75ac70	-0.95966244
207	0x3db1b027	0.086761765
208	0x3c072d5d	0.008250562
209	0x3d9317f2	0.071823016
210	0xbd38a82d	-0.04508226
211	0xbd6e36d5	-0.05815776
212	0xbc4429bf	-0.011972844
213	0xbd9ce9a3	-0.0766175
214	0xbd633641	-0.055471662
215	0xbd7e9cdd	-0.062161315
216	0xbe192562	-0.14955667
217	0x3d263d27	0.040585663
218	0xbe046b3a	-0.12931529
219	0x3c8287e5	0.01593394
220	0xbd5dfe51	-0.054197613
221	0xbe51d662	-0.20491937
222	0xbc874fd6	-0.01651756
223	0x3cd8ed78	0.026480421
224	0xbd94b142	-0.07260372
225	0xbd1f330f	-0.038867053
226	0x3b6e0311	0.0036317746
227	0x3d8e7176	0.06955235
228	0x3ce103fa	0.027467716
229	0x3d9281b8	0.07153648
230	0xbe43d912	-0.19125775
231	0xbdcb8aaf	-0.09938561
232	0xbdfe36e2	-0.12412812
233	0x3da56d8a	0.080775335
234	0x3d8e6439	0.0695271
235	0x3c182581	0.009286285
236	0x3c395d71	0.011313782
237	0x3d8ce605	0.0687981
238	0xbfb25ebf	-1.3935164
239	0xbac5b12d	-0.001508271
240	0x3cd7ca95	0.026341716
241	0xbd490a52	-0.049082108
242	0xbc8c3783	-0.017116314
243	0xbbccd104	-0.0062505025
244	0x3bc5c4d0	0.006035425
245	0xbd3ae2a3	-0.045626294
246	0x3cab60f8	0.020920262
247	0xbdd9a5a9	-0.106273
248	0xbf7318a8	-0.949595
249	0xbd9fce18	-0.07802981
250	0x3dc642ff	0.09680747
251	0x3cd68e03	0.026190763
252	0x3cf88083	0.030334717
253	0xbd130868	-0.03589669
254	0xbe0807ab	-0.13284175
255	0xbb256ec6	-0.0025243028

classifier.2.bias f4 [10]
0	0x3d825493	0.063637875
1	0xbdf31e5b	-0.11871024
2	0xbd81850b	-0.06324204
3	0xbbaeac7e	-0.0053306213
4	0xbbc7421a	-0.006080878
5	0xbdbfde8f	-0.093686216
6	0xbe1be8ce	-0.15225527
7	0xbced5fd8	-0.028976366
8	0xbd5eb7de	-0.05437457
9	0xbce78b9a	-0.02826481
